tdse-amp-squared/tdse-amp-squared-main/tdse-amp-squared-main-script/tdse-amp-squared-main-script-forward-inverse/07-08-2022/numts-110_dt-1e-2/v1/thetahat.npy (npy, 1160 bytes, 1 tensors)

array f8 [129]
00000000: 331b 7b30 8f86 833f a685 a381 9e30 1240
00000010: 54a4 a761 68c3 1cc0 7f93 6eed 772c 2140
00000020: 0ce1 e168 d53c 1ac0 957b 6937 26fd 0b40
00000030: ea0d 69c7 3732 e0bf 7bc3 5c79 7ceb fcbf
00000040: ea8c 1a24 e733 0940 3375 1b64 07c4 0bc0
00000050: fe4a b104 1663 0740 51d1 0aff 42c8 fcbf
00000060: 6cb2 e7d1 5277 dc3f 57ca 99d7 77dd e93f
00000070: 885d 6e0d 755e fbbf f820 4905 60fa 0040
00000080: 1baa e7dd 5e41 00c0 653f a0c8 1f62 f83f
00000090: 679e 3e61 cb20 e8bf 57fd c9e5 6669 babf
000000a0: ba19 695f c671 ec3f 860e 3290 0cf8 f7bf
000000b0: b9bf 4a31 5b20 fe3f 0f53 4517 5c72 00c0
000000c0: 5312 95de 248a 0040 11e4 15f3 c6b5 ffbf
000000d0: 9dbb e32e 509e fd3f 0931 0179 8260 fbbf
000000e0: 45e5 a0e2 3521 f93f 8c4d 822b 2cbd f6bf
000000f0: 71c6 b273 ece2 f33f 788a 8c0d 735f f0bf
00000100: 84eb b137 54da e73f 7278 f2d1 ba6b d9bf
00000110: d379 fe8a 2fb7 753f a7e6 fab2 3b2c dc3f
00000120: cd59 179e a061 e9bf 6b61 f5cb df0e f13f
00000130: c7e8 071b 506e e6bf 4bd5 3a12 b661 e73f
00000140: 42d7 00c0 78e4 f73f e746 4129 2dde efbf
00000150: e229 4d0e 86b7 1440 df38 79f1 3d6e 06c0
00000160: 93c2 18ec 45be 1b40 d382 ceca 65e4 00c0
00000170: 14e5 c1b4 401a 1040 4c73 f0a9 fad9 fa3f
00000180: 1908 0510 708e ecbf caa4 70f7 cc1d 1040
00000190: d230 2d76 5980 f2bf c906 3b74 17dd e43f
000001a0: 1c55 cd25 a58c 1040 826e a793 ea5e 11c0
000001b0: cac4 8c28 f805 1940 bee6 b53d 4e5a f9bf
000001c0: 7ad8 6496 1187 debf 9e29 b915 e5a7 1940
000001d0: bbf6 c3f3 0399 15c0 0813 4732 c8aa 1040
000001e0: c298 52e0 d2ca 1240 e2bb aeb3 370a 23c0
000001f0: 9394 d099 e141 2c40 7ff6 414f c110 12c0
00000200: 1b11 4027 0bfe 26c0 4553 263d fb89 cfbf
00000210: a7e4 ae8f 9789 df3f 2487 df53 ec91 e6bf
00000220: be95 2d70 272a ec3f c3ff 1e5e d416 f0bf
00000230: c9b2 01bb 0842 f13f 8b3b b846 7590 f1bf
00000240: 7076 f255 bc1b f13f 1a96 3df9 f706 f0bf
00000250: 565b 469a 5c03 ed3f 58c3 41d5 ea73 e9bf
00000260: 840e 7135 3ea7 e53f e8c0 fdc1 0dcc e1bf
00000270: bee1 df77 69c8 db3f 62ab 135e 12bd d3bf
00000280: 0caf 8f79 904c c63f 9825 d8de 8a66 9abf
00000290: 0f51 1d83 8bce c1bf 9810 e234 e3aa d43f
000002a0: dd3a 090d e5a7 e0bf 6a27 41b5 7a3e e73f
000002b0: f2cb b7a9 518c edbf 1cf4 27f0 1b8d f13f
000002c0: 6137 9b58 1d91 f3bf ff0e 81b2 7583 f43f
000002d0: 591b 8ffd 691f f4bf fe18 c61d c13d f23f
000002e0: 2f94 5454 8ce8 edbf adea 0fa1 2233 e53f
000002f0: b2a3 9c80 dc78 d6bf 84c3 e402 8f9f 953f
00000300: d3a1 6631 7640 d23f 22a7 5981 46cc e1bf
00000310: 1b43 497d 7801 e93f 12c0 2ce4 4059 efbf
00000320: 1f9b 1105 47db f03f 685c ba73 2e7f f4bf
00000330: d37d 8af5 457a f33f c5b0 9937 5625 fabf
00000340: 779d 49e4 200c f13f 2182 3ab3 b24a 01c0
00000350: b031 604c 925e dd3f ce4c b61b 9557 05c0
00000360: 7447 f960 585f b23f 39d8 214c bc5f 04c0
00000370: b444 573b e856 d23f 4be4 372f 5612 00c0
00000380: 5cce 77f3 5aa8 ea3f a303 63a9 5cb4 f7bf
00000390: f9dc 0d9b 33fd ef3f 44db 8014 4bcf eebf
000003a0: a0f4 a22a 50f6 e03f 9dab 6d16 6905 c5bf
000003b0: b52b eb70 b522 e0bf b411 cf98 f1dd ef3f
000003c0: b691 2648 0bf4 f8bf c6ae 3349 e8a4 fe3f
000003d0: 2752 edc4 b9db fdbf eb4c c885 5f6c fc3f
000003e0: 79c5 1951 102c f0bf 2694 2d37 6480 ed3f
000003f0: 8c2c a6f7 944c dbbf f33a 4e33 a454 0040
00000400: 4c30 4719 b58a 0cc0
0.009533995310801657 4.547479653936 -7.190827871186304 8.586852473972383 -6.559407843386236 3.4986080483499316 -0.5061301130994569 -1.8074917546002485
3.150343210277801 -3.470717222297617 2.923381840382148 -1.7988920176113263 0.44478292940656305 0.8082846842720056 -1.7105608486798207 2.1222534573499807
-2.03191922534212 1.5239560925437783 -0.7540032290753061 -0.10317080602725547 0.8888885367858201 -1.4980588562620212 1.8828994679897575 -2.0558397119551794
2.0674531354182277 -1.9818791862037453 1.8511506873726156 -1.7110619284385982 1.5706080296207159 -1.4211847018785617 1.2429012793985772 -1.0233030823952998
0.7454014861863105 -0.3972003031029835 0.005301652636175952 0.44019978025935774 -0.7931674087256454 1.066131397927246 -0.7009659316966229 0.7306776386309733
1.493279218685942 -0.9958711438905227 5.179222320041363 -2.8038290848845544 6.935813607226595 -2.1115222782394567 4.02563745912018 1.6782175672771755
-0.8923874199756511 4.029102197885729 -1.1563353172560267 0.6519887228134503 4.137348738343714 -4.342691714376658 6.25582946166214 -1.5845472727364007
-0.4769939392748551 6.413959826876093 -5.399429138980561 4.166779313648256 4.69807005409365 -9.519956221656631 14.128674322806807 -4.516362417603545
-11.496178843088776 -0.24639835820985403 0.49277295142708016 -0.7053128851077628 0.8801457587221007 -1.005573623333462 1.0786216072985317 -1.0977680933462775
1.0692714078244556 -1.0017013297996358 0.9066603673153206 -0.7954000630544256 0.6766654056340973 -0.5561589039698704 0.4341071768426693 -0.30841502368155294
0.17421155868157034 -0.025781793452585328 -0.13911575223995284 0.32293014683114896 -0.5204949621782721 0.7263768711211303 -0.9233787836841414 1.0969504719826153
-1.2229283772644168 1.2820946667497422 -1.2576694397591466 1.140076748184185 -0.934637226779733 0.6624920984025572 -0.35112679061654284 0.021116480399715268
0.28518442940051364 -0.5561859632846089 0.7814295241351802 -0.9796452003993201 1.0535345266341165 -1.281050159513848 1.2173518744892717 -1.6341154262436686
1.0654610555155537 -2.1614736559133836 0.45889718493051657 -2.667764870167594 0.07176735274813756 -2.546745867522102 0.28655439181336395 -2.0089534462863745
0.8330511813387136 -1.4815336815520161 0.9996583965684344 -0.9628043556648227 0.5300675232644103 -0.16422761531006538 -0.5042369084779837 0.995842741446316
-1.5595810716996374 1.9152605876396804 -1.8661439602339074 1.7764582849384236 -1.0107577484125996 0.9219227864929322 -0.4265491884659205 2.041328812432192
-3.5677282309389167
