tdse-wave-function/tdse-wave-function-main/tdse-wave-function-main-script/dt/v1/trial_nts-83_dt-.0024/thetahat-fourier.npy (npy, 1160 bytes, 1 tensors)

array f8 [129]
000000 19 16 62 24 fc 7a 2f 40 73 fe 37 d3 ca 4d 29 c0
       15.740204941724231 -12.65193805750389
000010 1d e6 37 0e f0 c2 1e 40 c7 3d 41 0b 23 61 07 c0
       7.69036886421375 -2.9224301223073073
000020 12 26 2f e0 75 0b ef 3f 13 e6 d9 51 1c 55 91 bf
       0.9701489809605752 -0.01692623376445652
000030 28 2b e8 cc c9 6e e0 bf 58 d3 7b 37 f7 c3 ea 3f
       -0.513523960312658 0.8364215930620089
000040 85 86 a9 3e 70 c1 f0 bf c6 ed 33 8e 31 16 f3 3f
       -1.0472261855833562 1.1929183535383898
000050 2d 27 f0 a4 53 c0 f4 bf 0c cb 9e 7c 35 f7 f5 3f
       -1.2969547694105572 1.372853743360511
000060 c0 ed fb 1f 89 e1 f6 bf 0f 0b 91 07 e2 97 f7 3f
       -1.4300624131563922 1.4745807929581962
000070 a0 1a 18 a0 b6 27 f8 bf e4 76 4f b5 bc 99 f8 3f
       -1.5096956494977931 1.5375334818303878
000080 8f a9 06 1b 10 f5 f8 bf 15 18 d9 c7 53 3f f9 3f
       -1.5598298125938503 1.5779607588351656
000090 7b ea 55 f7 97 7c f9 bf a5 5a af 8a bf af f9 3f
       -1.5929183637187225 1.6054072778112325
0000a0 3a e5 a4 05 eb da f9 bf f6 02 cf aa b6 ff f9 3f
       -1.615946790740351 1.6249300644123514
0000b0 40 97 9c 59 4c 1f fa bf 4e bd bb 56 c5 3a fa 3f
       -1.6326411724525798 1.6393483531972666
0000c0 d8 e1 29 14 f9 52 fa bf 87 83 57 c8 45 68 fa 3f
       -1.6452570712700574 1.6504571748593848
0000d0 0f 26 da ad 46 7b fa bf ac 01 0a 6f a2 8d fa 3f
       -1.655096701726851 1.6595787370170951
0000e0 7d 7b f9 12 19 9e fa bf cc bf 0f f8 5c ad fa 3f
       -1.663598131293582 1.6673249902632845
0000f0 39 50 30 d4 51 c0 fa bf b6 e7 38 5b 9f cd fa 3f
       -1.6719530380842242 1.6752008021708042
000100 bf 27 b4 72 8d d0 fa bf 1a 21 d5 78 30 30 fb 3f
       -1.6759161453833114 1.6992649765034629
000110 62 57 a0 19 77 e9 fb bf f9 99 4a 48 f5 f7 fa 3f
       -1.7444983483341834 1.685536653889015
000120 05 b8 00 87 27 11 f8 bf 1d ca 68 a0 35 20 fd 3f
       -1.5041880868479904 1.8203636423101053
000130 6a 6e e4 ec 0c 72 02 c0 f4 86 22 eb 35 04 f1 3f
       -2.3056887156688406 1.063527983184426
000140 70 44 22 fc f0 0e f2 bf d2 ae 95 0d 5e ba 02 40
       -1.128647789857748 2.3409997044853776
000150 2e e6 13 a3 1f 1d 03 c0 bd 8b 8d 35 c7 61 fa 3f
       -2.3892204990813957 1.648871621314114
000160 8f 37 8d 32 aa 26 f3 bf 3b 61 56 36 b6 f8 f5 3f
       -1.1969396567032822 1.3732206461482537
000170 69 3c bc a5 22 ef fa bf 3e e7 d3 0c 4d 37 fd 3f
       -1.683382651713851 1.8260012150844456
000180 22 70 21 17 a9 df fd bf b5 e6 7c 7a 2a 5d fe 3f
       -1.8671046165027367 1.8977455887492571
000190 b3 e1 ce 22 24 c9 fe bf a9 74 00 6e e1 38 ff 3f
       -1.9241067275707848 1.9513868615097556
0001a0 e5 57 9f 7d d5 27 00 c0 b8 54 2a 77 86 4e 01 40
       -2.019450169968865 2.16334241006788
0001b0 9b 71 d3 55 17 07 03 c0 a4 1e 6a 88 c3 8b 04 40
       -2.378462477221729 2.568244043100849
0001c0 56 35 b0 26 0e db 03 c0 29 aa 73 e1 43 b3 fd 3f
       -2.48196058488126 1.856265907927659
0001d0 2e bf 85 1c e2 da e0 bf 45 4f 14 a5 a9 86 f8 bf
       -0.5267191464499541 -1.5328766296779162
0001e0 91 44 46 b6 4b 7a 07 40 87 cd 2d b8 76 65 f2 bf
       2.934714721698193 -1.14977142281427
0001f0 24 c4 0d 51 2b 57 f9 bf d8 32 f5 5c de 1b 21 40
       -1.5837815443194438 8.554430870944472
000200 54 03 ed 51 00 57 44 c0 0f 5a f7 90 dd 3c 9a 3e
       -40.67969726632023 3.909730290329864e-07
000210 f2 1c 2d 25 0a 77 aa be c6 cd 54 57 79 ed b3 3e
       -7.887184188892301e-07 1.1877794724002827e-06
000220 b0 3b 34 1e 04 35 ba be 5f 30 6c 4b 8f 63 c0 3e
       -1.5620645335589094e-06 1.9537097516505716e-06
000230 9c 87 10 26 a2 f7 c3 be 25 37 5f bd ea 79 c6 3e
       -2.3802897861782614e-06 2.6793763749703827e-06
000240 06 36 0a 8a fc 4f c9 be 3a e6 58 62 0b a9 ce 3e
       -3.0174788466289245e-06 3.6549961517612174e-06
000250 00 df 28 ca 3b cf d0 be b7 5c ef c6 2c 47 d1 3e
       -4.007698552181476e-06 4.119402645628277e-06
000260 79 08 d1 52 58 34 d3 be 45 1b ca 8c 8c 08 d5 3e
       -4.578703095838471e-06 5.014752059501555e-06
000270 20 da 38 1d 2d d9 d6 be c7 37 0a 14 95 ba d8 3e
       -5.4474698632429625e-06 5.895814240942536e-06
000280 4f cb 7d 4b 30 6c d9 be a4 08 81 6c 4a de da 3e
       -6.061223011377358e-06 6.405907420572107e-06
000290 a4 2d 53 fb 63 68 dd be 9f 34 ac f2 ea c6 de 3e
       -7.01136007314908e-06 7.337813978447769e-06
0002a0 14 1a 9e db f2 2b df be 1a 5b 16 ca f4 65 e0 3e
       -7.431906334681819e-06 7.819302768647492e-06
0002b0 86 0b d1 38 1b e3 e1 be db 3a a9 02 17 fb e2 3e
       -8.529250204008522e-06 9.050760202770059e-06
0002c0 ac 6b 40 c5 0e 14 e3 be e6 e5 3f 8c 48 65 e3 3e
       -9.097266378479473e-06 9.24856102101335e-06
0002d0 05 e9 11 df 94 bf e4 be 5f 59 9e 86 95 03 e6 3e
       -9.89359156932215e-06 1.0497093359690302e-05
0002e0 15 24 29 c6 4d 9c e6 be b8 93 01 88 45 d0 e6 3e
       -1.0781556004551101e-05 1.0878353578111735e-05
0002f0 66 52 16 23 df e9 e7 be 58 f9 a6 37 30 86 e8 3e
       -1.1402874494228706e-05 1.1694037074569286e-05
000300 4c 4f 8b 83 aa 17 e8 be 8f a3 5d f7 4b 7c e9 3e
       -1.1488173286812148e-05 1.2152449680962063e-05
000310 b4 59 02 6c 50 af ef be a1 7f e6 92 9d 1c ef 3e
       -1.5108499951826993e-05 1.4835252468980825e-05
000320 b5 b7 e9 13 90 0a b8 be f7 13 19 ea 01 00 ee 3e
       -1.4329708190280122e-06 1.4305128675515587e-05
000330 dc bb 68 17 9f 3d 11 bf 83 6d 03 16 d2 df dc 3e
       -6.576808468915181e-05 6.884169437361575e-06
000340 87 b8 f8 e2 46 5e 2d 3f 76 38 02 65 7b 82 36 3f
       0.00022406211199793946 0.00034347069323182407
000350 bb 49 ae e5 f6 1a 23 bf e0 53 1f d7 5e 1e 3f bf
       -0.00014576209909174056 -0.0004748326820139242
000360 36 be 8a dc a4 df 2c bf 97 57 0d 29 0d 4f 12 bf
       -0.00022028815717110996 -6.984250854932674e-05
000370 c3 21 d4 30 18 93 1f bf b0 5d fc 38 63 7b 3b 3f
       -0.00012044749401607991 0.0004193417780568821
000380 f6 9c b8 26 20 c9 36 3f cd 7b b6 68 a4 ef 0f bf
       0.0003476813787721267 -6.091328131251732e-05
000390 2f ef 83 c2 e4 9c 20 bf ed a7 30 20 91 0d 20 bf
       -0.0001267461059412055 -0.00012247463755105052
0003a0 5c 34 1f 16 38 d3 35 3f 18 90 ab 25 a8 96 b5 be
       0.00033302420899589623 -1.2867750657725006e-06
0003b0 0c 59 0b e5 ca c7 41 bf 18 25 d1 55 3f 0f 45 3f
       -0.0005426159569548463 0.0006426867727295253
0003c0 ea 6f 8d e6 e5 11 19 3f a2 c2 1e fa 4b 8b 40 bf
       9.563413335683638e-05 -0.0005048867208100225
0003d0 95 72 f2 3e 08 f2 1f bf ef ec b7 a5 0e 69 36 bf
       -0.00012186217621707803 -0.0003419552574254877
0003e0 b7 e1 7f 50 71 1f f8 be fe 38 54 85 81 03 4a bf
       -2.3005316535292075e-05 -0.0007938749719487435
0003f0 69 a3 40 12 a0 81 46 bf 1e 58 98 3d 2d 9c 30 3f
       -0.0006868392561091122 0.0002534494829843375
000400 02 e0 99 16 83 9f 63 bf
       -0.002395397216613305
