tdse-amp-squared/tdse-amp-squared-main/tdse-amp-squared-main-script/tdse-amp-squared-main-script-forward-inverse/v1/thetabestprop.npy (npy, 1160 bytes, 1 tensors)

array f8 [129]
-0.002298925139002085 -8.709681830767007 4.196533777725381 0.1038782775425257 -1.5435746414141582 1.9502382596683319 -1.9124124384402097 1.6652027694272027
-1.3050300166224986 0.8909698212092448 -0.4590794084869767 0.03212893702891793 0.3712772642542549 -0.7362993416692071 1.051944486169732 -1.3104839714835725
1.5070667193031704 -1.638982687473322 1.7056020611399656 -1.7072721808582823 1.6461717372047158 -1.5269293143816711 1.3563192965821822 -1.1425022897966362
0.8974890920209575 -0.634320216105392 0.3658272993946265 -0.10210917665296734 -0.1482824671364367 0.3843199589943413 -0.6024778374344988 0.7943946445042662
-0.9471889444952607 1.0911788583373636 -1.2594124279598755 1.4177385852851634 -1.358387077078271 1.6664273973790888 -1.346024815132896 1.8371619706057056
-1.0372535447215725 1.2452778035381793 -0.8856044629212291 0.5152206941503711 -0.3361848100963883 -0.03825383724087257 0.27572613919321354 -0.410220113945252
0.4754593173145714 -0.4908283660893217 0.7162867506376004 -0.8609320345299855 0.6957776758693636 -0.8162573140469462 0.4062586310147307 -0.24309432800138134
0.2492435963813623 0.5261917012898623 -1.0190828209486127 -0.13360654385568066 -0.6625292010874184 -0.8080866892364899 2.2199671358904918 -0.6631847822780319
-0.47445225875170827 -0.011818309160810697 0.00787228668919568 -0.00542997671811089 0.0031652840778741277 -0.0014342584628957455 -0.00044613009958605304 0.001875831425377715
-0.0028011661183088036 0.0028112679111978152 -0.0017282400358073025 -0.0001937845666511002 0.0025638788745387946 -0.004978695873307071 0.007156128790112595 -0.008931900744427368
0.010285747942595763 -0.011244677910244385 0.0118428192035233 -0.012056653653604112 0.011874381259912716 -0.011281626236669704 0.010374050408773247 -0.009253913857933196
0.008005824377189141 -0.0066391581106937094 0.005194549545953102 -0.0036073233306770517 0.002015758574375949 -0.0004549630348337206 -0.0010764876682279325 0.0025975024047433177
-0.003735246801096841 0.005625532974849256 -0.007852474135769274 0.0072745943597869855 -0.002589876134484229 0.03601187703652183 0.0029497838377986214 0.0022702669658138286
-0.01982536354732928 0.026434638558919615 -0.010432255666486583 -0.0047266397814946385 0.017189187171495084 -0.03117226085393111 0.031697762040173647 -0.014954905082711809
0.006119021007221453 0.007318879799136299 -0.016359832135344674 0.008318194528084535 0.00698219345968203 -0.008290429176145085 0.0015787863490545032 0.01058136801895548
-0.015233126149366968 0.00784823168591213 0.018625923438491655 -0.012002007022483264 0.0078015969223948715 -0.0001495556782944371 0.013405247336616664 -0.0317479650925535
0.042895937849887836
00000000: e904 3709 32d5 62bf 5e6b bb6a 5b6b 21c0
00000010: 338f 8f26 40c9 1040 7b59 cf4c c497 ba3f
00000020: 96f0 bc52 7bb2 f8bf 60ef 8a08 2d34 ff3f
00000030: 6e07 f9c8 3d99 febf 1c60 bea8 aba4 fa3f
00000040: 4d12 9b27 67e1 f4bf 3122 7a24 d382 ec3f
00000050: 60fd 6d99 8e61 ddbf 9dc1 963b 3473 a03f
00000060: 9e1a eeb6 01c3 d73f 6d23 11a3 c38f e7bf
00000070: 85e7 d4bd c3d4 f03f 2944 770a bef7 f4bf
00000080: 0ac1 04fe f11c f83f 9b87 16e9 4539 fabf
00000090: ab61 0963 254a fb3f be82 62a2 fc50 fbbf
000000a0: d84c ee2c b856 fa3f ed2a c96e 4d6e f8bf
000000b0: 3111 dcdc 7bb3 f53f b581 247b b047 f2bf
000000c0: 5ae5 570b 3bb8 ec3f 70a8 ebe8 594c e4bf
000000d0: 2b92 b8e7 b669 d73f 3e92 58b6 d323 babf
000000e0: 91e9 757d ebfa c2bf 1f2b c5bd b298 d83f
000000f0: 3e12 0b9a 7f47 e3bf 866d 4851 ae6b e93f
00000100: 4bad 7730 5f4f eebf 5a54 6af6 7775 f13f
00000110: cb37 64a5 8d26 f4bf bc3b a1a7 0eaf f63f
00000120: 67c3 7516 f4bb f5bf e26c 4ec6 afa9 fa3f
00000130: 8f9a 0951 5189 f5bf 7e4d 53f3 0365 fd3f
00000140: e0d3 432c 9798 f0bf 5e19 0a6b a8ec f33f
00000150: bf06 ae2b df56 ecbf f724 f31b b07c e03f
00000160: 4da9 314b 0d84 d5bf aac7 cac7 0196 a3bf
00000170: 382e 9f3f 7fa5 d13f 9d99 63dd 0b41 dabf
00000180: d973 9cea ec6d de3f 4a60 1361 bb69 dfbf
00000190: c17d 1131 d2eb e63f 2b52 8c56 c18c ebbf
000001a0: 6faa 648b cf43 e63f 5a7a 9ea8 c71e eabf
000001b0: 9443 7b33 2400 da3f b1f4 4d06 b71d cfbf
000001c0: 0c02 99d3 36e7 cf3f 0eee 8efa 8fd6 e03f
000001d0: 463c bec9 294e f0bf 7a24 32ec 041a c1bf
000001e0: 5418 6a70 7033 e5bf 0351 d39d d8db e9bf
000001f0: 6fc1 3621 7ec2 0140 50d9 e24a cf38 e5bf
00000200: ce85 b601 6d5d debf 30b4 b79a 3234 88bf
00000210: b1a7 ff6e 581f 803f acda c146 be3d 76bf
00000220: 5fc7 1af3 14ee 693f 0a29 4c4c b77f 57bf
00000230: 2ce8 fe2f d23c 3dbf c6d3 fca7 cebb 5e3f
00000240: c634 cd9b 78f2 66bf 3afa a4f7 a707 673f
00000250: 2952 bd9b c350 5cbf 8801 a2c0 5466 29bf
00000260: 0178 58fd d700 653f c0c8 3d7f 8a64 74bf
00000270: 5c76 e9b1 be4f 7d3f ad1c b56c e34a 82bf
00000280: 900e 3ab8 b110 853f ee46 071f 7307 87bf
00000290: d861 5f49 0c41 883f 4ea5 21a9 28b1 88bf
000002a0: 0e5b 5f79 9851 883f 7287 db3d d21a 87bf
000002b0: f8a4 dc79 fd3e 853f 4ee1 094b b7f3 82bf
000002c0: 5337 058f 5b65 803f ff9d 556f a931 7bbf
000002d0: f857 ad46 e146 753f 2244 67f7 1a8d 6dbf
000002e0: d018 ea24 5a83 603f e807 025b 03d1 3dbf
000002f0: 01f1 17d5 1da3 51bf f21f 267c 5b47 653f
00000300: 2469 4d5b 6199 6ebf 8c8b 6482 cc0a 773f
00000310: 7bb5 d83c f514 80bf 2e08 df0d f7cb 7d3f
00000320: d4ad 8b29 5d37 65bf fb63 4714 2670 a23f
00000330: c4ba a223 252a 683f 692d e24b 1899 623f
00000340: 31b3 44a0 194d 94bf 085a 5e90 ae11 9b3f
00000350: 5cdf 49a7 815d 85bf d1fd 80b4 3d5c 73bf
00000360: be4e fcd2 0a9a 913f 03db a303 9feb 9fbf
00000370: 964b a366 b03a a03f 05d3 f561 ada0 8ebf
00000380: c6ba c031 4210 793f b01f 17d6 66fa 7d3f
00000390: 8919 f5bf a1c0 90bf 68da ad2b 2109 813f
000003a0: b4d4 0449 5c99 7c3f 3f66 7391 92fa 80bf
000003b0: f2cd 23ef e8dd 593f fef2 b42c afab 853f
000003c0: 6bdc 0495 8b32 8fbf 981f 61d3 bb12 803f
000003d0: 9abf 1a90 ac12 933f daf4 2e1d 8294 88bf
000003e0: 5a50 363a 91f4 7f3f 00bf 917e 419a 23bf
000003f0: 1296 3ed7 3574 8b3f 6ffa 92ef 4441 a0bf
00000400: da9d 64d4 74f6 a53f
