tdse-amp-squared/tdse-amp-squared-main/tdse-amp-squared-main-script/tdse-amp-squared-main-script-forward-inverse/v2/thetabestv.npy (npy, 2184 bytes, 1 tensors)

array f8 [257]
00000000: 3661 4dc0 9efa 503f 56d5 b435 ee90 21c0
00000010: 789d 7014 5ef3 0e40 e4aa df4e 04a3 babf
00000020: 47ff 0875 3660 f3bf dada e018 2543 0440
00000030: 740b 6f40 9419 0bc0 91c2 d50e d2a4 0e40
00000040: 7a97 ec8b dfc5 0fc0 abe6 3c86 2933 0f40
00000050: 91a5 41b6 736d 0dc0 3d44 fc11 eece 0a40
00000060: ba25 5701 ce9b 07c0 b260 7c2e 450b 0440
00000070: 92c4 e9f7 094b 00c0 7cc8 6f33 3b06 f93f
00000080: 53f2 6635 8dad f1bf a1c6 0ca0 0f95 e53f
00000090: 0f78 cb37 d947 d2bf e12f 5f6d 65fa a9bf
000000a0: 9c30 a8cc 30e5 d43f d1c3 e897 102a e1bf
000000b0: 6913 3e7f a4b2 e53f 826b bb17 4512 e8bf
000000c0: 794d 709e 8067 e83f edb3 c62e 10e8 e6bf
000000d0: d135 5979 f9dc e33f 7161 2198 403f dfbf
000000e0: 503c 226d d826 d53f abd1 be1c c381 c4bf
000000f0: 5851 b265 7bec 84bf 9eb7 cbf8 c5aa c53f
00000100: 0b4c 184d 9da6 d3bf b14e ea50 959b da3f
00000110: 81c5 d678 455d dfbf 1adf 335c b1df e03f
00000120: d749 efcd d3e1 e0bf 5b5b 8c90 3c95 df3f
00000130: 10ce 2529 a581 dbbf cf2a 7b31 87f4 d53f
00000140: 05e9 490e c7db cebf df17 b4a0 f7e4 c03f
00000150: 96cd 73ba e994 98bf 05a3 ca5f 735b b3bf
00000160: d87e 2fb7 2699 c43f 079b 1144 a11c cdbf
00000170: eb28 acf7 0d6c d13f 2227 aaec 45d5 d2bf
00000180: d072 1612 f0cd d23f bf27 7579 4773 d1bf
00000190: 1932 903d 00e6 cd3f 5f15 c8e1 7009 c7bf
000001a0: c480 c6cb ebd6 bd3f 0448 15c5 ab9a a8bf
000001b0: f335 745a 7be8 94bf 1d4d 7606 076e b53f
000001c0: 7380 17c8 9384 c1bf b83a 1518 9aa0 c63f
000001d0: c256 3aab e1af c9bf 5646 690a 0a85 ca3f
000001e0: fe19 35bc e047 c9bf e6b3 6293 a131 c63f
000001f0: 380d 3c70 2203 c1bf 9b23 f738 0238 b43f
00000200: fa70 1896 ff1d 93bf 0fd8 68fc 29da a5bf
00000210: 80e3 e0b0 1882 ba3f a35a a8dd 8107 c3bf
00000220: 370c 407f 3838 c73f ab7c 6542 85e5 c8bf
00000230: 4ed4 1bbc c18a b43f 22f9 c093 ee72 cdbf
00000240: 4c5f 2359 4aad c7bf 2da5 4471 10af de3f
00000250: dbeb 9994 01b7 e4bf ad8e e629 9276 e63f
00000260: 4aae a362 da5d e5bf 2e27 6aed 801c e23f
00000270: 6d6c 40ba 3716 dbbf 9bd0 fe8e 600a d13f
00000280: 4775 2589 b9e6 b9bf 9b9f 2a9a e04f a4bf
00000290: 8dae 4ee1 1714 c93f e5e6 37aa 4cc5 d7bf
000002a0: d5c8 32ff 9b5c e13f 4dd5 f2c6 c264 e6bf
000002b0: f2ff a559 ecbb e93f fb94 f492 316e ebbf
000002c0: 9e51 be64 f1c1 ea3f b7f3 3f67 e809 e9bf
000002d0: 4e25 dac1 6c50 e53f 254f 76ec 0449 e0bf
000002e0: 8256 c2f6 2890 d53f 3b40 e5d2 35d9 c2bf
000002f0: 106d a779 5349 a8bf 11bb fb3b c1b7 cc3f
00000300: 0f58 c3ad 4d54 d6bf 1597 2619 ae17 da3f
00000310: 443c ad39 e35c d8bf 183b 29ef 24f5 d33f
00000320: 7cdc 96da 4c34 c8bf 4cb4 4110 dd8d b03f
00000330: b4dc b97a 46a2 ae3f 351c 9626 9d08 cabf
00000340: ddb4 c406 0fc5 d63f e569 0107 5a9a e1bf
00000350: 341d f1bc 70af e63f 7961 e74e d55e eabf
00000360: dd92 5a57 50a0 ea3f 0f13 df01 595f e7bf
00000370: 7a92 456e 6577 e03f 1d35 438c eaea cabf
00000380: 18df c748 1e14 bbbf efb7 7801 0a3a d73f
00000390: e154 93af 0dbd debf d99a 7764 8414 e03f
000003a0: 056b 8091 8e98 dbbf 7bcf 92b7 31e4 d63f
000003b0: 5c05 3d85 940f cfbf ac1d 45e0 5821 b53f
000003c0: 8102 50c3 d945 af3f dd62 6ff2 ee24 c5bf
000003d0: 18ce 6819 5f5d b83f 55fa ba48 2ab5 c13f
000003e0: 7e79 551d 4194 d2bf 9d98 e130 5c78 d13f
000003f0: b1c7 0774 6992 d7bf 44ce 6b98 6d81 cd3f
00000400: b705 80dd 295a b53f e8db adc6 cd4d fabf
00000410: 1a83 dcf1 201b 0040 f2c9 40de 4002 05c0
00000420: a88d 6256 83cc 0640 a926 049e 09e7 03c0
00000430: 04b5 6901 03c9 fc3f 3490 cb2d 8765 f0bf
00000440: 82cd 206a 115a d13f cebc f47f e386 da3f
00000450: abc7 c439 ed2a f0bf bb1f a877 9f1b f83f
00000460: 80a1 e20f 5a67 febf 598a 4370 d085 0140
00000470: 3d45 2056 9d08 03c0 34c9 b476 0cc5 0340
00000480: b645 1d7f 3dc8 03c0 c775 da67 1b23 0340
00000490: fc9d 7fe1 0eeb 01c0 9a23 8623 a438 0040
000004a0: a844 01a5 074f fcbf 23c6 3b60 beaa f73f
000004b0: 58d4 f507 66c1 f2bf cbb5 bb33 d29f eb3f
000004c0: 64e6 1f41 931f e2bf a8d9 9bc8 35d5 d23f
000004d0: 985d c9a2 337e adbf cbb1 d14d 6251 c1bf
000004e0: 4c52 77c7 b1de d13f 8304 a154 3dcb d7bf
000004f0: d9d9 9b29 bf7c da3f 4160 f784 652d dabf
00000500: d240 e4e7 4844 d73f 39a4 6e60 c645 d2bf
00000510: c5da e8de 0ea2 c73f 3ffd 751e d83d b2bf
00000520: 9fbc abf2 40b6 a6bf 99d9 f7fb 9981 c33f
00000530: 72a4 bed9 394c cfbf 91a1 4a8f 3118 d43f
00000540: ce15 85c5 0ccf d6bf 63c6 63f1 39a7 d73f
00000550: 5ffa 82ab 0ba3 d6bf 48da 8b15 0be9 d33f
00000560: 95cf 2847 b774 cfbf a621 5b83 8fd9 c43f
00000570: ff28 f738 6182 b1bf 2071 8c42 a01a a0bf
00000580: 0f7c 8522 c6bc c03f a8e0 8504 64ab ccbf
00000590: d424 9253 4f9b d33f 364b 737e 91ef d7bf
000005a0: 9197 6cdf b223 db3f 2976 bb7c 241b ddbf
000005b0: 8da5 1a01 a6cc dd3f f05b b947 b444 ddbf
000005c0: 3ef3 87f3 28a3 db3f 96d8 10f9 a225 d9bf
000005d0: da04 4fbb 7507 d63f 1f7c 72fc 8197 d2bf
000005e0: f6cb 6a0a f148 ce3f 7b4a 9f2a 5ed9 c7bf
000005f0: a4ca f4a4 3b1a c23f 1730 ce97 43cf bbbf
00000600: f893 29a5 30ae b73f 164b d744 9b66 b9bf
00000610: 5730 b16c 7fc6 c03f e0e1 b398 640f cabf
00000620: b13e 3e0c 1bcb d03f 21b4 0262 0646 d5bf
00000630: 98c1 4b0f 0abf d23f 9f3f be2c d072 dbbf
00000640: 8682 da26 7701 d83f e2f7 f486 4b4f cdbf
00000650: 435c 3406 0df0 a33f 168c 9b2c 5dd8 c73f
00000660: f985 de3a 0f7c d9bf b3c2 0ab5 f887 e23f
00000670: 72c5 4eb5 f3f6 e5bf afc2 3202 2b7f e83f
00000680: b030 74ab 66dc e8bf dc8f 20ef 45e0 e83f
00000690: 0064 bac0 9000 e8bf 4bcb 9b8a 5142 e63f
000006a0: c6a9 7435 1c7b e2bf 1e5b 772b 9f75 db3f
000006b0: c969 a246 77ad cabf 5280 0b1f a33c 98bf
000006c0: 34c5 1399 ca13 d13f ee77 96fd be12 debf
000006d0: a00a 8c76 7608 e53f 7150 bb41 ac5c e9bf
000006e0: c152 d6a5 447b ec3f 393e 1773 9618 eebf
000006f0: 21b9 eba2 b630 ed3f dca9 fcc2 7524 eabf
00000700: 56c5 bf53 69d1 e43f 1047 d461 3c4e ddbf
00000710: 9dda fa17 e7a6 ce3f f894 b412 eaf1 acbf
00000720: 7037 4657 60e0 b9bf 4679 2788 f056 c93f
00000730: 4a48 b4d6 d147 d3bf 2cff d074 9494 d73f
00000740: 166c 6625 ebec d9bf 359f 3228 1817 d83f
00000750: 6ed5 6f2c 678f d2bf 2ab5 8a05 be47 c03f
00000760: 9565 52e0 3a12 b73f 9cb6 227f 23d0 d4bf
00000770: 6ca5 1358 d80a df3f e5a0 111e fbd0 e1bf
00000780: 4450 ab6a 8e73 de3f 5b7e f07c bf84 d2bf
00000790: 081c 481b f881 ad3f bf9e 3bb9 81aa c33f
000007a0: 6c50 093c a0fe d2bf aa53 453d db55 d73f
000007b0: 6c0c 3ea5 d3e8 d8bf e8ab 0967 d2a1 d53f
000007c0: 5a71 0047 d8cb cbbf fa95 78c1 a338 91bf
000007d0: 2626 641c 7531 d23f 0ca0 5795 f58e dabf
000007e0: 8a97 f97f d4ac d23f 7c1c cb48 5195 ccbf
000007f0: 8571 18a0 a0bd b13f 3609 2bc7 7dc6 d03f
0.001036314993333743 -8.783067396473296 3.8688317868106274 -0.10404993939998125 -1.210989434402977 2.532785601007487 -3.3874897989166417 3.8304787787422545
-3.971617787511545 3.899981545194199 -3.678443359259014 3.3510400204764026 -2.9510765175552622 2.5055030471522395 -2.0366401069846427 1.564021302151132
-1.104870995142069 0.6744459272360538 -0.2856352848883725 -0.050738496399929785 0.3264886854747233 -0.5363848654725364 0.6780569539265403 -0.7522302115934141
0.7626345724587927 -0.7158280290219615 0.6207244272315454 -0.48823561531528187 0.33049593598929494 -0.16021002677520121 -0.010216678658516429 0.16927408836585028
-0.3070443394546493 0.4157460489452474 -0.4900678329532511 0.5273062516052704 -0.527566816536189 0.4934836780170621 -0.42978791254356086 0.3430498107160646
-0.24108207891169556 0.13198752734041272 -0.024005558018826166 -0.07561417664204491 0.1609238047085373 -0.22743621658010957 0.2722201269795181 -0.2942671595743481
0.29381944433570784 -0.2726610838041061 0.23358157163637897 -0.17997561478129406 0.1165606853960553 -0.048055045898436816 -0.02041809787356459 0.08371013553396663
-0.13685843725307087 0.17677618194507771 -0.2006799779962219 0.20718503483162704 -0.1975060385686475 0.17338962265549113 -0.1329081581135172 0.07897962466007728
-0.018669122253514005 -0.04268008428736902 0.10354761427232795 -0.14866660426260578 0.18140321935070045 -0.19450441114438397 0.08024226038453827 -0.23006994452038848
-0.18497590401124808 0.4794350725301964 -0.6473396208160652 0.7019739931460741 -0.6677066732931476 0.5659794461255154 -0.42323105991972093 0.2662583729209104
-0.10117683027552458 -0.03967191583552606 0.19592569829307074 -0.37141720412146945 0.5425548538535404 -0.6997999082292751 0.8041898489900616 -0.8572013731215117
0.8361746757168935 -0.7824594513509656 0.6660674844908188 -0.5089134806062005 0.33692382905551466 -0.14725373075134648 -0.04743443355592991 0.22435775212166978
-0.3488954731850535 0.40769531684996824 -0.38066940910806957 0.3118374190861899 -0.18909607575708154 0.06466466566935586 0.05983181236381921 -0.20338787445163722
0.35577750836348604 -0.55009175651804 0.7089160623808426 -0.8240763226595355 0.8320695596817945 -0.7303891216803055 0.5145747331376491 -0.2102940735698348
-0.10577573086618164 0.3629174246187849 -0.48028890749021796 0.5025045358896377 -0.43118633469718787 0.3576778691015005 -0.24266296869067616 0.08254008746472746
0.06107979306398637 -0.1651896175160549 0.0951747357401519 0.13834122229850956 -0.29029872765195097 0.2729711987834749 -0.36831127482502796 0.23051233236729918
0.08340703637806866 -1.643995071497324 2.013246430913921 -2.626100288726996 2.8498598812891096 -2.48781131220024 1.7990751319114802 -1.024787119758014
0.2711223160178734 0.41448295112327294 -1.0104801422680605 1.5067438768473795 -1.900232374240744 2.190338971196337 -2.379206345424477 2.471215178863668
-2.4727735453422737 2.392142115930912 -2.239774476725641 2.027656819850063 -1.7692943997865687 1.4791854628678116 -1.172216445059595 0.8632594118513962
-0.5663543960537933 0.2942633112974371 -0.05760346758023188 -0.13529614257585218 0.2792171905432823 -0.37177975906895017 0.4138639360748165 -0.4090207861422677
0.36354277272859037 -0.2855087224693907 0.18463312038666949 -0.07125616782831388 -0.04435923540392505 0.1523926239312459 -0.24451373226228018 0.3139766597110106
-0.35638732232140746 0.3695816857644784 -0.3537015128057756 0.3110988340771752 -0.24574938749867373 0.16288942254892652 -0.0683956874919751 -0.03145314037667135
0.1307609242021219 -0.2239804288944971 0.306354362117941 -0.3739970908038005 0.4240538770558198 -0.4547816484535781 0.4656157503873935 -0.45731837276747367
0.4318334940178835 -0.39292215655167106 0.3442053155122956 -0.29049729970023636 0.23660099991465672 -0.18632103997386537 0.14142556719305788 -0.1086313481920914
0.0925016787746954 -0.09922190123260707 0.13105767066224658 -0.2035947557085498 0.2623965854227022 -0.33239898272842267 0.2929101132749792 -0.4288826405472665
0.37508944315235515 -0.22898239221279854 0.03894081783999372 0.1862904041109636 -0.398196990479931 0.5790980850197996 -0.6863955060163518 0.7655234377799242
-0.7769044254978521 0.777377097173026 -0.7500690235348202 0.6955955226133964 -0.5775280994469589 0.4290540623164122 -0.2084187598127996 -0.023668812532264667
0.26683297108600645 -0.4698941685145418 0.6572830500957316 -0.792562607176036 0.8900473822601144 -0.9405014274470381 0.9121964628264189 -0.8169506843890377
0.6505629192089752 -0.4579001384127972 0.23946846648114653 -0.05653316000306491 -0.10107996111602602 0.19796568534997955 -0.30125852553567667 0.3684435978684515
-0.40508536007263396 0.37640956807671283 -0.2900026258424394 0.12718940039250387 0.09012191750152561 -0.32520377555452185 0.4850369320034449 -0.5567603671343276
0.47580299775041035 -0.2893522949325182 0.05763221104648869 0.15364095253538854 -0.2967911325733954 0.36461525901295977 -0.38921061646414645 0.33800182401927126
-0.21715835062867478 -0.0168176256976462 0.284268644071377 -0.41497554382522206 0.29179871079974673 -0.22330680899014854 0.06929973515111072 0.26211494874964403
