tdse-amp-squared/tdse-amp-squared-main/tdse-amp-squared-main-script/tdse-amp-squared-main-script-forward-inverse/07-08-2022/numts-80_dt-1e-4/v2/thetahat.npy (npy, 1160 bytes, 1 tensors)

array f8 [129]
-0.0016038367902542635 -1.1946626142011068 4.440667020394291 -2.597684822948544 1.1009805581253889 -0.5180081147890709 1.2670654969053565 -1.408657406868047
0.8140493285083713 -0.27810294248531425 0.05431163903157179 0.13404675351611664 -0.3098613144075019 0.3866820535011758 -0.368550946854431 0.3458962263122333
-0.3280042528867503 0.2765435021833577 -0.20273115957893864 0.1497184426718194 -0.10858150003345789 0.048923180530781 0.01613085856735357 -0.05687693382418591
0.10853488036609205 -0.1963799664089396 0.27270125027474496 -0.30525046119211197 0.29521129699405635 -0.1835740380221263 -0.0795407171057507 0.41462728588435055
-0.6660390069695975 0.8679790482476232 -1.1788304107376508 1.5531887794503656 -1.456335230026577 0.8899080789449573 -0.6814692938755108 0.06950623945757567
-0.9845892974470007 0.3827313967758695 -0.6796987881162547 0.6416094241668095 -0.5002566510599269 0.9138768286221094 -0.6638040153249718 0.5487161419012195
-0.8374579575651119 0.5926103918206157 -0.45915689543258387 0.39019419666699434 -0.4759160069659727 0.29957167198469653 0.029029811379582725 0.49177211027736584
-0.3537100118900101 -0.1334089670400892 -0.47519214346589317 -0.3108918042369415 -0.766200535334042 -0.9166941648056883 1.1670665308312846 1.2168338923297235
1.7658404617788481 2.1407533755995525 0.2668539206217578 -1.3015606077610455 2.3212768802378876 -2.3432681241112845 1.8325105644624446 -1.1757347987228393
0.8016609557688594 -0.5939882011977831 0.5198553288307031 -0.5148902257213832 0.5386715709313703 -0.5033912737687091 0.46188391526762596 -0.468612898077014
0.4803018193779838 -0.4737908755678233 0.5023357728249545 -0.5604716741208684 0.6075760355986354 -0.6505523357919567 0.7181855940301145 -0.7889470382736717
0.828410946639362 -0.8447656485522724 0.8536766535538053 -0.8132775427956053 0.6655971269219019 -0.4661799306224005 0.3768066788500714 -0.3583964440410103
0.13384039401557168 0.37120407817378887 -0.7028887672919163 0.21866261196091555 1.373820990647946 -0.9772563990830064 -1.1950179757455335 0.0501723622578539
0.4321438393923439 0.012383999684554562 0.18997816511684393 -0.17029239572160584 0.3921670593876322 -0.06255949983949842 -0.22652932507781603 -0.030457388464444478
-0.2834182714736769 0.5652629363978675 -0.4024866485972373 0.5465050159861173 -0.5313222083785177 0.7412503890988711 -0.6804449201747323 0.3713557608442617
-0.9262631363133123 1.039330619897194 -0.6713355198009995 0.9773129535629719 -1.5522151903238308 1.6682592396213636 0.23862358493429628 1.4086954773349403
-1.5441381490542696
00000000: c620 fca3 fa46 5abf 3ff6 9b8b 561d f3bf
00000010: b513 2437 3ec3 1140 5009 fffa 0ec8 04c0
00000020: cee2 2aca 9d9d f13f 129d 02c1 8593 e0bf
00000030: 7093 7178 e645 f43f 4a43 5c59 dc89 f6bf
00000040: 5fc6 682d b10c ea3f af54 b948 70cc d1bf
00000050: 7392 dd32 bcce ab3f fd4b 3eab 7128 c13f
00000060: 3740 eb8c c4d4 d3bf 0636 6f15 66bf d83f
00000070: 4c93 e9b5 5696 d7bf eb88 f4ec 2923 d63f
00000080: 8a3d c68c 05fe d4bf f71f 7384 e3b2 d13f
00000090: 05c7 223a 18f3 c9bf 0717 7153 f929 c33f
000000a0: a725 9847 ffcb bbbf 9ac1 ca88 750c a93f
000000b0: ed42 0398 9b84 903f 81e0 5735 f91e adbf
000000c0: 98cb a521 f1c8 bb3f d771 a88e fa22 c9bf
000000d0: a788 e0f1 ef73 d13f ae2d fa3a 3989 d3bf
000000e0: 24f3 7fec bde4 d23f 8a8f d9a4 5a7f c7bf
000000f0: 0e6a abca c75c b4bf 05c3 39e2 4089 da3f
00000100: 7d6e 1909 3150 e5bf a3c6 3aff 7bc6 eb3f
00000110: 1560 da46 7ddc f2bf 3e0e 447a dcd9 f83f
00000120: eaa0 8f2b 264d f7bf 0f79 f081 207a ec3f
00000130: 938d 4db1 98ce e5bf 6496 5631 29cb b13f
00000140: f6d8 106a c181 efbf 2d81 13d4 ab7e d83f
00000150: 7de2 42ac 17c0 e5bf 4442 b37c 1088 e43f
00000160: 7615 7d3c 1a02 e0bf 0d22 709e 7a3e ed3f
00000170: 8cc6 18eb e13d e5bf d918 8827 158f e13f
00000180: 2d8c 70a1 74cc eabf 1175 8411 aaf6 e23f
00000190: ea69 679a d362 ddbf d784 7114 f1f8 d83f
000001a0: e4f3 6369 6875 debf 2fde 7ea9 2e2c d33f
000001b0: 23fb efa9 fdb9 9d3f ed79 aeba 3179 df3f
000001c0: 9d76 5551 2fa3 d6bf e414 3787 8b13 c1bf
000001d0: 3f23 e04e 8c69 debf bcb1 f2bc a6e5 d3bf
000001e0: 34ff 2dfc b684 e8bf 6cc8 4800 8f55 edbf
000001f0: 1fd3 62f4 4dac f23f 5d87 c3d0 2678 f33f
00000200: f5b2 94ed e140 fc3f 7203 484e 4320 0140
00000210: 214f 7877 2214 d13f 7987 4137 31d3 f4bf
00000220: 3da9 ec9c f991 0240 b389 b65b 03bf 02c0
00000230: 1b0d ff98 f651 fd3f 308a d44a cfcf f2bf
00000240: 3e3c 70e0 34a7 e93f ce56 4b8b f301 e3bf
00000250: 9255 7fa4 a7a2 e03f d81b 1011 fb79 e0bf
00000260: feec 8d29 cc3c e13f 5bb5 3d04 c81b e0bf
00000270: 68dd a78d 818f dd3f 225f eef3 c0fd ddbf
00000280: ec03 9cd7 43bd de3f 983f edf6 9652 debf
00000290: 2e9c 7c78 2213 e03f 3adf d54a 62ef e1bf
000002a0: d357 574c 4371 e33f fc02 d221 53d1 e4bf
000002b0: 642a da5a 60fb e63f d92a f5db 0d3f e9bf
000002c0: dddc 6eac 5782 ea3f a31e 2af8 5108 ebbf
000002d0: 03ea 8bb3 5151 eb3f 911b 1ca0 5e06 eabf
000002e0: bc1d 8e58 924c e53f dac8 0459 e4d5 ddbf
000002f0: dfd3 a4c2 991d d83f 532a 8aa3 f7ef d6bf
00000300: 081f 9799 ae21 c13f f07c f9bf cec1 d73f
00000310: 3bd3 8795 107e e6bf f572 9def 22fd cb3f
00000320: 8f42 16b8 2bfb f53f 99c8 3b36 af45 efbf
00000330: d558 3f2b cb1e f3bf 0c00 1f1e 31b0 a93f
00000340: 5ee9 56a2 3ea8 db3f 2256 1c4d c85c 893f
00000350: 67c2 105b 3451 c83f 69de 3027 24cc c5bf
00000360: 0edb a8dd 4319 d93f 1b61 dd3d e603 b0bf
00000370: 72a7 65b5 e9fe ccbf a663 81bd 3830 9fbf
00000380: e55e c463 8623 d2bf 5908 2f4c a216 e23f
00000390: 5750 335c 57c2 d9bf a254 5816 f87c e13f
000003a0: b3f9 936e 9700 e1bf 2e76 6abc 52b8 e73f
000003b0: 5f27 dc6c 34c6 e5bf a077 00f4 4ac4 d73f
000003c0: 1898 be96 f2a3 edbf a609 e324 19a1 f03f
000003d0: cf07 c6a0 947b e5bf fe52 b0d0 2546 ef3f
000003e0: 6cb9 6c98 dfd5 f8bf 00c7 b699 30b1 fa3f
000003f0: 256d acb6 378b ce3f acd3 d244 048a f63f
00000400: e01a 2b34 cab4 f8bf
