tdse-wave-function/tdse-wave-function-main/tdse-wave-function-main-script/dt/v6/trial_nts-74_dt-.0027/thetahat-fourier.npy (npy, 1160 bytes, 1 tensors)

array f8 [129]
-0.27297481502895443 -0.163682938359177 -0.11241323373386873 -0.08939454140209073 -0.07122135323422182 -0.05936189474265455 -0.0492672826099923 -0.04193352938713309
-0.035491722740958305 -0.03057688203641601 -0.026180799751349362 -0.02273654480189865 -0.019616547828454834 -0.017134046912746784 -0.014862322678112215 -0.013038472695800676
-0.011354384250655344 -0.00999592542530435 -0.008730708218259707 -0.007708501497444531 -0.0067481151449277944 -0.0059729081023622045 -0.005237857149180639 -0.0046463974404966244
-0.0040799555724192775 -0.0036265479703534295 -0.003187498965281437 -0.002838635381886495 -0.0024966029953543308 -0.0022274169557823056 -0.0019597548029995225 -0.001751615395942678
-0.0015412793409612954 -0.0013801211715589036 -0.001214173086966346 -0.0010893228782485355 -0.0009578546364180378 -0.0008611666536597787 -0.0007573330631143473 -0.0006790073025936069
-0.0005944686772433779 -0.0005443646771095843 -0.00047952610616219766 -0.0004269338049795071 -0.0003739138668569824 -0.0003451517008767235 -0.00030055023093802577 -0.00026944344171148733
-0.0002304566364517636 -0.0002112514535870696 -0.00018727309890627516 -0.00017328110949035394 -0.0001517623582574657 -0.00014149135087694354 -0.00011705622495371288 -0.00010497030320522402
-9.200703049670068e-05 -8.9507245260005e-05 -7.625245128926728e-05 -7.067833336292798e-05 -5.9400107114296925e-05 -5.767321002562381e-05 -4.963401943931598e-05 -4.665891128850635e-05
-3.613079650246089e-05 3.920240305319479e-13 1.0479357624556724e-11 -2.3989549196180257e-12 7.165165194817331e-12 -1.1609466795793093e-11 2.620061735540599e-11 6.806013632442415e-11
8.920691428761425e-11 9.78886283421549e-11 -1.5642392054234963e-10 -4.340271536086553e-11 -1.8774684887012753e-10 -3.9000978462079424e-11 3.317785876748632e-11 -2.6150843151496604e-10
-4.4407961531790646e-11 -9.548231989880801e-11 1.9362423781208574e-11 -3.2079603992354504e-11 1.0430241997369419e-10 -9.342458212881834e-11 2.19738602103734e-10 -1.8241156099248663e-11
2.873093239028666e-10 -2.3869447819395663e-10 3.1242835685298175e-10 -4.5791471716056783e-10 4.689692201110367e-10 -5.802818505226034e-10 6.327909990322984e-10 -1.242325729547522e-09
1.1873890665603931e-09 -2.467881604653267e-09 2.316545332457867e-09 -5.683117079797683e-09 5.070783601576751e-09 -2.756718083724788e-08 -1.2267528290015382e-07 -1.6988422768393533e-06
-1.3899197165086011e-06 3.196717451033924e-06 2.966795077052329e-06 8.615447064770467e-07 -8.205150150518792e-07 -4.3631275137752214e-06 1.19879289546616e-06 4.210600721856476e-06
-2.5853376170222126e-06 -2.4870577174322508e-06 6.662109104215462e-08 -6.718213230587313e-07 4.944421460574416e-07 3.16291797672623e-07 -1.6664838923611537e-06 -4.702003371770864e-07
1.9012172368825045e-06 1.5816126582296323e-06 1.1617009649516124e-06 1.0325837164923488e-07 -2.014856395865473e-06 3.149691241680269e-07 2.9918453778416344e-06 -1.8295307515753684e-07
-2.7093824436105505e-06
00000000: a595 cb5b 6b78 d1bf 8b3a 9501 90f3 c4bf
00000010: 3b4a 861a 1dc7 bcbf 434d c387 8fe2 b6bf
00000020: fef7 ea06 903b b2bf 34ba 18a9 ae64 aebf
00000030: c839 25af 8f39 a9bf caad a5c2 4f78 a5bf
00000040: 99f8 e698 f82b a2bf b0b2 70d1 8b4f 9fbf
00000050: a455 dcba 23cf 9abf d68c 64b1 3f48 97bf
00000060: 2dd7 883d 5c16 94bf c1b2 8d6c 968b 91bf
00000070: 1fbf c22e 2370 8ebf 28c8 8b2e eab3 8abf
00000080: 6ba8 2ea8 f740 87bf f807 5c66 be78 84bf
00000090: 7991 25d2 67e1 81bf 1ab4 521d f392 7fbf
000000a0: 04b6 b65d e9a3 7bbf a4f4 624f 0c77 78bf
000000b0: d075 8292 4a74 75bf d383 d1d0 1908 73bf
000000c0: a3f3 0abc 24b6 70bf dee9 c21d 6cb5 6dbf
000000d0: a43a fb79 ab1c 6abf 73d1 2cc4 0c41 67bf
000000e0: a8a3 ea86 c173 64bf d537 595f 3b3f 62bf
000000f0: 619c 2f59 e70d 60bf 79bf ceb5 ceb2 5cbf
00000100: 896c 4217 9840 59bf 3e9b f7d2 a59c 56bf
00000110: af23 d06c 9ce4 53bf 0b59 c288 f3d8 51bf
00000120: 04fb 3a2b 1163 4fbf 9c70 934e fd37 4cbf
00000130: 0c29 7f5e f8d0 48bf 4ff3 4514 ed3f 46bf
00000140: ab25 7dc3 c37a 43bf 13c3 1d3e 76d6 41bf
00000150: f927 8cf1 1c6d 3fbf 3899 ddba c2fa 3bbf
00000160: 465c 65d4 3b81 38bf 47eb 7544 af9e 36bf
00000170: c0a9 a569 65b2 33bf 7494 30c5 82a8 31bf
00000180: 0e27 f46e d734 2ebf 7906 352b 6cb0 2bbf
00000190: 345a a2ab d78b 28bf 5563 8465 59b6 26bf
000001a0: 1626 20bb 4ce4 23bf a2b1 0973 a98b 22bf
000001b0: 0dbc c2a1 82af 1ebf f400 c813 7084 1bbf
000001c0: 0d1a 79bf 7c1e 18bf c2fa bbc3 ba76 17bf
000001d0: 961b 5b23 37fd 13bf cf1c 7585 2487 12bf
000001e0: 8bdb b423 8c24 0fbf 7354 4668 c43c 0ebf
000001f0: d6e6 0dec c305 0abf 1237 02fc 7376 08bf
00000200: 828a 00b7 64f1 02bf cbdd 90bd 1396 5b3d
00000210: 1a6c 5098 5a0b a73d 268e 925b f719 85bd
00000220: 06eb 6042 4283 9f3d fae1 a07d 8c87 a9bd
00000230: 77a9 ed72 d1ce bc3d f77f 196b 4eb5 d23d
00000240: 8203 5ee7 6085 d83d dc44 b0c2 4ce8 da3d
00000250: 3508 a86b ad7f e5bd 69d7 2e9f 63dc c7bd
00000260: db15 f846 c1cd e9bd ef38 2856 e670 c5bd
00000270: e87a cc56 5e3d c23d 6761 5446 81f8 f1bd
00000280: 7725 9b6e dd69 c8bd 2c31 af8f f83e dabd
00000290: 5d7f 23ac 094a b53d f39c 6a8a cda2 c1bd
000002a0: e17d e15b a1ab dc3d fd4e 2ea7 2bae d9bd
000002b0: b0e9 835f 5d33 ee3d 95e2 2bd2 6d0e b4bd
000002c0: 606d 002a 66be f33d 34d3 f05c 2867 f0bd
000002d0: edc8 433b 4c78 f53d c9bc b08c b877 ffbd
000002e0: 04af 6ecd 181d 003e 20ac 1990 36f0 03be
000002f0: cb5d 5aa7 16be 053e 3197 546c ce57 15be
00000300: b30a 4b3d 3166 143e 4a82 9ad5 ed32 25be
00000310: 4dfe 4516 23e6 233e 98f4 673f a768 38be
00000320: 1373 37b2 62c7 353e 7098 62e5 9b99 5dbe
00000330: 71a8 2d33 1777 80be 95f5 4ed6 7880 bcbe
00000340: 197d d5e3 a851 b7be f847 0a01 e6d0 ca3e
00000350: dcfa 9bd7 24e3 c83e 98b2 61d8 9ce8 ac3e
00000360: ea43 8199 2b88 abbe 0ad5 d45b df4c d2be
00000370: 800d 55ba c61c b43e c7d5 071d 19a9 d13e
00000380: 702f c562 f8af c5be 7dd0 8b70 eadc c4be
00000390: e2de caa0 2ae2 713e b9fa 85b6 e68a a6be
000003a0: b0b2 17c7 3997 a03e 98e1 8809 da39 953e
000003b0: 8a81 ca6a 7ef5 bbbe 9b36 d3f3 fa8d 9fbe
000003c0: ca30 7975 aae5 bf3e 7bf5 2382 f988 ba3e
000003d0: d3f3 0db8 777d b33e c016 157c dcb7 7b3e
000003e0: 9aff 8c04 dfe6 c0be 2720 8fdb 2023 953e
000003f0: be61 0664 f018 c93e d989 8d44 388e 88be
00000400: d096 1bc0 5aba c6be
