tdse-wave-function/tdse-wave-function-main/tdse-wave-function-main-script/07-16-2022/numts-200_dt-.001/v6/thetahat.npy (npy, 1160 bytes, 1 tensors)

array f8 [129]
00000000: 9c73 cc5b 6b78 d1bf 4653 9301 90f3 c4bf
00000010: 58ad 891a 1dc7 bcbf 8203 bf87 8fe2 b6bf
00000020: d4d5 ee06 903b b2bf 6d1a 10a9 ae64 aebf
00000030: 63eb 2caf 8f39 a9bf 801d 99c2 4f78 a5bf
00000040: 74ad e298 f82b a2bf b0e8 54d1 8b4f 9fbf
00000050: b2df faba 23cf 9abf e8fc 5ab1 3f48 97bf
00000060: 3b79 8e3d 5c16 94bf af41 9e6c 968b 91bf
00000070: 4caf 022f 2370 8ebf 67f3 c62e eab3 8abf
00000080: 0e55 4ca8 f740 87bf a08f 4f66 be78 84bf
00000090: 7659 2bd2 67e1 81bf 7077 5c1d f392 7fbf
000000a0: bdc5 f15d e9a3 7bbf 92e8 0450 0c77 78bf
000000b0: 626b bd92 4a74 75bf a688 ebd0 1908 73bf
000000c0: fc43 7dbb 24b6 70bf 584d 871e 6cb5 6dbf
000000d0: c1ac 7f78 ab1c 6abf 3897 99c5 0c41 67bf
000000e0: a4ef d784 c173 64bf 7cb0 5662 3b3f 62bf
000000f0: 0791 8555 e70d 60bf bca0 b2c3 ceb2 5cbf
00000100: 1f1c 7407 9840 59bf 2635 c1f1 a59c 56bf
00000110: c314 2b53 9ce4 53bf d9e8 85b4 f3d8 51bf
00000120: ee7e c15c 1163 4fbf 2fe9 3ca6 f937 4cbf
00000130: 6b12 53e7 0ad1 48bf ac9d 8c20 5140 46bf
00000140: d654 9ce9 2c7b 43bf 11e8 32c4 c3d5 41bf
00000150: ff9e 1db8 436b 3fbf 186d d421 95fb 3bbf
00000160: c23b 5c7a bb81 38bf 3db3 5186 619d 36bf
00000170: b47c adc1 d6b1 33bf 9c43 9732 78a9 31bf
00000180: b5b0 2944 c337 2ebf 1232 db08 0db2 2bbf
00000190: 6ba7 8a09 8e8b 28bf 3bfe ee25 52b4 26bf
000001a0: 102b 389a d7e1 23bf 9689 ddfa e88a 22bf
000001b0: 900d 186a fcb3 1ebf 96c4 54ed a38a 1bbf
000001c0: 952d dcbd 5b1f 18bf ffbd 7bbc eb75 17bf
000001d0: bb5c caa5 28fd 13bf 623e f6a1 5184 12bf
000001e0: 5fa1 cb95 5520 0fbf a25e bbfc d43b 0ebf
000001f0: 52b7 b702 9502 0abf dd58 fac4 f971 08bf
00000200: 05b8 ebcc 5eec 02bf e8f0 4052 e987 493d
00000210: 97d3 8b1e 9f67 a73d dfe4 8d09 eb21 8bbd
00000220: ed23 1142 3313 9e3d 3193 653a 7ab3 a8bd
00000230: 91d1 b557 a19b bb3d fb75 b481 6edd d23d
00000240: da74 67a0 5675 d63d 9e8b f696 b46f da3d
00000250: 0542 2a18 4198 e5bd 4511 be7e 98e9 c8bd
00000260: 91e8 18cf e647 e9bd c9ac 4d89 3823 c9bd
00000270: 6f72 529a 261e c43d 557f 0eaa 407d f1bd
00000280: 4c83 a7d6 90db c3bd d24a 5b31 1bd6 d9bd
00000290: 4b47 33f9 5f9c c13d 380b f5cd 52d6 c2bd
000002a0: 30a0 85f9 4588 e03d 1537 5103 d8ad dabd
000002b0: 6a46 4419 ec3f f03d bc11 01ee 0904 c3bd
000002c0: 567a 7d5d 5b79 f53d 4199 37c4 c832 f2bd
000002d0: 9470 3d3d 0af4 f73d 7b99 92be 5640 01be
000002e0: 9591 f4f0 bd0e 023e bc21 d110 cec5 06be
000002f0: 502c 39fa ed05 0a3e 3032 b696 6232 18be
00000300: e650 81a6 bb00 193e 02e9 7224 9129 29be
00000310: 809f f61e d6ee 2a3e d0e3 63d0 a2b3 3ebe
00000320: 551e 21ad 7cdc 403e 70a1 5417 5271 61be
00000330: 01ae f06c c02f 83be b69c a0a5 5975 bbbe
00000340: 99a5 8c97 6b2a b6be 484e fcd2 ff69 ca3e
00000350: cdf7 c7fb ca4c c83e 0ce3 df95 eef8 ab3e
00000360: b0e0 fae5 f0a2 a9be a6c1 0f48 6123 d2be
00000370: f031 39c2 d50e b23e e3bc 9758 6844 d13e
00000380: fb7e 479a 3c45 c5be e187 fdd1 298b c4be
00000390: 6888 6781 74c5 733e bb88 0ffb e619 a6be
000003a0: 46e2 a001 7334 a03e 4b0a a9bb 08dc 963e
000003b0: 8df5 5ee7 5df2 babe ea83 4904 29a9 9ebe
000003c0: f27b 6b55 6fd2 bf3e 58d8 07a7 21ad ba3e
000003d0: f2d0 9861 7198 b33e e852 d3fb 4cfa 803e
000003e0: 72b3 c570 92d2 c0be 0e93 a5fa d658 913e
000003f0: d0c3 92b0 fb69 c83e 9d25 7ba1 55c2 8bbe
00000400: c175 81e8 a171 c6be
-0.27297481503210874 -0.16368293835571474 -0.11241323373694934 -0.08939454139819072 -0.07122135323773843 -0.05936189473873275 -0.049267282613491024 -0.04193352938141981
-0.03549172273900583 -0.030576882030097507 -0.02618079975829319 -0.02273654479972445 -0.019616547829735636 -0.01713404691651171 -0.014862322685381145 -0.013038472702527405
-0.011354384254028928 -0.009995925423886665 -0.008730708218916954 -0.007708501497999495 -0.006748115148285047 -0.005972908111568158 -0.0052378571525320845 -0.0046463974419756245
-0.004079955564365353 -0.0036265479759351286 -0.0031874989544938563 -0.002838635392253954 -0.002496602980270839 -0.0022274169775383084 -0.001959754776338699 -0.001751615446474771
-0.0015412792834597134 -0.001380121283563193 -0.0012141729936712565 -0.0010893230374607237 -0.0009578547265043072 -0.0008611649504708714 -0.0007573416939058002 -0.0006790538910523189
-0.00059451764102172 -0.000544281567633977 -0.00047941592503385194 -0.0004269827930600419 -0.00037394358729242125 -0.00034507399533971803 -0.0003005170162193136 -0.0002695005847189126
-0.00023054369565345614 -0.0002112999831552919 -0.00018726452687661417 -0.00017322066102386395 -0.00015168911805604106 -0.00014146894448703308 -0.00011712291827597186 -0.00010506272822820498
-9.202001043833446e-05 -8.949519462552595e-05 -7.625160783174521e-05 -7.063625570524195e-05 -5.936871705164675e-05 -5.766624198394228e-05 -4.961030239401691e-05 -4.662555204253277e-05
-3.609337146835704e-05 1.8140798339454064e-13 1.064325793693396e-11 -3.0846072871678153e-12 6.838263490440008e-12 -1.1232752423431878e-11 2.510926664670124e-11 6.863035177161826e-11
8.170301249880275e-11 9.617487859989082e-11 -1.5712243666086192e-10 -4.531554284835924e-11 -1.8394250666784717e-10 -4.57249942448633e-11 3.6594022335149675e-11 -2.545023445951672e-10
-3.61209073344455e-11 -9.399210258993814e-11 3.203393032610018e-11 -3.4264669005477144e-11 1.2028844306124685e-10 -9.705791797809366e-11 2.364642034842312e-10 -3.458949598144678e-11
3.1248856062668704e-10 -2.6482122416590493e-10 3.48566118017756e-10 -5.02079597641561e-10 5.25544914800867e-10 -6.627720886292366e-10 7.573737092747078e-10 -1.4084401100667696e-09
1.4553581898819219e-09 -2.929285511716256e-09 3.1354085922264635e-09 -7.148297292844315e-09 7.851644144001554e-09 -3.2489483917717925e-08 -1.4295078762500916e-07 -1.6366481276982058e-06
-1.3211789264367788e-06 3.1488013049281667e-06 2.8967824319261474e-06 8.336422003810608e-07 -7.640268897190889e-07 -4.324484621940152e-06 1.0763376473598578e-06 4.11682538857471e-06
-2.535635944975079e-06 -2.4489887805881565e-06 7.365386554090695e-08 -6.586665134390303e-07 4.829430537761906e-07 3.4063321733085533e-07 -1.6061511849263408e-06 -4.5688125663826993e-07
1.8967396805886239e-06 1.590031072249491e-06 1.167981628203088e-06 1.2649399919761164e-07 -2.005403876895211e-06 2.584908950413968e-07 2.9103752053551116e-06 -2.0682155431874469e-07
-2.675518604929316e-06
