tdse-wave-function/tdse-wave-function-main/tdse-wave-function-main-script/dt/v4/trial_nts-95_dt-.0021/thetahat-fourier.npy (npy, 1160 bytes, 1 tensors)

array f8 [129]
00000000: 9781 1abb b638 b33f e2d6 adac f399 b63f
00000010: 3b4f 8e6e 244e ae3f 5965 c109 0a67 ab3f
00000020: 2610 834b be15 553f 848f 4f64 cf35 9cbf
00000030: a459 72e3 22cc b7bf 7d8a 3628 335a bbbf
00000040: ad32 c963 d480 bdbf 6d52 5719 d779 a1bf
00000050: 6532 173d b522 a63f 9d94 489f 100c c03f
00000060: a797 348f 593a b23f 14b9 0691 41ea 9ebf
00000070: 2c1f f502 fd62 c0bf 1977 b2f7 36f2 9dbf
00000080: e39c d50e f111 b73f 52a7 fe8b bfad b53f
00000090: e2e8 8c73 a0cf b9bf 74c0 452c 8f07 afbf
000000a0: a195 f852 a82a b73f 76c6 54ff 95d6 a73f
000000b0: 0b9c 934a 00d4 c0bf a729 da32 0b28 b03f
000000c0: 2c07 271f c613 ad3f bf7a 55dd 391b babf
000000d0: 7f0a ecae 5b1c a93f ad28 969b 0fca a63f
000000e0: 90ca d5ba d8b8 bdbf d394 d8b2 70e0 c13f
000000f0: 34cc fddf 7f5f bfbf df02 0953 99d2 b53f
00000100: 6ca0 7b41 f061 a7bf 03fd c17e aaf8 8b3f
00000110: a262 cdda 535e 803f 8265 a7c5 6eee 94bf
00000120: 75f7 cc18 2ed9 9a3f d3e9 a4a1 e475 9cbf
00000130: 0f1a 7f70 daad 9b3f e5a9 475b 47c1 99bf
00000140: e4ac 5d09 966c 973f ab3f 201a 9113 95bf
00000150: 59df 9faf 71e5 923f 6a78 280e 2cf3 90bf
00000160: 8297 4ea0 c37f 8e3f 727c b056 a28c 8bbf
00000170: 4f1d ce34 5101 893f f105 6a8e 13cd 86bf
00000180: 369d c7d4 d2e3 843f 9c9c 081b 453a 83bf
00000190: 808d 90c4 b6c2 813f f1ca 7796 2d7c 80bf
000001a0: cc87 b3d8 54ad 7e3f aade a842 b7a6 7cbf
000001b0: d6ae 9560 fcda 7a3f af71 b9a6 df32 79bf
000001c0: e16c eb76 80c1 773f 08ed d6f6 e164 76bf
000001d0: 1c4e 38be 9e32 753f 7381 0f24 081d 74bf
000001e0: b13e 29bc 7a0a 733f 0192 8274 3225 72bf
000001f0: 7df0 63ac 1c48 713f d335 570e e580 70bf
00000200: 54bb 6bbb c27d 6f3f 29ef 1e9e 65c4 a93d
00000210: fbc4 cbb4 f84e cabd ca2a 6bae 0f76 d23d
00000220: 05bb e8ca cb91 b0bd d370 f23b 991b debd
00000230: 0f9c 9d36 7c06 f73d b0fd bfdc f1e4 07be
00000240: f8bd b3c3 3d2d 123e a024 00bc 5e2c 16be
00000250: ccd9 22c6 7c5c 173e bf66 c53a 8cee 13be
00000260: e423 c20d 2b6d 0b3e 742f 68b4 c193 05be
00000270: bede 9653 bf23 063e 899d 0a38 32ff 01be
00000280: 707b 6b2a fc43 023e 6ba5 811b f65b 00be
00000290: f2de a3ba 6cde fb3d f8a1 968f d469 03be
000002a0: b988 e02a 91fb 0b3e c78d d839 f584 08be
000002b0: 59cd 9ff7 028d 083e 066b 0684 1c0d 1dbe
000002c0: 6268 1c82 edd0 203e f190 3434 8d8c 15be
000002d0: 60fe b384 8640 283e 742d 1c66 8917 33be
000002e0: 70a5 de26 30e9 313e a8ae d85a d282 34be
000002f0: 97ec 384f 1252 403e 5ea3 e429 4ac3 4cbe
00000300: 462d 50bd 72d1 493e c733 18d4 6909 51be
00000310: aef0 608c 95ab 613e 41de 647c c3bb 5fbe
00000320: 54e9 5f7a 6c86 56be 2cc3 88d2 d83c 4abe
00000330: cf0c d170 e3cf 75be b5a1 ebcf bdd1 61be
00000340: 54a4 b258 81f5 80be b302 c0a6 a336 62be
00000350: 6283 aeeb e8c9 50be 2850 6240 9953 8f3e
00000360: 1f8e 99c9 1b60 a13e 1210 dbb4 8943 b03e
00000370: d32b 4cf7 d537 b63e 968a 9449 acb5 b73e
00000380: 59b5 f35b a3c8 b03e bb1e fd33 eae3 8c3e
00000390: c908 a9fa ee97 9bbe e8d5 6e90 965c 9abe
000003a0: 663a 05a1 1daa 833e 63e7 5335 2f29 983e
000003b0: cb0b 876e e308 75be c798 19f9 cca1 8cbe
000003c0: 1cd7 84c5 5601 a93e 296b b5d5 dc86 bb3e
000003d0: 5b51 7c94 7ceb b03e b71a 2843 f9e9 a33e
000003e0: 7ace a418 b470 be3e 4667 958f 4484 b43e
000003f0: 91c4 4872 3d5b d9be 56e9 89ed f9bc efbe
00000400: a4b5 f357 6593 f3be
0.07508413379628674 0.08828661886021963 0.05918992852744372 0.05352050179562679 0.0012869222974112387 -0.02754901933430133 -0.09295862248322934 -0.10684509021533901
-0.11524703441791458 -0.03413269218768709 0.04323355074629801 0.1253681924583007 0.07120284792162455 -0.030190491177273307 -0.12802088398370282 -0.029244288318856258
0.09011751758736213 0.08468243759003016 -0.1008243829827822 -0.06060454764781378 0.09049465203914632 0.04655903570018165 -0.13146976128993546 0.06311101905354254
0.05679148798254938 -0.10197793630275508 0.0490444804218173 0.044510352842807556 -0.11610178529171322 0.139661872222098 -0.12255095690288514 0.08524473454691471
-0.045669086450119106 0.013657886498775534 0.007992415537658563 -0.020440798581920834 0.02621910120364342 -0.02779347645376069 0.027030385128251008 -0.02515136236790196
0.022875160524034835 -0.020582453937151673 0.018453384727734477 -0.016552627910748553 0.014892128305131317 -0.01345183207564402 0.012209543632492851 -0.011133339675555272
0.010200163954279345 -0.009388484847546778 0.008672168611218778 -0.008049350885789038 0.007489520484542166 -0.006994930134673597 0.006556497429624128 -0.006152032506716073
0.005799772085732986 -0.005467302963946048 0.005175228204751938 -0.004910499382248512 0.004648665841685038 -0.004430005159666185 0.004219161992519924 -0.00402917361266249
0.003844147049100336 1.1717554826842216e-11 -4.785485081077665e-11 6.716136987232284e-11 -1.5069886902442463e-11 -1.0953156349514114e-10 3.350626916681491e-10 -6.954161079451236e-10
1.0580245696990753e-09 -1.2906571228452029e-09 1.359805400697383e-09 -1.1601850409933384e-09 7.9821440734644e-10 -6.279784269101996e-10 6.443482754118634e-10 -5.237775630604248e-10
5.315979504161507e-10 -4.761160832020799e-10 4.055450928548357e-10 -5.650042926373821e-10 8.144032859152519e-10 -7.136074957439393e-10 7.145230928183364e-10 -1.691003351321047e-09
1.9576544976124804e-09 -1.2543186080256918e-09 2.823310506932382e-09 -4.4451887464001605e-09 4.170204277311072e-09 -4.7755945149276924e-09 7.59986782456923e-09 -1.3393745942700202e-08
1.2022516241249915e-08 -1.5866729491084145e-08 3.29134067088202e-08 -2.95540798719305e-08 -2.0978127367157987e-08 -1.2217873450021901e-08 -8.125627122637129e-08 -3.319103746517851e-08
-1.2635443300449187e-07 -3.3925165648933796e-08 -1.5635704935329078e-08 2.3340103911097447e-07 5.178279877779077e-07 9.69399212833771e-07 1.3243024714084005e-06 1.4132058708335636e-06
1.000389019452491e-06 2.1524945203521558e-07 -4.111750465976363e-07 -3.928195301776251e-07 1.4651205094492352e-07 3.6002511667709796e-07 -7.836043958764887e-08 -2.1332527615491312e-07
7.452139341504479e-07 1.6407255632652578e-06 1.0085028225348096e-06 5.934822467364456e-07 1.8143801719495499e-06 1.2228888962212888e-06 -6.045438372613168e-06 -1.513394765705461e-05
-1.8668904428522544e-05
