tdse-amp-squared/tdse-amp-squared-main/tdse-amp-squared-main-script/tdse-amp-squared-main-script-forward-inverse/07-08-2022/numts-140_dt-1e-3/v1/thetahat.npy (npy, 1160 bytes, 1 tensors)

array f8 [129]
0.009533995320852327 -13.072132216299943 8.195224791931532 -3.4885842237395077 1.6148414138542981 -0.7534707345735934 0.32142916982440106 -0.09855575199258639
-0.0058071502463723 0.03765419330822996 -0.02727776102522932 -0.009402482581342061 0.06114360115444885 -0.12034612440224095 0.17975540277666105 -0.23470440264047776
0.28148468942977883 -0.31796628425927587 0.34254947460836654 -0.3548989875252734 0.355569460093439 -0.3457799066078891 0.3271794080272166 -0.3015677246305161
0.27133680538719945 -0.23824061599882077 0.20377297337082412 -0.16834920498699973 0.13327558563631367 -0.09892804599099553 0.06649000869281671 -0.036983407954865814
0.015507781457107865 -0.00011554804785351107 -0.038091069113881194 0.1155611057876125 -0.09589317700574745 -0.0453021110679815 -0.9492576296805603 0.2709476867957738
-0.6295576292452131 0.6528409959958943 -0.8257723373482199 1.005040156110616 -0.7576493446702954 0.5020063204038404 -0.46000506760692383 -0.04181636654563268
-0.10696401285069956 -0.2706522246355414 -0.06659000442421077 -0.004350529985348631 -0.2087407029299755 0.6611942961593392 -0.742364658337035 1.3741665243112313
-0.7952970487865538 1.7634190802572065 -0.2778995136735991 1.5955214681350387 1.94471041715715 -0.27617094433867206 3.494815725206986 -3.3145133120242614
6.7359438578974435 0.225851580001444 -0.35478409252457516 0.47149291697223517 -0.5833865680043189 0.6793289563225547 -0.7559519586463946 0.8191762779587349
-0.8701868613583099 0.9042949388110298 -0.9215926014585073 0.9222341765724514 -0.9076191686614828 0.8776315009803977 -0.8334543549380588 0.7772758523366828
-0.7112736204885541 0.63817388724192 -0.5604604390621581 0.4813261734635933 -0.4033811869482589 0.3291088177312772 -0.2603931157382099 0.19871582783443692
-0.1449860698138046 0.09893145834866629 -0.06011279733840128 0.02763677286971678 -0.0015135484911935598 -0.020041883705945666 0.037093760441360285 -0.05100391315784125
0.06313245056473558 -0.08951327184569842 0.12999542989545954 -0.15116503318026295 0.11856205953053327 -0.36302823964278413 0.15069745114583485 -0.6412671169347592
-0.7257275386357149 -0.18227456402893288 -0.5114627915263794 0.32589891103299423 -0.5030012311292548 0.6214170102349484 -0.3556724712180004 0.7542576915353487
-0.606624799810118 0.8414821143092487 -0.74250011153041 0.8255655360368122 -0.9413768935324482 0.807577142389681 -0.8405679043415748 0.7711524985332081
-0.9729174430713755 0.6176445047895779 -0.9260424418190958 1.584411205984539 -1.4169988619232292 2.3605118087493704 -4.491303300886237 6.3356401415181125
-1.4976095892005172
00000000: 4c83 d330 8f86 833f 15fe 8b83 ee24 2ac0
00000010: bd6d 0181 f463 2040 ff6b 72d8 9ee8 0bc0
00000020: 96b0 4bf3 63d6 f93f e292 6fa8 6e1c e8bf
00000030: 3214 18a7 4b92 d43f 710e a423 f33a b9bf
00000040: c60e 4206 3dc9 77bf 22d9 a111 6947 a33f
00000050: 0dbd 0b8e b3ee 9bbf d82c 81d9 9b41 83bf
00000060: 42d4 a2ce 364e af3f 7b0a 82ec 00cf bebf
00000070: a13f 1a9c 3902 c73f 74b6 c83a cb0a cebf
00000080: 4f3d db5b d803 d23f 60f3 0742 8f59 d4bf
00000090: 5b1d ada1 54ec d53f ee7d 333e aab6 d6bf
000000a0: 51b1 a368 a6c1 d63f 19ab 9f0b 4221 d6bf
000000b0: c1b2 59e6 81f0 d43f 034d b4b6 e24c d3bf
000000c0: 71b4 550c 955d d13f 359c 2523 ab7e cebf
000000d0: ecda 3798 3b15 ca3f 9a06 dd7c 778c c5bf
000000e0: 37e4 d4a4 2c0f c13f 2c42 3032 5953 b9bf
000000f0: e6ad d83c 7d05 b13f 1751 523f 7def a2bf
00000100: 09cb 8831 8bc2 8f3f 7c1d ba58 4c4a 1ebf
00000110: 6543 3a30 ac80 a3bf e221 0ca2 6995 bd3f
00000120: 9433 268b 748c b8bf 4a17 f49a d631 a7bf
00000130: 879b 5e89 5160 eebf a3bd 6df7 3457 d13f
00000140: 85c6 910a 5625 e4bf 3a4b e9cc 12e4 e43f
00000150: 4544 db1b ba6c eabf db96 9afc a414 f03f
00000160: 663b a6d6 a93e e8bf 23a2 108f 6f10 e03f
00000170: a86c 5718 b970 ddbf 6d88 806d f468 a5bf
00000180: f8ec 0a59 fe61 bbbf 108e 59b5 5d52 d1bf
00000190: 3513 3ee3 0a0c b1bf 4410 1e80 dcd1 71bf
000001a0: 69d2 36ee 03b8 cabf 93cb c9f0 8028 e53f
000001b0: e170 2887 73c1 e7bf afcb 9209 96fc f53f
000001c0: 1698 e4cb 1273 e9bf ba8d edec f636 fc3f
000001d0: bc5a b30a 1bc9 d1bf 5b4b db84 4187 f93f
000001e0: 6f16 9eab 881d ff3f e68f 82e5 c8ac d1bf
000001f0: f67b 6af2 61f5 0b40 2268 2a8e 1f84 0ac0
00000200: 4572 4544 9bf1 1a40 a895 ed5e b4e8 cc3f
00000210: 812e a256 c8b4 d6bf ca3f aca0 f02c de3f
00000220: a622 d04e 1aab e2bf ab32 5414 10bd e53f
00000230: 1778 7729 c230 e8bf 99bc 6f2b b136 ea3f
00000240: a42b de1d 92d8 ebbf d736 84f0 fbef ec3f
00000250: c7fe 6fc4 af7d edbf b93a 743f f182 ed3f
00000260: fbf5 d35a 370b edbf 70ce 54a8 8e15 ec3f
00000270: 1d5e a577 a8ab eabf e335 b89b 71df e83f
00000280: f82f 50e5 c0c2 e6bf 08b0 dba4 eb6b e43f
00000290: 2029 0fbb 4aef e1bf 8609 6f4b 0cce de3f
000002a0: 7dec 7053 ffd0 d9bf b2c9 3e6e 1e10 d53f
000002b0: f2be 0ce3 47aa d0bf 6e8c df2e 856f c93f
000002c0: 19e9 1c4e e78e c2bf 1432 2772 9253 b93f
000002d0: c56d 47c5 1ac7 aebf e2d4 916e d04c 9c3f
000002e0: f849 5151 48cc 58bf eee2 440c dc85 94bf
000002f0: 146d f60f f4fd a23f 603f f655 2f1d aabf
00000300: 97eb 7dc2 7229 b03f 959e 227f 57ea b6bf
00000310: 18e6 03b4 b0a3 c03f 076c e734 6059 c3bf
00000320: 43e4 3a48 155a be3f c792 32cc da3b d7bf
00000330: 8b86 21d8 0d4a c33f 1c85 e79d 4285 e4bf
00000340: 32e7 87f5 2839 e7bf 6ece b2dd c554 c7bf
00000350: d840 5737 e75d e0bf 0d14 2c1b 87db d43f
00000360: 4988 b109 9618 e0bf f363 04ed a5e2 e33f
00000370: 0801 fe77 56c3 d6bf 2ed3 bc06 e122 e83f
00000380: 6a10 8469 7869 e3bf ab11 24e6 6bed ea3f
00000390: 3495 0998 8fc2 e7bf 3e73 3f6a 086b ea3f
000003a0: 72d2 5d6f c21f eebf 33f2 f104 acd7 e93f
000003b0: b6db 66a9 eee5 eabf deb8 2d01 48ad e83f
000003c0: 4d62 f6c2 2322 efbf e302 9468 bec3 e33f
000003d0: a045 4ac2 23a2 edbf 88e9 9190 bf59 f93f
000003e0: 30df a6ff 06ac f6bf ec33 e303 54e2 0240
000003f0: 98e4 6636 18f7 11c0 302e 9c0c b257 1940
00000400: ebac fc78 35f6 f7bf
