tdse-wave-function/tdse-wave-function-chebyshev/tdse-wave-function-chebyshev-script/07-13-2022/numts-100_dt-.002/v6/thetahat.npy (npy, 1160 bytes, 1 tensors)

array f8 [129]
00000000: 77d7 4631 8f86 833f 0a12 466e 78f3 c4bf
00000010: a619 9984 02c7 bcbf 489c bf80 82e2 b6bf
00000020: 6c77 68ac b43b b2bf b340 1f57 5864 aebf
00000030: 7252 d1db f339 a9bf 9d55 d9bf bc77 a5bf
00000040: f217 9501 cb2c a2bf 83e4 2a22 3a4e 9fbf
00000050: eb9e c198 add0 9abf 7559 a9f6 f346 97bf
00000060: 9580 3cac 9417 94bf e438 2dc8 7b8a 91bf
00000070: 04ac 4056 0972 8ebf b22d 86ed 4eb2 8abf
00000080: adf4 a229 5d42 87bf bb6d f021 ad77 84bf
00000090: de2d 41df 59e2 81bf 067b 079d cc91 7fbf
000000a0: 1652 2f16 cea4 7bbf 7e6b ea36 f976 78bf
000000b0: ddf4 c4e8 1074 75bf e6c4 a695 3309 73bf
000000c0: 3afe 12e7 c9b4 70bf c949 8857 42ba 6dbf
000000d0: dfe9 dec9 fa16 6abf 7d60 4a94 9149 67bf
000000e0: 525f a69d bc69 64bf ea57 18ae 674d 62bf
000000f0: ef90 9a07 b9f9 5fbf 1530 542d bee2 5cbf
00000100: 5ef6 9889 8304 59bf 7d98 42e0 c7f2 56bf
00000110: cc68 56c5 3277 53bf de6c c5af 8f71 52bf
00000120: 23ec 846c b955 4ebf 9f91 38ae 48d0 4bbf
00000130: ea99 7aea 2daa 4fbf 913e 6700 3b98 5cbf
00000140: 9595 2f46 3de8 5cbf 5593 167a 4fe4 333f
00000150: d5d6 a0e0 cf35 503f b0e8 4de4 8941 583f
00000160: bfaa 5123 a33d 513f 1e41 bffd ef8b d43e
00000170: 2aa6 dc26 369e 55bf 3b75 2401 12f7 60bf
00000180: 5b82 0478 2825 60bf 13a5 0286 dabe 59bf
00000190: 7a73 11c4 650f 45bf 085a b92f 39bf 393f
000001a0: 1a79 ecdf c8af 4a3f 9a38 1fdb be8a 513f
000001b0: e2d8 c5df bae2 4f3f 7c52 d072 cd20 d7be
000001c0: e2cc 6b1f 220d 26bf 38df 547a 9e81 24bf
000001d0: 419c 174b 1ea4 43bf c644 a134 ec38 37bf
000001e0: cdd8 d2ed 545d 32bf d74b 1ffa 70bf 40bf
000001f0: d6bf d0c2 f597 1bbf 5a7b dbd3 5f16 1d3f
00000200: e4f0 4e41 3713 223f e788 09d4 506c df3e
00000210: 535f 4a56 b683 cebe f2b2 54ac 128f d13e
00000220: e8dc cdef 3d08 d8be 0f89 c365 4666 de3e
00000230: 1886 6863 5563 dcbe 4707 18bb 7d2e d73e
00000240: 52fa 8b64 2253 d7be f9cf 2e5d 7edb d13e
00000250: 4aad de8f d7b4 cfbe 5472 63b3 458c c93e
00000260: 79f2 b849 f4b7 c2be b517 0ac4 d2f7 af3e
00000270: e319 9c33 f0e2 93be ccc7 38bf 3a4b acbe
00000280: e6b5 a7b7 1456 b53e d2d8 70de 2422 c1be
00000290: ecac 2477 fda1 c13e 4feb 8f93 5360 c5be
000002a0: 2e2c c4dd ea00 c33e 071d 1f60 4f37 c5be
000002b0: 3fd5 430b 84b2 c13e ee96 1780 03f4 c4be
000002c0: 2b2c b8d7 312a c23e cf4e bb45 19e3 c6be
000002d0: 7789 fdd0 1330 c43e ed37 4e49 078b cbbe
000002e0: b37b 1b3c 488a ca3e 3dd5 2670 d87a d3be
000002f0: db7c 8284 8990 d53e 5f83 10d7 8efc e0be
00000300: a99e 0747 23c4 e53e 294e da5f df66 f2be
00000310: 42c5 1758 9da1 f93e 6588 802a 50dc 04bf
00000320: ed96 63c4 0a02 053f d9cc 3d45 5e12 013f
00000330: c212 4fb2 14ab 49bf 75c0 5c0c dc34 2bbf
00000340: 0115 41be 872b 353f ce94 28b9 b3d4 453f
00000350: 631e 5a84 d291 443f aafd ba49 b2ab 333f
00000360: 9c0c 7df4 6937 49bf 89cb d873 3ce8 41bf
00000370: 0002 0a1f cd50 13bf a8b5 ae03 fb24 15bf
00000380: f55e 4356 ba74 453f e6e5 a8be 5183 fbbe
00000390: 083a 5e61 7ed5 373f 331c 1025 d928 44bf
000003a0: 7088 f9ca 6244 28bf f49f df7f f357 35bf
000003b0: 4f76 9f6c 8a00 38bf 24da b7cc 7c41 493f
000003c0: c1c8 2a4c 0561 3f3f 421c 03e3 37e2 1e3f
000003d0: 7a48 29b1 0ed3 d9be e862 2231 859c 22bf
000003e0: a183 f71e ecfb 2abf 5222 d650 cf61 04bf
000003f0: bb06 1d28 092f f03e ac3b 7108 e2e4 1d3f
00000400: 4a49 11ae 16d9 2c3f
0.009533995333963692 -0.16368012794932013 -0.11241164910561582 -0.0893937649085369 -0.0712235375326295 -0.05935932219984021 -0.04927026804276559 -0.04192914811998636
-0.035497993415034915 -0.030571850142881118 -0.02618666882372526 -0.022731601648354045 -0.019621203434440366 -0.01712983521729762 -0.014865944809647764 -0.013035408614789332
-0.011357047875544113 -0.009993889425507932 -0.008732511640252957 -0.007707404395175704 -0.006748967195524111 -0.005972836965748905 -0.005237642337587914 -0.004647447111367975
-0.004078663522875165 -0.003628854345387487 -0.0031847856725708413 -0.0028426974625511124 -0.0024918254759533154 -0.0022341752053405177 -0.0019516283922849616 -0.0017630440900715573
-0.0015269550844005035 -0.0014006568826885606 -0.0011880870637015926 -0.0011257079305185195 -0.0009257464780952944 -0.0008488039861203506 -0.0009663318823712162 -0.001745278948522531
-0.0017643545513633442 0.0003035253558556957 0.0009893922856582433 0.0014804693794006445 0.0010522931236446734 4.898698502800689e-06 -0.0013194588495458828 -0.0020709373140010124
-0.0019708433539025578 -0.0015713819521273084 -0.0006427046684042003 0.00039286752846604033 0.0008144121964937274 0.0010706771686162298 0.0009730732413533417 -5.5141770589807296e-06
-0.00016823808228814187 -0.00015645083946380102 -0.0005993984142919144 -0.00035434500444349 -0.00028022120916250116 -0.0005111028333381018 -0.00010526120668496951 0.00011095962414796098
0.00013790177822937185 7.4918528417419625e-06 -3.637611984363197e-06 4.186362905483854e-06 -5.729721803563621e-06 7.247808380324871e-06 -6.768231790606139e-06 5.526925563882813e-06
-5.5610522131642644e-06 4.257535198105144e-06 -3.779699112768012e-06 3.045551603893154e-06 -2.231427584735356e-06 9.527224236894658e-07 -2.9633160957033944e-07 -8.432228910169902e-07
1.2717398180055259e-06 -2.0424574702872776e-06 2.101990440502729e-06 -2.5482505887608246e-06 2.2654037207296023e-06 -2.5291508345158084e-06 2.1096858181477716e-06 -2.497813512236368e-06
2.165415649240458e-06 -2.7283554525444577e-06 2.406573578571019e-06 -3.28339099059989e-06 3.1638341802942893e-06 -4.644361754226498e-06 5.141400898050359e-06 -8.099820407338273e-06
1.0378915448818723e-05 -1.754936783144985e-05 2.444391930639845e-05 -3.978843352593699e-05 4.0069535815407755e-05 3.256178084045666e-05 -0.000783333879205893 -0.00020756899010044056
0.0003230291752099463 0.0006662252001815806 0.000627734939102131 0.00030015089735610046 -0.0007695453032074031 -0.0005464835337022227 -7.368328057034274e-05 -8.065969534128711e-05
0.0006547841881241178 -2.623840911495324e-05 0.0003636773629915051 -0.0006152210499984545 -0.00018514352767612678 -0.00032567686855466895 -0.00036624316692077536 0.0007707461713256131
0.0004788053449075285 0.00011781183343649671 -6.157026990099185e-06 -0.00014199376943648608 -0.0002058721288298567 -3.88757126570978e-05 1.543401095394665e-05 0.0001140368423062493
0.00022009279112695574
