tdse-wave-function/tdse-wave-function-main/tdse-wave-function-main-script/07-16-2022/numts-50_dt-.004/v2/thetahat.npy (npy, 1160 bytes, 1 tensors)

array f8 [129]
9.929804798333146 -5.774545861014505 0.8882585397641454 2.6364104068470455 -3.5283865712109375 4.29282642808411 -4.497610867107935 4.249233790094599
-3.715542622434005 3.038170060295673 -2.326110721961278 1.660806630584213 -1.100065034905787 0.6805883012857612 -0.42068488719320635 0.32485863379927526
-0.3871968759536708 0.592119808789058 -0.9142109663476069 1.3193564089562582 -1.768208089404139 2.220854982322071 -2.640968190937421 2.997356606025321
-3.2638433937991924 3.4191610772870074 -3.4507620813714146 3.3550809013183485 -3.137995618262794 2.8146513782185 -2.4090211621674227 1.9293981990581595
-1.3895095541026738 0.8130724214094492 -0.24273720525725462 -0.45411868032236485 0.9376178233320688 -0.3647222850082665 1.1060198790793723 -1.5155917163448338
2.389347660650527 -1.995956206022902 0.8273634518589321 -0.14176104374907 0.28654264277237224 -0.9068292835863033 1.1961180698228784 -0.552511654263148
-0.842258425736337 2.110207239441866 -2.4739489263182164 2.0035149978696283 -1.5480936546884452 1.89470367600059 -2.9972943388672744 4.016840234071417
-4.182330608387282 3.7269690721814546 -3.7409504461682914 4.682721486617245 -5.051667868132772 3.2630125409843123 -2.066414593709276 1.6381893567767354
-14.027805896065898 -0.4437592799051733 -0.1005722579273776 0.2815043365470713 -0.6893280244334342 1.4890684727364352 -2.3950842502656293 3.171656902617052
-3.719344167022627 4.0108045377471155 -4.056592356090967 3.888372812886576 -3.5504238609088805 3.09332160982335 -2.5681268789257383 2.022642240845344
-1.5010229214285717 1.043699297993409 -0.6855368010541745 0.45259302730736306 -0.35920177998857195 0.4074242900635736 -0.5888247341656043 0.8877881443403485
-1.283092141256517 1.747987824837167 -2.2498615876160284 2.7559426062402026 -3.2332687760416334 3.654588277638545 -4.002715861604532 4.272788802892904
-4.436489034837094 4.478396985358128 -4.412666438316123 4.1980417985418015 -3.294437558505802 3.122700851933605 -3.6819715669843958 3.013107966091326
-2.147611464417131 0.5325162366546803 -0.014464563087648754 0.5051595968627022 -1.0765971591345154 0.9810347615685123 -0.06010572544234865 -1.0678387536154539
1.5012318576041925 -0.8863243747042808 -0.2131081018258095 0.8384169713648655 -0.5610583772829237 -0.10699799309089503 0.25029287318103993 0.5297892789763673
-1.657465788341347 2.25741179540433 -2.288234846257043 2.684159321110181 -3.8177780333846347 4.7708256208394975 -6.6683208729768255 8.270628361435634
-0.31121482425885194
00000000: 6d02 e15f 0fdc 2340 e33c d98c 2219 17c0
00000010: 44c0 552c 9d6c ec3f daef e156 5e17 0540
00000020: f0f8 17bd 223a 0cc0 5e1a f0b0 da2b 1140
00000030: 7d73 01b4 8dfd 11c0 c70e 8624 37ff 1040
00000040: 2afc 1169 6eb9 0dc0 0740 c51a 2c4e 0840
00000050: d096 2df0 df9b 02c0 276d 35f9 a992 fa3f
00000060: 964b 46cb dd99 f1bf 5200 021e 61c7 e53f
00000070: 2da4 1a4e 80ec dabf a26e ffdd 7bca d43f
00000080: 9066 d567 d5c7 d8bf 4602 c23d a5f2 e23f
00000090: df70 435b 3741 edbf 18c3 4377 151c f53f
000000a0: f936 c890 944a fcbf 0adb f19d 4fc4 0140
000000b0: efd1 4eee b320 05c0 61a0 aa19 96fa 0740
000000c0: c110 ddec 591c 0ac0 6fa1 751f 715a 0b40
000000d0: 0e23 6e26 299b 0bc0 a7c5 d4a7 34d7 0a40
000000e0: a470 5b72 9d1a 09c0 e1b7 18f1 6784 0640
000000f0: 460c 17e3 ac45 03c0 51a8 5ea5 d0de fe3f
00000100: c29b c55e 6e3b f6bf ad75 6774 b004 ea3f
00000110: bc19 0d43 0312 cfbf df2e 1fcc 4710 ddbf
00000120: 4174 eb17 f700 ee3f c3e7 8e23 9c57 d7bf
00000130: cef2 95e6 41b2 f13f 14a2 7c19 dd3f f8bf
00000140: 1c25 6a4e 621d 0340 9add 51c6 6fef ffbf
00000150: 1c79 f4ea c279 ea3f e2e1 5fd3 3925 c2bf
00000160: d378 e7f3 b656 d23f 73dd 81d8 be04 edbf
00000170: d8b3 80b3 4c23 f33f b302 b7eb 2cae e1bf
00000180: 282d 2af1 c7f3 eabf 677b 4955 b4e1 0040
00000190: a316 14bc a5ca 03c0 1d2a 07df 3207 0040
000001a0: 0783 20da fdc4 f8bf 4689 40cd b450 fe3f
000001b0: f95d 4f74 75fa 07c0 f85f fa90 3e11 1040
000001c0: 2855 00e0 b4ba 10c0 51c8 3129 d5d0 0d40
000001d0: d0fe 716d 77ed 0dc0 b630 6557 1bbb 1240
000001e0: 8589 ef6b e834 14c0 4eb9 af51 a61a 0a40
000001f0: f1aa df5f 0488 00c0 822e 000b 0636 fa3f
00000200: 5f7a 0c93 3c0e 2cc0 884f 9f52 8d66 dcbf
00000210: b3d6 ae7e 1abf b9bf e4b7 c9c3 2a04 d23f
00000220: 6d0d 25a5 f90e e6bf c385 7e76 39d3 f73f
00000230: c871 70ee 2129 03c0 b0fb 76a7 8d5f 0940
00000240: c171 bf83 37c1 0dc0 cb16 4158 100b 1040
00000250: 0875 ba58 f339 10c0 e806 9034 631b 0f40
00000260: 6455 0ca0 4467 0cc0 639c 7166 1fbf 0840
00000270: 7fb7 e71a 868b 04c0 e282 1f0e 5f2e 0040
00000280: 4150 619c 3004 f8bf 6dd6 fb08 feb2 f03f
00000290: ac6d 97df eaef e5bf 54b2 abbe 48f7 dc3f
000002a0: 5ed1 6d76 29fd d6bf fcd1 5a54 3d13 da3f
000002b0: 3626 0af8 a6d7 e2bf 83fc b6ae c268 ec3f
000002c0: be38 07a0 8b87 f4bf 7db5 d714 c2f7 fb3f
000002d0: 29b3 9a6e b7ff 01c0 2da3 1ba3 2b0c 0640
000002e0: d036 2205 bcdd 09c0 8f6b 66c7 983c 0d40
000002f0: 7416 63f2 c702 10c0 608f acf2 5517 1140
00000300: 6fc0 46fb f6be 11c0 fc78 3ae6 e0e9 1140
00000310: f0e5 e207 92a6 11c0 88e9 1f78 cbca 1040
00000320: d8f8 2314 025b 0ac0 29f8 9195 4afb 0840
00000330: b3ff 4782 ad74 0dc0 406f 6d59 d81a 0840
00000340: 6e7d 61eb 4e2e 01c0 caaa a07d 5f0a e13f
00000350: fb8d 4ccb 989f 8dbf af25 7975 442a e03f
00000360: 2230 57f1 bd39 f1bf 1fa1 2503 a364 ef3f
00000370: 578c 277a 2dc6 aebf 5de0 c216 de15 f1bf
00000380: 2ff9 41b2 0b05 f83f c614 60ef c45c ecbf
00000390: eb5f ed53 2047 cbbf 088d 0dd4 4fd4 ea3f
000003a0: ad76 b2b2 30f4 e1bf 9c22 1071 3864 bbbf
000003b0: 1901 2f66 cc04 d03f 8732 5fa5 08f4 e03f
000003c0: 9ca3 b2d8 fa84 fabf 0fee 56ea 2d0f 0240
000003d0: c6ee 3112 4e4e 02c0 d35f ab85 2879 0540
000003e0: 9131 a635 cf8a 0ec0 bab2 c14f 5315 1340
000003f0: b5ad 924e 5cac 1ac0 e478 f3cc 8f8a 2040
00000400: d037 0e95 f1ea d3bf
