tdse-wave-function/tdse-wave-function-main/tdse-wave-function-main-script/dt/v6/trial_nts-200_dt-.0010/thetahat-fourier.npy (npy, 1160 bytes, 1 tensors)

array f8 [129]
000000 fd 74 cc 5b 6b 78 d1 bf c9 4f 93 01 90 f3 c4 bf
       -0.27297481503212834 -0.16368293835568995
000010 a0 b5 89 1a 1d c7 bc bf d7 ff be 87 8f e2 b6 bf
       -0.11241323373697876 -0.0893945413981777
000020 d3 d7 ee 06 90 3b b2 bf 91 0a 10 a9 ae 64 ae bf
       -0.07122135323774552 -0.059361894738704575
000030 c9 20 2d af 8f 39 a9 bf ae f5 98 c2 4f 78 a5 bf
       -0.04926728261358588 -0.041933529381349074
000040 13 13 e3 98 f8 2b a2 bf 2b 7d 53 d1 8b 4f 9f bf
       -0.03549172273918635 -0.030576882029774637
000050 68 8b fb ba 23 cf 9a bf d9 45 59 b1 3f 48 97 bf
       -0.0261807997584457 -0.02273654479933449
000060 95 bc 8f 3d 5c 16 94 bf b4 85 9d 6c 96 8b 91 bf
       -0.01961654783002283 -0.01713404691634475
000070 e1 7e 03 2f 23 70 8e bf e0 5c c6 2e ea b3 8a bf
       -0.01486232268547333 -0.013038472702460557
000080 b8 ce 4b a8 f7 40 87 bf 49 91 52 66 be 78 84 bf
       -0.011354384253969271 -0.009995925424228462
000090 77 ff 2a d2 67 e1 81 bf 14 c2 68 1d f3 92 7f bf
       -0.008730708218876988 -0.00770850149869819
0000a0 44 11 ec 5d e9 a3 7b bf e4 d3 11 50 0c 77 78 bf
       -0.006748115147960757 -0.005972908112302531
0000b0 8d 00 b4 92 4a 74 75 bf 93 fc f8 d0 19 08 73 bf
       -0.005237857151996772 -0.00464639744274033
0000c0 0a d1 6a bb 24 b6 70 bf 02 1d af 1e 6c b5 6d bf
       -0.004079955563316648 -0.0036265479770666307
0000d0 bc 8b 49 78 ab 1c 6a bf 57 e2 dd c5 0c 41 67 bf
       -0.003187498952955418 -0.0028386353941949704
0000e0 c9 90 83 84 c1 73 64 bf 8d 42 c9 62 3b 3f 62 bf
       -0.0024966029778728843 -0.0022274169807946
0000f0 65 77 ee 54 e7 0d 60 bf 22 e0 74 c5 ce b2 5c bf
       -0.001959754772044175 -0.001751615452873175
000100 d5 8d eb 04 98 40 59 bf 5d c9 59 f6 a5 9c 56 bf
       -0.001541279274243181 -0.0013801213002833858
000110 3c 13 bc 4a 9c e4 53 bf 60 19 59 c6 f3 d8 51 bf
       -0.0012141729629899364 -0.0010893231023075475
000120 d6 bf ca 09 11 63 4f bf 19 aa 32 7e fa 37 4c bf
       -0.000957854575593937 -0.0008611653432997773
000130 09 98 a1 1d 0a d1 48 bf 54 37 1c 6d 4d 40 46 bf
       -0.0007573413270278727 -0.0006790521676707053
000140 f1 49 40 71 30 7b 43 bf f8 20 3a 12 ca d5 41 bf
       -0.0005945192847341391 -0.0005442845035341917
000150 8d 28 c5 46 48 6b 3f bf 66 45 9b dc 8a fb 3b bf
       -0.00047941698609988635 -0.0004269804017954154
000160 56 db 00 b4 ab 81 38 bf d9 f5 45 35 66 9d 36 bf
       -0.0003739399144281804 -0.0003450750857821573
000170 28 41 54 88 e1 b1 33 bf 76 c6 53 2c 78 a9 31 bf
       -0.0003005195251981779 -0.0002695005790221758
000180 ea f3 64 04 b0 37 2e bf 8a 54 aa aa f1 b1 2b bf
       -0.00023054145476378236 -0.00021129679710854928
000190 59 ea 4d 68 79 8b 28 bf 82 1b 84 58 5f b4 26 bf
       -0.0001872621252479608 -0.00017322219742529557
0001a0 10 22 74 86 f6 e1 23 bf 55 06 ef 55 ec 8a 22 bf
       -0.00015169271794258964 -0.00014146933514607116
0001b0 6e 61 b4 56 15 b4 1e bf 0d 2c 20 b9 da 8a 1b bf
       -0.00011712436905886799 -0.00010506591777940961
0001c0 9c de 77 91 67 1f 18 bf 54 c6 ad e7 d7 75 17 bf
       -9.202069883673187e-05 -8.949404029381355e-05
0001d0 bc cb 2f 78 08 fd 13 bf fe 0f 3c a5 3c 84 12 bf
       -7.624973481749805e-05 -7.063503408849534e-05
0001e0 a2 83 76 0b 44 20 0f bf 2a c2 4d 86 d1 3b 0e bf
       -5.936820655994621e-05 -5.766614120872691e-05
0001f0 dc 1b c6 2c 8b 02 0a bf 05 e2 3e ce dc 71 08 bf
       -4.9610016136951185e-05 -4.662470908506706e-05
000200 32 ad ff 88 6a ec 02 bf 47 b8 12 7d 43 0d 6d 3d
       -3.609371299248056e-05 8.257021319140658e-13
000210 03 84 b7 71 37 ce a3 3d a7 0a 35 9f 62 82 75 bd
       9.0065138972256e-12 -1.2226631355824996e-12
000220 ab f7 4a 79 a5 0e 97 3d 77 41 82 ca f2 47 a4 bd
       5.242603135641741e-12 -9.222753054663778e-12
000230 d9 01 8e 6b e0 18 ba 3d 9d 90 9a 63 36 2f d3 3d
       2.3735241829409117e-11 6.97925267066481e-11
000240 81 93 b2 17 9c 20 d6 3d df 82 96 92 3e c8 da 3d
       8.049894598508613e-11 9.743309340499267e-11
000250 51 60 cd 56 e4 cb e5 bd 06 ac 17 9c 5a 27 c8 bd
       -1.5859006764166102e-10 -4.393537227743176e-11
000260 d1 4a 57 f2 75 7f e9 bd a5 98 4f 8f cb 59 c8 bd
       -1.855215921602842e-10 -4.4293778639578414e-11
000270 2d 2f 18 47 f0 99 c3 3d 9d 5c 8d 96 83 6b f1 bd
       3.565459809930984e-11 -2.534940231268011e-10
000280 fe 36 5d ee 05 4e c4 bd 17 81 c7 fa 8d 8d d9 bd
       -3.69341760261778e-11 -9.296108214355522e-11
000290 f7 ce 78 7e d5 11 c1 3d 87 e0 0e db ad 77 c2 bd
       3.104953777507665e-11 -3.35921805842897e-11
0002a0 c2 2a e5 74 b2 6a e0 3d 69 1e d6 2f 6d 85 da bd
       1.194478356916008e-10 -9.64835537498567e-11
0002b0 34 36 08 f6 93 2f f0 3d 80 03 47 09 54 82 c2 bd
       2.3553513829606156e-10 -3.3667847294522675e-11
0002c0 fd 50 e0 6d fd 65 f5 3d 2f 8b be 3d 23 22 f2 bd
       3.1138767768813436e-10 -2.638749754676963e-10
0002d0 08 ca e5 20 30 e1 f7 3d 99 07 54 ef e8 36 01 be
       3.4749450617128745e-10 -5.010076508664434e-10
0002e0 d5 ed e7 a8 6b 01 02 3e d7 49 86 95 93 b5 06 be
       5.240304456095384e-10 -6.609271281733737e-10
0002f0 ce 50 23 11 6e f1 09 3e 16 fe 74 aa 68 22 18 be
       7.550431688519428e-10 -1.4048075288354627e-09
000300 e1 a4 91 b3 80 eb 18 3e 01 b3 b2 38 b8 15 29 be
       1.4505309854949484e-09 -2.920259983122147e-09
000310 b9 8f 34 2a 85 cc 2a 3e ea e1 0a 3d fb 92 3e be
       3.119803375399008e-09 -7.118598114343312e-09
000320 78 34 03 b6 eb ba 40 3e cc 8f 98 36 5f 60 61 be
       7.790587453274638e-09 -3.236616559165119e-08
000330 02 2c bc 3b 63 23 83 be d1 da b2 6c b2 77 bb be
       -1.4259094693216246e-07 -1.6371945317624585e-06
000340 aa 89 5e ab 03 2e b6 be c2 d3 99 ba d2 6b ca 3e
       -1.322015731976791e-06 3.1496505997160356e-06
000350 94 61 ba bb be 53 c8 3e 7e 13 a0 50 d0 f8 ab 3e
       2.9000197779399984e-06 8.336284349491362e-07
000360 4f 15 bd b7 ac d6 a9 be c0 48 51 c3 ef 25 d2 be
       -7.700494814930295e-07 -4.3268656116526405e-06
000370 13 cb 16 5b f1 16 b2 3e b9 bb d8 72 9d 45 d1 3e
       1.0782253919538084e-06 4.117949897116296e-06
000380 54 f6 ac 84 4e 41 c5 be 38 5b 7c 20 48 8a c4 be
       -2.533805888131963e-06 -2.448578246726405e-06
000390 72 2e a1 15 9f eb 73 3e 6c d5 0b 65 91 01 a6 be
       7.420925865578075e-08 -6.558336257111558e-07
0003a0 bb 03 42 4b 6a 3d a0 3e 9d 7e a9 05 5e cb 96 3e
       4.839868297385931e-07 3.3966307958451855e-07
0003b0 67 d7 6a 48 39 f5 ba be 4c e5 ab 14 db b4 9e be
       -1.6068163703314627e-06 -4.5756202797472726e-07
0003c0 71 33 6f 06 ea cc bf 3e a3 78 7f a0 71 a8 ba 3e
       1.8954542839622188e-06 1.588939655398514e-06
0003d0 7e cc 8f 6f 66 97 b3 3e 08 e4 d6 61 c2 0d 81 3e
       1.1677388427305646e-06 1.2706031863959e-07
0003e0 14 59 27 ef 2a d2 c0 be 63 44 33 ea 67 3c 91 3e
       -2.005215599991338e-06 2.5683582745040767e-07
0003f0 ac d5 a2 30 7f 65 c8 3e a1 c2 ae 3b 0e d4 8b be
       2.9082860964711648e-06 -2.0733730629392313e-07
000400 6a a8 44 07 2b 71 c6 be
       -2.6753023637709446e-06
