tdse-amp-squared/tdse-amp-squared-main/tdse-amp-squared-main-script/tdse-amp-squared-main-script-forward-inverse/07-08-2022/numts-80_dt-1e-3/v5/thetahat.npy (npy, 1160 bytes, 1 tensors)

array f8 [129]
0.009533995326026553 1.6939069509835116 0.2807394128893569 1.53722918722251 -1.9804985384405183 -7.41577118111744 0.1024099548729681 -2.152572193671593
-0.7324830199684663 -0.812620014306003 0.8966555131169612 0.769624936230384 0.8845902264491255 -0.5543538175749904 -0.4528583356207914 -0.3878609890000104
0.5733724081158575 -0.06408259490116788 0.12967744944703766 -0.19648043591345493 0.05633934575509135 -0.3077136671778829 0.7073232467542317 -0.5185563756395184
-0.18342921154507574 0.6230547554522073 -0.32045734824264027 -0.502667786538799 1.2991062845116985 -1.6849169968645266 1.6049162727577806 -1.221095095667408
0.739461196962302 -0.3061142189559496 -0.014340305090384035 0.21644569239652278 -0.323404596140917 0.3651779969644593 -0.3676023860276749 0.3491645497751537
-0.3215642154923067 0.29149560251224715 -0.26240865357578447 0.23583569955043293 -0.21226567747010458 0.19166483186304983 -0.17377260882449663 0.1582514755088405
-0.14476467434310208 0.13300276776814068 -0.12270124449596351 0.11363423003396736 -0.10561126299278985 0.09848276391631394 -0.0921077238806476 0.08639544709115905
-0.08123648088531694 0.07657684247079653 -0.07233653939519026 0.06847294618492045 -0.06493959576081701 0.061694078411708916 -0.05871076455373319 0.05595591053099521
-0.05340307623055325 -0.09615338144591874 -0.1586305668054075 -0.1527000900186435 -0.02364335060110655 0.2458456619616162 0.6348995011235042 0.9641415114084319
0.9743868970257364 0.39361529721814564 -0.6263466160420142 -1.4010208857424025 -0.9721713568423881 0.5831207492867803 1.6407274213174823 0.49170309866963735
-1.4967067461619397 -1.0485006156160892 1.3955295767858762 1.0168756537210317 -1.554233536685217 -0.4431430331325468 1.715786679997269 -0.7622729306637288
-0.9078756323779718 1.5203403166459377 -0.8471101404973131 -0.26289840386200897 1.0138356310217123 -1.1669362251703008 0.8990342819406036 -0.4892423284427961
0.13061631978195612 0.10375960121560372 -0.2197018268339973 0.25339712655551994 -0.2416428664774061 0.21070512205002798 -0.17570335181603347 0.1437333815093832
-0.11720458270563773 0.0962313197831026 -0.08002513124185685 0.06759609443258573 -0.0580374393819458 0.05062200858489731 -0.04479345259773802 0.04014659988941412
-0.03638161830992874 0.03328872594449463 -0.03070503534622225 0.028526351687032624 -0.026656135545131847 0.025044273242333208 -0.023631413472409758 0.022387641326754644
-0.02128600194261463 0.020292166746288913 -0.019409129791212686 0.018596643037018256 -0.017867421982929205 0.017195674818621654 -0.016576817706316735 0.01601528707344735
-0.015484728833621217
00000000: 9e06 0131 8f86 833f 640f cf2c 3e1a fb3f
00000010: beb6 4371 a2f7 d13f ca3c d9a1 7d98 f83f
00000020: 920b 463c 1fb0 ffbf 2513 a6eb bfa9 1dc0
00000030: 07d8 f6ee 8937 ba3f abc9 30c5 7738 01c0
00000040: e179 f43a 8070 e7bf 649e 30b0 fb00 eabf
00000050: bfb1 13e7 66b1 ec3f 6e75 6979 c4a0 e83f
00000060: 31ba 9e29 904e ec3f f5b6 9c37 44bd e1bf
00000070: 2d96 4d87 a1fb dcbf 7c8d c9e5 b6d2 d8bf
00000080: f829 a917 1159 e23f a2e4 5789 b767 b0bf
00000090: 19ad 334a 4599 c03f a2ab 465b 4526 c9bf
000000a0: de07 febe 82d8 ac3f 49eb 43aa 94b1 d3bf
000000b0: 9f51 905c 64a2 e63f f420 508a 0398 e0bf
000000c0: 18cc 5bc0 9b7a c7bf b11a c986 10f0 e33f
000000d0: f0c2 9d89 5f82 d4bf aefa fdc0 da15 e0bf
000000e0: d317 e0ab 23c9 f43f 711f 6086 6bf5 fabf
000000f0: 9201 85af bcad f93f ff28 d302 9b89 f3bf
00000100: b8a6 3387 aaa9 e73f a468 d017 6097 d3bf
00000110: 62dc 052b 735e 8dbf 8800 1a11 7eb4 cb3f
00000120: ee48 f330 a9b2 d4bf cc97 8b88 135f d73f
00000130: 58e8 7a28 cc86 d7bf 053d 8d44 b658 d63f
00000140: 599d 4613 8294 d4bf 5af2 ed2b dda7 d23f
00000150: a2e7 52aa 4dcb d0bf b031 663c dd2f ce3f
00000160: a710 668f 852b cbbf e093 5224 7988 c83f
00000170: 90c0 eb4b 2e3e c6bf ea56 ed97 9541 c43f
00000180: 2eb9 f51a a687 c2bf 18bb eb14 3c06 c13f
00000190: d6e5 4948 5969 bfbf 4ab8 b305 2217 bd3f
000001a0: 7dae a4f8 5609 bbbf 8081 3d9a 2a36 b93f
000001b0: d1c0 c62d 5f94 b7bf b5a2 c713 031e b63f
000001c0: 3d02 a5fc e9cb b4bf 0703 0b3a 8a9a b33f
000001d0: a116 02bf a584 b2bf 7c66 8668 7187 b13f
000001e0: 6217 02a0 e19f b0bf 4e32 45c2 5d96 af3f
000001f0: b7e5 5c5b 560f aebf db3e 7fcb 40a6 ac3f
00000200: ba00 d5e3 a557 abbf cdc4 b50c 829d b8bf
00000210: 1e9f 49a4 014e c4bf 60f8 5c32 ad8b c3bf
00000220: 5d01 6666 f635 98bf dd8a fee2 de77 cf3f
00000230: 2f4f 32c2 1851 e43f 21e3 864c 3fda ee3f
00000240: f10b 0c6e 2d2e ef3f df76 3037 fe30 d93f
00000250: 058b fb0e 080b e4bf d66c 54e0 946a f6bf
00000260: 41df f71a 071c efbf 98c8 79d8 eca8 e23f
00000270: 1058 8365 6b40 fa3f 6430 0846 1078 df3f
00000280: 5b7d e7c5 82f2 f7bf f382 de94 a8c6 f0bf
00000290: 4256 4ed2 1654 f63f 8849 cd67 1f45 f03f
000002a0: ff8c 26fc 23de f8bf 454a b098 745c dcbf
000002b0: d102 d8bb dc73 fb3f 1275 7a33 8a64 e8bf
000002c0: 36c2 bc32 510d edbf ab8d 2c5e 5053 f83f
000002d0: 3878 b1b9 861b ebbf e781 b0d3 53d3 d0bf
000002e0: db1f ecb5 ab38 f03f 74fc b951 c5ab f2bf
000002f0: 185e dd8a e3c4 ec3f c9c3 1e0e bf4f dfbf
00000300: d9c8 e41a 09b8 c03f 03f5 dd3d fd8f ba3f
00000310: fccd 8f80 301f ccbf 8834 dd94 a837 d03f
00000320: 0584 6a48 27ee cebf c7fb 26ac 62f8 ca3f
00000330: 1c79 ec8a 727d c6bf bc90 76fe da65 c23f
00000340: 897b a999 1e01 bebf 7fc0 51a3 9da2 b83f
00000350: d9b8 8ae9 867c b4bf 5fdf ec46 fa4d b13f
00000360: 9b96 2d50 15b7 adbf 32f1 a8be 20eb a93f
00000370: 5ee4 f6db 2aef a6bf ba29 245b 188e a43f
00000380: 5626 a289 9ca0 a2bf 13a4 834a 380b a13f
00000390: 1cc7 890a 2471 9fbf f6ad 470e 0336 9d3f
000003a0: 4ec8 9df9 be4b 9bbf 2e94 1cba 34a5 993f
000003b0: adc9 1650 d532 98bf 22fb 542d c9ec 963f
000003c0: ba11 d368 ffcb 95bf ae41 2942 78c7 943f
000003d0: c3ce c9a6 fcdf 93bf 6334 a396 ff0a 933f
000003e0: d871 5264 d64b 92bf 2d1e ea33 be9b 913f
000003f0: 2c79 ae67 83f9 90bf 40b4 ddb8 4f66 903f
00000400: d832 6c1f 75b6 8fbf
