tdse-amp-squared/tdse-amp-squared-main/tdse-amp-squared-main-script/tdse-amp-squared-main-script-forward-inverse/07-11-2022/numts-22_dt-.009/v5/thetahat.npy (npy, 1160 bytes, 1 tensors)

array f8 [129]
000000 c6 13 45 31 8f 86 83 3f 94 44 43 e2 a7 93 fa 3f
       0.0095339953337631 1.6610487783803238
000010 61 b4 65 52 1f 83 d3 3f 5b 7e 40 0c 98 a1 f8 3f
       0.30487807318315246 1.5394516447630824
000020 3f 48 dc 04 b3 e9 ff bf cc ba bb 87 95 97 1d c0
       -1.994555491434326 -7.398031349976645
000030 aa 6b d7 f5 f2 bf b9 3f 10 b9 cc b9 78 60 01 c0
       0.1005851602744047 -2.1721052661515685
000040 b5 d2 8e b8 9d de e5 bf b3 ac 97 e7 de e9 ec bf
       -0.68342481657472 -0.9035486720362286
000050 2d c6 c8 b9 82 a8 f0 3f 2a 69 66 e3 94 24 e2 3f
       1.041140294761486 0.5669655267149996
000060 13 12 5a 36 40 3a f2 3f 3a 87 d9 9b ba db ea bf
       1.1392213938826259 -0.8393223804416501
000070 b3 5d e3 5e 91 ab c4 bf af 35 55 8f 61 6a e5 bf
       -0.16148583539209724 -0.6692359733075842
000080 35 8b 7b d4 68 9e ea 3f 14 05 1c a9 fc 64 d2 bf
       0.831837096219124 -0.2874137546023843
000090 cd d9 17 d3 71 82 d3 3f 95 85 be 2b 59 0c d4 bf
       0.30483670820777037 -0.31325368186852504
0000a0 62 fb 9e b6 d1 fb bb 3f c5 8e b8 57 ca ec d2 bf
       0.10931120594521596 -0.2957025391244595
0000b0 7d b3 12 b8 7d 3a e4 3f e2 42 0d 20 32 a0 d8 bf
       0.6321400256325514 -0.38477757577952165
0000c0 50 54 bc e5 20 63 d7 bf 97 70 6d 1d 4a bc ea 3f
       -0.365425323821289 0.8354845595126957
0000d0 bf 1f d5 0b db 89 e1 bf ae f5 66 aa 2c 6e d1 bf
       -0.5480780821899244 -0.2723495163043833
0000e0 da bf d6 dd 2e 39 f1 3f f2 db 02 74 fd 96 f7 bf
       1.076460711057726 -1.4743628055273317
0000f0 e2 a2 32 5a 12 9b f6 3f 65 b4 ef 7f e6 ee f0 bf
       1.4128592990256768 -1.0583252904428033
000100 67 bd dc b1 59 85 e3 3f 21 a1 74 58 70 21 cb bf
       0.6100281213638653 -0.21195797270889563
000110 b4 db ad 28 a6 5f b0 bf bc 55 2e 32 94 28 cc 3f
       -0.06395948880331909 0.21998836946720057
000120 14 c1 6c 86 df f8 d1 bf 9d fd 87 b1 bd 48 d1 3f
       -0.28081501128601016 0.2700647577002771
000130 62 1d 4a ab 2b 94 cb bf 3b 74 1b cd 64 1f c3 3f
       -0.2154593073248448 0.14939556136133256
000140 89 60 5f 15 73 4a b3 bf 1c 0a da 69 d5 b9 7e 3f
       -0.07535475990096265 0.007501443525713938
000150 de 87 24 aa 05 32 a6 3f 2c e3 42 ea 51 86 b1 bf
       0.0433503885453914 -0.06845581025380615
000160 cf 03 a2 68 fc ac b5 3f b4 77 59 83 07 fa b3 bf
       0.08467080645097201 -0.07803389508032305
000170 95 bd 5c 5f 6c 66 b3 3f 3d 95 c5 80 a7 1e b1 bf
       0.07578160598926893 -0.06687399762957554
000180 cd 89 97 c8 17 c8 aa 3f 2f 6f d9 7a b8 04 a4 bf
       0.052307837711640916 -0.039098515506991276
000190 d6 1c a7 cd 4d 1b 8a 3f c4 9e 52 5e 04 9c a0 bf
       0.012747390593075652 -0.03244031573677611
0001a0 f7 46 e3 d9 55 43 91 3f d5 cd 17 26 aa ab 94 bf
       0.016858426498237624 -0.020186098647128354
0001b0 52 4a 37 76 de c6 75 bf 85 b8 33 49 1f 92 4a bf
       -0.0053166093743635835 -0.0008108761561780453
0001c0 4d 6e 2a a3 e3 93 8d bf f5 1c 85 5d a9 de a0 bf
       -0.014442232529567134 -0.032948773065578786
0001d0 7e 5b fa 63 b7 bc 97 3f 6d 83 79 8e cf 15 9f bf
       0.023180833317919085 -0.030356638976062045
0001e0 b5 b4 bf f4 bf 52 38 bf 82 35 bf 8a 75 e2 83 bf
       -0.0003711432116223033 -0.009709280297012016
0001f0 be 8f 69 c8 6a 90 95 3f cf 65 68 1f 45 69 a0 bf
       0.021058720094870635 -0.03205314644237555
000200 c7 4f bb 2c bf bf bf 3f aa 09 9f 57 a7 03 7b bf
       0.12401957361299686 -0.006595281296485936
000210 a9 a4 76 55 d8 5c cb bf d6 a4 d2 21 19 f4 af bf
       -0.21377090619106312 -0.062409196261180064
000220 86 9a 21 65 df 53 c1 bf 28 5a 0f 8d 41 fd d8 3f
       -0.13537208974885945 0.3904575231112255
000230 30 93 87 9a 68 33 dd 3f 37 8c ab a6 fa aa f2 3f
       0.45626273241787185 1.166742945723639
000240 44 55 e9 a3 7f 14 e8 3f 14 a1 45 ea ac e5 e3 3f
       0.7525022698779726 0.621786553919295
000250 43 32 2b 49 a1 f6 ea bf 7e f1 db 4f a9 7c f3 bf
       -0.8426062039448613 -1.217934905958003
000260 0b 49 38 7f bf a8 f1 bf 68 33 b4 8b c2 e9 e4 3f
       -1.1036982507253608 0.6535351494400006
000270 57 8b e8 7b 3d 1a fa 3f 58 0e af 08 46 57 dc 3f
       1.6314062919779724 0.44282675598171783
000280 2c 45 03 2c 54 42 f6 bf 3a e4 d6 fe 72 44 f3 bf
       -1.391193553852939 -1.2042112307228892
000290 60 f3 49 f7 33 68 f9 3f 0c 3b be d6 34 9a e9 3f
       1.5879401836129645 0.8000740236473987
0002a0 4e 2c 87 6e e8 31 f5 bf d0 b1 89 00 ec 64 e5 bf
       -1.324684554815366 -0.6685695658211959
0002b0 e6 06 1e ef 86 bb fe 3f 63 cf 68 11 bf fd ed bf
       1.9207829800147294 -0.9372248973872782
0002c0 db f9 e8 6d 56 cf e8 bf d8 0c 66 b8 d5 06 f7 3f
       -0.7753097674065502 1.4391686633178349
0002d0 5a 9c 37 d3 ae 44 ea bf 99 0c 62 6d 49 55 ce bf
       -0.8208841443382753 -0.236977747354193
0002e0 07 79 d9 3e 5d 16 ee 3f a5 4d a1 d0 b6 cc f0 bf
       0.9402300097970347 -1.04997903343324
0002f0 ec 95 b3 4c 61 8e e7 3f bf 89 2b 72 e8 04 d2 bf
       0.7361303804470345 -0.28154956006451565
000300 1a 9f a0 56 3c cd be bf 94 bf 38 1d ee 8f d9 3f
       -0.12031914820601877 0.39940979818038014
000310 fb ee d0 50 85 e2 e1 bf 6c f6 3e a1 a9 ff e3 3f
       -0.5589014604988444 0.6249588155112185
000320 28 78 ec 58 7a 86 e4 bf 3d 88 57 0e 49 dd e3 3f
       -0.641415761641615 0.6207623748889614
000330 60 85 5e 8a ed 76 e2 bf 6f 9c ab 04 b4 93 e0 3f
       -0.5770175650142555 0.518030175325192
000340 36 cf 0b a8 f5 88 dd bf f6 21 ec d4 b6 67 d8 3f
       -0.46148435030703483 0.3813302115745779
000350 a0 ce c2 e5 0e 99 d3 bf 3a 2b 74 1f 17 d6 cc 3f
       -0.3062169307479312 0.2252835181792195
000360 b5 e7 80 6b 9e c1 c5 bf fc 9b 30 4c 0f d5 ba 3f
       -0.1699712777061088 0.10481353387932296
000370 3e 20 87 4a e4 04 b3 bf bb bf 1c 96 f4 26 9c 3f
       -0.07429339236762275 0.02749235311711094
000380 57 cc 0e 0b 51 ac 92 bf b8 a1 ae 0a f8 71 82 bf
       -0.018235460567393193 -0.009006440950387481
000390 8b fb 77 34 a1 79 7d bf 73 1c c5 eb 04 37 5f 3f
       -0.007196073252543021 0.0019052074486170217
0003a0 0b 1c 34 83 a5 9b 85 3f 9e d3 47 b6 10 8a 92 bf
       0.010550778452410389 -0.018104802251361123
0003b0 b8 8e 46 72 89 96 88 3f 23 84 17 a9 93 a6 91 bf
       0.012005876350321784 -0.017237002559230895
0003c0 43 0f b2 ba 90 f7 80 3f 66 9c ae 5e 4e 29 82 3f
       0.008284693429466144 0.0088678476948429
0003d0 18 cd 3b 6c df 1e 8f 3f ce 25 a1 e7 c2 82 8e bf
       0.015195603838469782 -0.014897844976206633
0003e0 15 6d 86 ee 14 37 a7 3f c3 9d 1a 19 1a bc a3 bf
       0.04534211551364301 -0.0385444789547438
0003f0 6f bc 00 f3 49 d6 a5 3f de 4c 78 8f a2 93 8c bf
       0.04265051928847973 -0.013953466418604451
000400 d4 eb 24 4a 53 60 be 3f
       0.11865730819856363
