tdse-wave-function/tdse-wave-function-main/tdse-wave-function-main-script/dt/v2/trial_nts-100_dt-.0020/thetahat-fourier.npy (npy, 1160 bytes, 1 tensors)

array f8 [129]
0	0x40270f2be4552e5d	11.529631743810734
1	0xc01d439f9eed4da5	-7.316038592561573
2	0x40021303d2cc1dfb	2.2592846363584136
3	0x3ff88ea44888da4f	1.534824641550262
4	0xc00632c5bca2ac03	-2.7747912156241923
5	0x400f819dd0823746	3.9382892884958975
6	0xc0123d8d0793a73c	-4.560108297717132
7	0x4012dae900c7eb55	4.7137794610997235
8	0xc0122540b64093e5	-4.536379668895255
9	0x40108f46cccb4240	4.139918517976696
10	0xc00cd98d630c626c	-3.606226705375141
11	0x4007f64e055fa0dc	2.995266000729414
12	0xc002d07d8e40be0b	-2.351801978445797
13	0x3ffb622af3143c91	1.7114667411113127
14	0xbff1a510fe21afe3	-1.1027994086280095
15	0x3fe1886074ef7a31	0.5478975566764516
16	0xbfb02d98aa9caa83	-0.06319574513751473
17	0xbfd5bd3c2c6e1136	-0.3396749910246116
18	0x3fe4e92d725b1ade	0.6534640534890419
19	0xbfec005281a28916	-0.8750393421107983
20	0x3ff016425e621ab9	1.0054343878597776
21	0xbff0cba6652ba9fe	-1.0497192337012389
22	0x3ff04513de393c46	1.0168646507843433
23	0xbfed649715a143f6	-0.9185290739497975
24	0x3fe8942d75425f37	0.768088082334521
25	0xbfe28c0c343112df	-0.5795956630105045
26	0x3fd791134d826e1f	0.36822969979559333
27	0xbfc2c8c52a9945a6	-0.14675201969161583
28	0xbfb22f3d3c346a9a	-0.07103331298677987
29	0x3fd152ac418b85e9	0.27067095185165485
30	0xbfdc2ed1fa48809d	-0.44035767976493806
31	0x3fe2c67fe67c20aa	0.5867309095056232
32	0xbfe69af7eb378423	-0.7064170450286195
33	0x3fe97d04685e9920	0.7965108908145204
34	0xbfeb97c5a16fa71f	-0.8622768548059162
35	0x3ff11bb19943ca54	1.069261168184899
36	0xbfea93ffce0a1001	-0.830566313190957
37	0xbfc2959894ba7297	-0.14519030820965348
38	0xbfed3d1831feb1ef	-0.9137078262770596
39	0x3fe34b72de3d8bf4	0.6029600468285694
40	0xbfe91ada2e82ee03	-0.7845278652598043
41	0x3fd2622f600b7828	0.2872427404344102
42	0x3fca0216de23cb2b	0.20318876120253412
43	0xbfba53bcff3aade5	-0.1028402445905879
44	0xbfcf0e2e80631275	-0.2426202895059252
45	0x3fdf7f870c3f28b0	0.4921586627575705
46	0xbfe1804beeb2cd90	-0.5469112073973736
47	0x3fe232e7916d6580	0.5687139358880557
48	0xbfe677ec22ecb30e	-0.702138965808986
49	0x3feeedc9787749d3	0.9665267327166539
50	0xbff528ae06f3e5df	-1.3224315902319785
51	0x3ffbb6fe7cbac65c	1.7321762916802959
52	0xc0016eb5a20c69de	-2.1790573749578774
53	0x400536beca467aa3	2.6517310908087253
54	0xc008f2b1ddeaad81	-3.118503316616341
55	0x400beac5543083e1	3.489634187441411
56	0xc00e1c9779bea4ff	-3.7639607917122926
57	0x401047f52842ed71	4.070271138272219
58	0xc0120af08540febf	-4.510683137981402
59	0x4013a75d46ca1c41	4.913441759191358
60	0xc0149528706e60af	-5.145662075745505
61	0x4015fdd50df65734	5.497883051071586
62	0xc00e2c4c44ce3f68	-3.771629846138172
63	0x40056eaa806f0c3f	2.679036143673812
64	0xc02c7d6ac0819770	-14.244955077952653
65	0xbfea5d5d6daab5b2	-0.823897089188611
66	0x3fe40fb8e0c42dcd	0.6269192113845122
67	0xbfe75e4f2f811a44	-0.7302623679941651
68	0x3fe09202cf2fa00a	0.5178236052133809
69	0x3fc9110358682a8c	0.19583169762366415
70	0xbff22c6bb54bd61d	-1.135844906032964
71	0x40008927049d7a9f	2.066968952232244
72	0xc00710c1d9b27fa9	-2.8831822402571174
73	0x400c5b0e462c77b0	3.5444608194656766
74	0xc010297742e6f624	-4.040494008394976
75	0x40117f4ed48487dc	4.374324150647194
76	0xc0123849e893ad31	-4.554969438565693
77	0x40126115036bc802	4.594806722119758
78	0xc01209e531f80f40	-4.509663372769694
79	0x4011456b87db85e8	4.3177930095421075
80	0xc01027b7adcc41ae	-4.038786616889793
81	0x400d8b10f9095dd5	3.6929034667952956
82	0xc00a67e29ad7214f	-3.300725183191538
83	0x40070fe866b12bd5	2.8827674887483945
84	0xc003ac163fea67eb	-2.45902681287861
85	0x4000629f87e4b0a3	2.0481558434167524
86	0xbffaa9fb920ceb7c	-1.6664996819588103
87	0x3ff53b2896a78630	1.3269430050789985
88	0xbff09f9a329bb439	-1.0389654137500328
89	0x3fe9e0ee27b2e584	0.8087073111884568
90	0xbfe472eb501bf73d	-0.6390282215722675
91	0x3fe0ed8fffa60203	0.5289993279585022
92	0xbfde968c296327f4	-0.47793869058352745
93	0x3fdeae9d7bd8d427	0.4794076642459139
94	0xbfe09f34a7e9968b	-0.5194342879810433
95	0x3fe2a6782efcf76a	0.5828209798562345
96	0xbfe58f4f75059379	-0.6737439427930517
97	0x3fe927e9a9915554	0.7861221610898306
98	0xbfebfde45927cc38	-0.8747426739995552
99	0x3ff0cb4bcdd32cf2	1.0496328392062506
100	0xbffb700589194897	-1.714849029104277
101	0x3ff22485da6a0f28	1.1339167148407316
102	0xbfe34bdd13afd2c4	-0.6030106911190036
103	0x3ff49021908e3666	1.2851882597637085
104	0xbff8f9ac682675b2	-1.560955435597276
105	0x3ffa872380a12a9b	1.6579928421585126
106	0xbff23f8dd4e1eb5f	-1.1405161205027168
107	0x3fe16ce936e52d03	0.544544799058173
108	0xbfd1d94e76559421	-0.27888833576281696
109	0x3fd41f2bfbcd294f	0.3144025763509903
110	0xbfd74027c7edda08	-0.3632907345230767
111	0x3fd13af70ecede3f	0.26922394224263607
112	0xbfb63ce8fd0f5aa7	-0.08686691454145522
113	0xbfb425bf39214fd5	-0.07870097298410823
114	0x3fc791676dbfd786	0.1841248784909874
115	0xbfcea173f5903baf	-0.23930215349579728
116	0x3fd15e6cf5076fcc	0.27138828209512833
117	0xbfd0ad5b6bcf887b	-0.26058087852846484
118	0x3fbba59cf1655cab	0.10799580472427077
119	0x3fd4468659ec40ef	0.3168044927742945
120	0xbff058de883d3508	-1.021696598228404
121	0x3ffee9c7d182217d	1.9320753272932898
122	0xc0063c0b7f80aad8	-2.7793188058034097
123	0x400946f5af10e6bb	3.159648292258536
124	0xc00441b6439feedf	-2.5320859225447374
125	0x40012c8c2c58b0d2	2.1467517342153792
126	0xc01330a65d7520f9	-4.797509632371878
127	0x4016e7ed61236932	5.726491468225776
128	0xc02809ff98a13ce8	-12.019528169329035
