tdse-wave-function/tdse-wave-function-main/tdse-wave-function-main-script/dt/v5/trial_nts-105_dt-.0019/thetahat-fourier.npy (npy, 1160 bytes, 1 tensors)

array f8 [129]
0	0x3fff3c9dffb2ef49	1.9522991169205446
1	0x3ffe75ac480dd0cf	1.9037287535293677
2	0xbfe454fe04513baf	-0.6353750309298131
3	0x3fe5656bb54740b2	0.6686304607956315
4	0xbff7662aa39f0109	-1.462443007607421
5	0xc01901ee40654aef	-6.251885420019547
6	0x3fbff8aa0ea3697b	0.1248880658853632
7	0xc0097d446c696f28	-3.186165663688275
8	0xbff60a32027512b6	-1.3774890991200386
9	0xbfae0112510d5397	-0.0586019252720355
10	0x3ffd362265e36aa2	1.825716398240424
11	0x3fe1597ff3774359	0.5421752696221162
12	0xbfc04cfae86e0b7e	-0.12734924649347684
13	0xbfe9a39af32624e9	-0.80122134676017
14	0x3fd25655f80b1e7a	0.286519520025173
15	0x3fd07de15ecabef8	0.2576831269934554
16	0x3fca91bc127f21bc	0.20757246878771507
17	0xbfe9ddec3d83c6f6	-0.8083401872119953
18	0x3fb553051784792b	0.08329803299099996
19	0x3fdc7696248a3e43	0.4447379452549038
20	0x3fd847753ef2de82	0.3793614496930574
21	0xbfe5dbc8cb8464d1	-0.6830791449493977
22	0x3fcab861052e6702	0.2087518000887983
23	0xbfd84a94e05655d2	-0.3795520964425495
24	0x3fd2faed8cd8a965	0.2965654254391182
25	0x3fe885d4e970e553	0.7663368758577839
26	0xbfe5654ac71082d3	-0.6686147582987253
27	0xbfea00a0cb891b04	-0.8125766730598518
28	0x3ff6d7f3ea395f26	1.4277228497866843
29	0xbff63ed81ac9f1aa	-1.3903428121985635
30	0x3ffc4804209effc5	1.7675820612202966
31	0xbffa18a37e01b4fe	-1.631015293324992
32	0x3fe36b16000acd82	0.6068220139335809
33	0xbfd107fbb37fac2f	-0.26611225632831553
34	0x3fde59c693c8e228	0.4742294734201402
35	0x3fd05d0541d0fa40	0.2556775229203687
36	0xbfe9ac3e0c6a75e6	-0.8022756807801528
37	0x3fd4c8e7962947b6	0.32476224579033486
38	0xbfcd6226f69eec2b	-0.229557867451008
39	0x3fe432c9fb856c13	0.6311998283885053
40	0xbfdec7ac85931d5c	-0.480937128490458
41	0x3fb6e4265de7bd38	0.08941879074676684
42	0xbfd362a6c1b19b70	-0.3028962031880189
43	0x3f9a3b55387edb8d	0.025616962025846447
44	0xbfe0abaa8fe6eb8a	-0.5209553537928155
45	0x3fe04e5c3df4bf97	0.5095654687956878
46	0x3fe1538b3abf995f	0.5414482257299759
47	0x3fc9a7e0bea3fc88	0.20043572720166858
48	0xbff20da389f6cd83	-1.1283297909947982
49	0xbfdb936a9d650b99	-0.43087258692337965
50	0x3feb60d22fc61d60	0.8555689747890192
51	0x3ff67e25d26f2cf0	1.4057977886284867
52	0xbfc41ce6934926f2	-0.15713197890936886
53	0xbff140fe001b15c9	-1.0783672336705072
54	0xbfe8f03bfeddf3f6	-0.7793254831191223
55	0x3fe5258471b65097	0.6608297558727995
56	0x3fe4ab1d14811dc9	0.645887889907436
57	0xbfcf445316465076	-0.244272600055982
58	0xbfe8df4f6845fbf7	-0.7772595440472959
59	0x3fe37f752f030480	0.6093088072012876
60	0x3ff5edf6cdf492c3	1.3705966992503569
61	0xbfc5623d4c4277f6	-0.1670605299340761
62	0xc0028e46279e7ac3	-2.3194697470893018
63	0xbfed8584e4c831be	-0.9225487202070821
64	0x3ff3ad6ece8c3003	1.2298420017496035
65	0x3ff0fa34de5d577e	1.0610855756872009
66	0x3fd7437dfefda169	0.36349439526977406
67	0xbfeb411c5751bc77	-0.8516980843977667
68	0xbff1fec1568767b8	-1.1246961002384364
69	0x3fe1628ae87a7d2c	0.5432791271777311
70	0x3ffbd9511bf4f1f4	1.7405558673918877
71	0x3ff58c36d49362e0	1.3467319778193811
72	0x3f9c6e83ef20504c	0.027765332670313378
73	0xbfda1f4223ef15f3	-0.40815785893604967
74	0xbfc1c8fa30c7f3e8	-0.13894584066284144
75	0xbfd869e1d83129bf	-0.3814625369310782
76	0xbfeec50942aae6fb	-0.9615522672749813
77	0xbfd4535da99f8c38	-0.3175882488705528
78	0x3ff2b9822b806935	1.1702901553422411
79	0x3ff0c815e735eb75	1.0488490134873392
80	0xbfe86acae2384fc4	-0.7630361955984815
81	0xbff3541a86fe2094	-1.2080331109191649
82	0x3fe5bffe3558cad7	0.6796866456919258
83	0x3fe9e73d1c9200f7	0.8094773824705318
84	0xbff098376b1d9a15	-1.0371622261242284
85	0xbf99b8976f7e6e0a	-0.02511822336201245
86	0x3ff773dfdbc118b7	1.4657896598960585
87	0xbff4a9053a11cdc4	-1.2912647503224983
88	0xbfecc9372db2d0d9	-0.8995624439762891
89	0x3ffee76a63c5f855	1.931497945537122
90	0xbfe2c42a83b93e72	-0.586446053764986
91	0xbfe087f0c2a198ce	-0.5165942956343998
92	0x3fe693e62e49b6b8	0.7055540947019017
93	0xbff30b395b4e0ad0	-1.1902402464481163
94	0x3ff42bcdc3791d13	1.260694278303906
95	0xbfd50c4250f9a150	-0.3288732329151758
96	0xbfc0e983cd886f75	-0.13212630782879456
97	0xbfc6f7f400c23fb1	-0.1794419292168619
98	0xbfd28c5853607f86	-0.2898159803607928
99	0x3fea8bda14a5ce08	0.82957176239728
100	0xbfd0ee6e2683c089	-0.2645526291007703
101	0xbfac5cfcd7bbda07	-0.05539693959683594
102	0xbfd777c4ea36969e	-0.3666851317633276
103	0x3fd3ce7c0775cc7e	0.30947781303911615
104	0x3fc5fd2adada7b52	0.1717885559673627
105	0x3fad68fec10359c4	0.057441674290817285
106	0xbfb74ad747a53f5d	-0.09098573207051915
107	0x3fbbeb4a6e8db10c	0.10905900191363943
108	0xbfd9a3d7c76d13b9	-0.40062517619326915
109	0xbfe127d342ebf2a9	-0.5361114794792076
110	0x3fbc4b8708f4e2b1	0.1105274578920994
111	0x3fec14d4b6372c6e	0.8775428351303967
112	0x3fcd78dc797f9fa6	0.23025089199586296
113	0xbfef5a94a3c0851f	-0.9798072050363408
114	0xbfed9260580a0dbd	-0.9241182059781107
115	0x3fe766a9431d4cf7	0.7312818823651516
116	0x3ff710d2ea337619	1.441607394073236
117	0x3fe065e947335488	0.5124403372416433
118	0xbfea540cf4a6f183	-0.822760083995988
119	0xbfe64d0fe82caf3d	-0.6969069990786704
120	0x3fd501f1ef66c9d8	0.328243716993851
121	0x3fe598e688ae97a3	0.6749146146364534
122	0xbfe19dcb82356a85	-0.5505120795381379
123	0xbff092f2331ffc28	-1.0358755108898183
124	0x3fd7927d639a908e	0.36831602789812556
125	0x3fffb519afe8439a	1.9817139502885994
126	0x3fd01d6ac7419e72	0.2517954774725474
127	0xbfff903c8cb9e4dc	-1.9727139947047396
128	0xbff4bcc1db26ed7d	-1.2960833130481142
