tdse-wave-function/tdse-wave-function-main/tdse-wave-function-main-script/dt/v4/trial_nts-68_dt-.0029/thetahat-fourier.npy (npy, 1160 bytes, 1 tensors)

array f8 [129]
00000000: 23dd 45bb b638 b33f 627f 81ac f399 b63f
00000010: 089f d96e 244e ae3f f9dd a109 0a67 ab3f
00000020: ed8a 1147 be15 553f acb5 5a63 cf35 9cbf
00000030: 587b d0e3 22cc b7bf 58aa fd27 335a bbbf
00000040: e85f 8763 d480 bdbf 5ccc 651a d779 a1bf
00000050: c983 873d b522 a63f 50e4 2e9f 100c c03f
00000060: eacb 7f8f 593a b23f c758 3c92 41ea 9ebf
00000070: c3f7 e302 fd62 c0bf 1773 0ff8 36f2 9dbf
00000080: cfff 9b0e f111 b73f 5576 e58b bfad b53f
00000090: cba1 6073 a0cf b9bf d056 762a 8f07 afbf
000000a0: 08c4 1053 a82a b73f 2225 edfd 95d6 a73f
000000b0: 31d4 2b4b 00d4 c0bf e72c cb34 0b28 b03f
000000c0: 3326 b522 c613 ad3f 2df7 6de0 391b babf
000000d0: a701 b2a1 5b1c a93f 6ffc 46a5 0fca a63f
000000e0: 834f 3bb0 d8b8 bdbf 5e1c 82b1 70e0 c13f
000000f0: 9fe3 54eb 7f5f bfbf edd6 715e 99d2 b53f
00000100: 6950 683e f061 a7bf e8b5 b4fb a9f8 8b3f
00000110: 2cc7 f7ec 535e 803f 23e5 c14a 6fee 94bf
00000120: 4ce8 e23c 2dd9 9a3f 2017 aa35 e775 9cbf
00000130: 5eb8 2938 d5ad 9b3f 501e ab4a 50c1 99bf
00000140: 775a d84c 876c 973f 0490 e4f0 a613 95bf
00000150: 47b8 82aa 50e5 923f d820 c76c 5bf3 90bf
00000160: fb55 68f9 407f 8e3f 34e0 f220 458d 8bbf
00000170: 6ba9 3b15 a000 893f 39e0 f831 a6cd 86bf
00000180: 7dfd 74b0 a8e3 843f 5688 a994 b839 83bf
00000190: 66d0 5308 15c4 813f d571 f1a8 597a 80bf
000001a0: fb8a 29fd 37b0 7e3f d287 348d 4fa6 7cbf
000001b0: 17e9 ab0d efd8 7a3f 39ea 4ab7 e235 79bf
000001c0: 5705 f374 ebbd 773f d241 7b1d 7e69 76bf
000001d0: 0426 d29d a830 753f 640c 0c8d 7c17 74bf
000001e0: bec9 8866 7c12 733f 54be a730 3b24 72bf
000001f0: c962 e6c9 4047 713f 31fe c14c 927c 70bf
00000200: ddce 2661 f37f 6f3f acce 5a53 77ba 97bd
00000210: ef58 4e19 5156 a83d d0d3 34fc 1698 b1bd
00000220: 220a a670 5fd0 b43d cd9f d9b4 f8d0 b1bd
00000230: 4358 3e63 6571 873d 90a6 706f 37b2 ac3d
00000240: 21b8 76a6 f525 aabd 16ee dead 6d1f 5f3d
00000250: f54a 11e5 cef3 563d 55d7 d4d0 882d a03d
00000260: 4720 d196 6310 a1bd 427f 0bc9 d887 a33d
00000270: d24c 6672 fed8 93bd ef9d 513e 4315 6fbd
00000280: bc3b 4748 86c6 8bbd d458 1833 f739 78bd
00000290: fe42 84a0 ab3b aa3d 1ebb 435e fc42 99bd
000002a0: 661f dc5a 8be0 b7bd 0235 f0cd 5465 c2bd
000002b0: 6c32 22c0 341c d23d 1314 ef1d 458b de3d
000002c0: c7e4 3e0b 1850 c8bd 2883 c699 7aed eebd
000002d0: 935c 1c3d 0982 ac3d 08be e55d 03c0 fe3d
000002e0: 4ec9 2618 ccc1 a8bd cb61 3983 52db 00be
000002f0: 7d26 f821 ce88 f0bd 7f5a a498 5112 0a3e
00000300: dd80 ef80 4659 04be 4e59 eaec a75a 113e
00000310: 66bb 8b56 eed3 11be 4e3d 0828 ef7f c93d
00000320: 676c 8b15 8338 053e 7a81 d53e 99b9 253e
00000330: 5a09 4a8b c8e2 313e 84de 0023 954a 423e
00000340: 5f25 af41 eb38 523e 5fd2 f475 f00b 603e
00000350: 88af 7ae0 3de4 673e fe76 f0e6 fa18 6d3e
00000360: 9199 24d5 032b 6b3e 8dab 9b39 ce0c 593e
00000370: 9777 c3ae 5179 60be bd47 7940 45aa 78be
00000380: c522 2581 7024 81be 449f 8f9d d661 7ebe
00000390: d921 346f 21d1 72be 2637 c4a5 a681 6bbe
000003a0: 7868 7d2c 3a29 75be ba27 0cf4 f9fe 64be
000003b0: f4c2 670e fa2a 863e 9022 d3d1 393e 953e
000003c0: 3ed7 4134 598e 853e 8ced f521 0d37 8a3e
000003d0: 16ee f371 2ba2 b13e e68b d31a cee7 bb3e
000003e0: 318b faac eb48 a33e 8905 cbe5 9e7a acbe
000003f0: 1548 d7c8 1ffd a8be 7019 9f1c dd05 b0be
00000400: ad9a 2778 1d54 b6be
0.07508413383572025 0.088286618819891 0.05918992856169153 0.05352050178128915 0.0012869222812461015 -0.02754901927862867 -0.09295862256884158 -0.10684509016361099
-0.11524703435804862 -0.03413269231068547 0.043233550797374294 0.12536819241157326 0.07120284799002233 -0.030190491247673614 -0.12802088395249997 -0.02924428833999845
0.09011751753496287 0.08468243756711875 -0.10082438294251188 -0.060604547437078105 0.09049465206113905 0.04655903553664077 -0.1314697615668208 0.06311101950557295
0.05679148839642458 -0.10197793702351694 0.04904447888202706 0.044510353970957144 -0.11610178282290744 0.13966187159914772 -0.12255095954323146 0.08524473720339261
-0.04566908609209081 0.013657882684664238 0.007992416066347006 -0.02044080632956481 0.026219088402946775 -0.027793514871993996 0.027030307343402497 -0.025151495511435862
0.02287494093442396 -0.020582779362612783 0.018452892691748237 -0.016553333772919426 0.014891154872240788 -0.013453044956222106 0.012208223960858708 -0.011134432220487255
0.010199849972763126 -0.009387437855540675 0.008674778286582984 -0.008045864551768847 0.007492274004649908 -0.006994543789263079 0.006554540445671961 -0.006154904946635891
0.005796355965857223 -0.00547169936881216 0.005173357637553892 -0.0049052109977792725 0.004656301440763176 -0.0044290840255452775 0.004218342858074827 -0.0040250506245907295
0.00384519133623394 -5.395209715112896e-12 1.1067265845791488e-11 -1.6001741392783237e-11 1.8930182977183226e-11 -1.6203825870609896e-11 2.665155227881646e-12 1.3049502001987333e-11
-1.189086086712124e-11 4.4228112474110474e-13 3.2617287664090814e-13 7.356843021914098e-12 -7.759817712897013e-12 8.881512090578316e-12 -4.512829162006249e-12 -8.834336228846407e-13
-3.1577072247562345e-12 -1.3771130066063532e-12 1.1929427078242691e-11 -5.7438372399361e-12 -2.1716119942856508e-11 -3.3461811223171014e-11 6.588445070186989e-11 1.1111850977847932e-10
-4.42248472267823e-11 -2.2502828497087488e-10 1.296391632039938e-11 4.474721408491343e-10 -1.1258189480263752e-11 -4.905953477215918e-10 -2.406071192712575e-10 7.587821909717342e-10
-5.922260476041303e-10 1.0101430140804265e-09 -1.0377177677775165e-09 4.6383762285932116e-11 6.176051155642717e-10 2.5291222368745627e-09 4.164379220478259e-09 8.517568067617368e-09
1.6970876353337382e-08 2.988919222749853e-08 4.4501515414823267e-08 5.419846337721031e-08 5.0604394135397106e-08 2.3329650745034592e-08 -3.068503482012636e-08 -9.188472926385824e-08
-1.2772039832190076e-07 -1.1318244420822053e-07 -7.009847618003417e-08 -5.123475396900573e-08 -7.883103158909395e-08 -3.910810031898317e-08 1.6516356211818395e-07 3.1654640670874746e-07
1.6060507779566828e-07 1.9531729920559112e-07 1.0510370385675985e-06 1.6632967388345088e-06 5.747332014370812e-07 -8.487399543942566e-07 -7.447232676599633e-07 -9.550395696375414e-07
-1.3308867613471304e-06
