tdse-wave-function/tdse-wave-function-main/tdse-wave-function-main-script/07-16-2022/numts-66_dt-.003/v5/thetahat.npy (npy, 1160 bytes, 1 tensors)

array f8 [129]
000000 c5 7f 69 e0 15 41 ff 3f fc 2b c8 d4 2d 72 fe 3f
       1.9533900037858853 1.9028757392686648
000010 8f 05 4a cf 41 4f e4 bf 81 e6 37 ca e6 5f e5 3f
       -0.6346749352089079 0.6679567288949358
000020 51 1b ce 7c 7c 66 f7 bf ed fc 1e 32 d9 00 19 c0
       -1.4625210643004787 -6.250828536168439
000030 f8 e9 3a 2f 84 e2 bf 3f f4 74 e5 3b a6 7d 09 c0
       0.12455011513785752 -3.1863522223853753
000040 b4 e2 d9 fb b9 0f f6 bf 14 39 2f 58 23 4a ad bf
       -1.3788394773420523 -0.05720625354261891
000050 c8 ff 55 b9 bf 39 fd 3f 7d 13 71 e3 ff 58 e1 3f
       1.826598857849591 0.5421142046185278
000060 a8 e2 34 f4 f1 8a c0 bf a1 7c 09 35 cd a8 e9 bf
       -0.12924026893758378 -0.8018556629066503
000070 67 9f 37 5d 24 74 d2 3f 5a a6 13 6c 52 97 d0 3f
       0.2883387480092012 0.25923595957156
000080 98 b5 c1 5a 6f 7d ca 3f a1 65 ef 33 5c f4 e9 bf
       0.20695297175863625 -0.8110791220052996
000090 9f 89 2a 5e 5d 2d b5 3f c4 c5 71 c3 2e a2 dc 3f
       0.08272346066454482 0.44739884458894275
0000a0 19 57 0c de 60 61 d8 3f 23 03 a1 35 69 e6 e5 bf
       0.3809435051383488 -0.6843763396683226
0000b0 7a 9c 3c 92 39 54 ca 3f b1 bd 01 50 a4 3d d8 bf
       0.20569533958880354 -0.3787623196903623
0000c0 26 18 f1 a7 89 2c d3 3f db e2 f6 58 87 8c e8 3f
       0.29959336662830294 0.7671543824754637
0000d0 e8 c6 05 f9 60 76 e5 bf b0 0f 81 8a d4 13 ea bf
       -0.6707005370828627 -0.814920683399114
0000e0 20 45 a9 14 58 d9 f6 3f 90 97 ea e7 ba 32 f6 bf
       1.4280625159338527 -1.387385278628674
0000f0 4a fe 33 08 28 4b fc 3f 69 24 3b 8d e8 28 fa bf
       1.768348724406581 -1.634987403567971
000100 60 2a 25 10 35 64 e3 3f e5 f5 0f 67 00 f2 d0 bf
       0.605982333692122 -0.26477060379678924
000110 0f f5 33 0d 46 bb de 3f b0 5a 30 03 d8 37 d0 3f
       0.4801802758155 0.2534084349767154
000120 52 66 5e 99 55 e1 e9 bf 78 ea 13 5f b0 b8 d4 3f
       -0.8087566371425032 0.32377251896802006
000130 9c 67 b4 37 1c e1 cc bf 4e 04 60 5b 3c 5e e4 3f
       -0.2256198188777575 0.636503389803815
000140 50 30 76 cc fa 1c df bf ad ac 2b 29 9b 3b b5 3f
       -0.4861437794395487 0.08294076686040582
000150 6a 38 a6 bd 82 96 d3 bf 74 7a 3d 13 e7 64 9c 3f
       -0.306061444477456 0.02772866301472239
000160 7d 81 23 35 eb a0 e0 bf a2 b7 2e fb e5 44 e0 3f
       -0.5196434057107094 0.5084104448230742
000170 15 a6 2c 2e 24 5c e1 3f 68 b5 46 a9 0f a5 c9 3f
       0.5424977208942346 0.20034976735534404
000180 c4 5a 56 eb 33 10 f2 bf df 3c 57 ee eb 8d db bf
       -1.128955764089981 -0.4305372073694808
000190 c9 f1 91 f9 df 6f eb 3f af d7 c4 c8 24 93 f6 3f
       0.8574066042343073 1.410923752072886
0001a0 4d 66 43 78 ad 43 c4 bf ef ea 5f f7 79 54 f1 bf
       -0.15831535694342094 -1.0831241286347753
0001b0 e9 f1 10 cc 01 21 e9 bf 44 cd b3 5a d6 05 e5 3f
       -0.7852791772525595 0.6569625636606493
0001c0 3f 82 92 01 7c b9 e4 3f 88 e3 3c 60 45 c6 ce bf
       0.647642138548754 -0.24042575072396866
0001d0 0b 49 22 8e 30 be e8 bf 37 f1 73 ca 70 d9 e3 3f
       -0.7732165123036635 0.6202930406721298
0001e0 ec 8f 33 6a 03 36 f6 3f 0a 46 68 7d 64 0c c5 bf
       1.3881868504040495 -0.16444069026378855
0001f0 7a 69 0d 10 b7 ac 02 c0 06 5d fa 48 1a cb ed bf
       -2.3343335393994353 -0.9310428071356973
000200 be 83 bb 62 d4 d5 f3 3f 6a e4 af 4b 1f fc f0 3f
       1.2397044998872242 1.06155328336015
000210 66 f0 b2 11 d1 39 d7 3f 86 f1 c4 f0 bf 38 eb bf
       0.3629038498727425 -0.8506774618650048
000220 1e a4 cb 26 0a 05 f2 bf 2b 49 9f 30 02 69 e1 3f
       -1.1262303843925632 0.5440684270527404
000230 d7 14 d4 ab ea d9 fb 3f 86 80 b7 8d a3 8f f5 3f
       1.7407023155258707 1.3475680862248125
000240 b3 5a 6d 26 39 55 9b 3f 2f 1c 73 dc d8 2f da bf
       0.026692288370521577 -0.40917035606657043
000250 4e a5 cd 76 bc af c1 bf d3 dd 53 8d ad 53 d8 bf
       -0.13817554284040984 -0.38010729600452214
000260 e3 89 ab 73 af c2 ee bf f2 9d 6c 6a ff 73 d4 bf
       -0.9612653025799854 -0.31957993882176006
000270 d6 2c 60 61 20 b5 f2 3f 50 2d 5b fd d4 cd f0 3f
       1.1692203334558164 1.0502519509053236
000280 3f 8f 3c 70 4a 59 e8 bf f9 f5 9b 25 7c 53 f3 bf
       -0.7608997528190925 -1.2078820675955042
000290 16 33 ce 42 52 a7 e5 3f d1 59 79 66 8d df e9 3f
       0.6766749672693517 0.8085391045995555
0002a0 7b 3a a8 2b 7a 90 f0 bf 55 18 d4 0d e3 3f 97 bf
       -1.0352727609021304 -0.0227046467962498
0002b0 38 71 e5 35 ec 6e f7 3f c6 50 c6 b6 44 b6 f4 bf
       1.464580736667882 -1.2944991244922206
0002c0 35 92 19 d9 cd c9 ec bf 99 fb ac 6c 5e f2 fe 3f
       -0.8996342888099834 1.9341720814843255
0002d0 53 64 d1 d5 ae b7 e2 bf 23 58 4b 95 d2 92 e0 bf
       -0.5849222351199707 -0.5179226795105517
0002e0 e5 3c 8a 44 7b 7d e6 3f 2f e3 30 93 13 0d f3 bf
       0.702817567698642 -1.1906924962660914
0002f0 16 e3 eb 69 7e 3a f4 3f 59 f5 13 41 c7 02 d5 bf
       1.264280713801957 -0.32829457621831676
000300 83 b7 f5 b3 a3 4d c1 bf b6 da d0 a0 29 59 c7 bf
       -0.13518186843014854 -0.18240852691970638
000310 23 bd ca b9 69 7c d2 bf cb 04 8b b0 c5 c7 ea 3f
       -0.2888435663580415 0.8368862579447066
000320 30 c0 a5 91 e4 0e d1 bf 70 0b d9 e1 13 ec ae bf
       -0.2665339872683061 -0.06039487964564827
000330 e9 7c 30 35 38 b7 d7 bf e7 e1 04 3a 1c 1c d4 3f
       -0.3705578345706742 0.31421571412968635
000340 b6 93 96 d5 0e c8 c6 3f 92 c8 cb 53 eb 5c ac 3f
       0.17798028401480587 0.05539641759777782
000350 74 4c d1 71 51 9b b8 bf 9e f4 19 7a 5b b6 ba 3f
       -0.09611996678113305 0.10434505206099451
000360 23 ef e1 d0 7b 9e d9 bf ab 6f 84 e8 d4 35 e1 bf
       -0.4002980747097686 -0.5378212491373139
000370 6f 08 cf 2c ab ec bb 3f 50 57 20 cb 0d 16 ec 3f
       0.10908002704585028 0.8776921241103341
000380 e1 83 02 8e b5 67 cd 3f 48 bf 22 d8 d1 5c ef bf
       0.22972745355676152 -0.9800805303002358
000390 1c 00 3a 7d 23 94 ed bf 75 ad 5c b5 9c 87 e7 3f
       -0.9243333288031894 0.7353042165972697
0003a0 e5 bf 98 53 b8 32 f7 3f fc 01 42 87 c0 85 e0 3f
       1.4498828187461126 0.5163271562342397
0003b0 5f b0 4f 0e 6a 4b ea bf e5 42 32 0b 41 6e e6 bf
       -0.821705844833115 -0.700958749645079
0003c0 5b 87 83 5c bb b8 d4 3f 8c 45 bb af 12 85 e5 3f
       0.3237751391844676 0.6724942619568295
0003d0 22 8b 39 be 98 b7 e1 bf 74 b6 25 c2 4b ab f0 bf
       -0.5536617007568092 -1.0418202957038405
0003e0 a1 e0 b7 92 9c 09 d8 3f 8c aa 4b 42 aa fd ff 3f
       0.37558664634662803 1.9994299497290369
0003f0 91 04 79 d2 fb 76 d0 3f 8a 87 92 67 b5 c8 ff bf
       0.2572621875188555 -1.9865011258884544
000400 9b e9 4b e2 a4 dc f4 bf
       -1.3038681831081707
