tdse-wave-function/tdse-wave-function-main/tdse-wave-function-main-script/dt/v3/trial_nts-117_dt-.0017/thetahat-fourier.npy (npy, 1160 bytes, 1 tensors)

array f8 [129]
0	0x3fa410465a209b45	0.03918666696727383
1	0xbfaba446be4279bd	-0.05398770401483286
2	0xbfd9f4c1d35a8bd9	-0.4055637897492353
3	0x3f9b58820faaf3c5	0.02670481892231515
4	0xbf87b2c8ffa1e8ae	-0.011571474362643688
5	0x3f7b6b4d8ea8cf8f	0.006694128950176194
6	0xbf7218b46763ae15	-0.004418091490360894
7	0x3f69d189e3b0e427	0.003151673617619827
8	0xbf6366cddf8a3c60	-0.002368356796359758
9	0x3f5e4677ab7cc725	0.0018478554392910654
10	0xbf584e21ecbecd0c	-0.0014834719940893274
11	0x3f53f4b1f63a31e9	0.0012180078419162749
12	0xbf50af859e4c686e	-0.0010184101931316708
13	0x3f4c5368557e13b4	0.0008644351428165249
14	0xbf48598b391e14a8	-0.0007430963325850875
15	0x3f4528df0e162a76	0.0006457413802974505
16	0xbf428f73357dc2fc	-0.0005664169830038308
17	0x3f4069f884abcde4	0.0005009139507294283
18	0xbf3d3dc9a0379c69	-0.0004461877108198954
19	0x3f3a36b6a775a6b2	0.00039998969392361216
20	0xbf37a26653fca109	-0.0003606319260023449
21	0x3f356b3680b93460	0.0003268249572315248
22	0xbf338062b079f3cf	-0.00029756936462615747
23	0x3f31d4c6f1d49238	0.0002720819191657539
24	0xbf305df28c6b1605	-0.00024974032968957976
25	0x3f2e2711f7bd6048	0.00023004621823008637
26	0xbf2bdd9305c8c1ea	-0.0002125970812740929
27	0x3f29d4623ecbe3fb	0.00019706439288549857
28	0xbf280255b524a1ca	-0.00018317505107147267
29	0x3f265ff243892083	0.00017070610353387216
30	0xbf24e6eb83d88e89	-0.00015946984233138433
31	0x3f2391feb637d16b	0.00014930948519488048
32	0xbf225c9ad3f6f585	-0.00014008893957210777
33	0x3f21438907a4a79e	0.00013171241500603293
34	0xbf204406995118c9	-0.00012409763863469581
35	0x3f1ebeb7558f4d88	0.00011728281005156914
36	0xbf1d3b796929af2d	-0.00011151245625179154
37	0x3f1c8a4c82ac2b0d	0.00010887233717597426
38	0xbf1c9adb3911e586	-0.00010911906271528744
39	0x3f224c49545f5190	0.00013960261475055554
40	0x3f137ede02dea435	7.436971711051526e-05
41	0x3f2fc65e8ee69062	0.00024242309832545316
42	0x3f11f25af971cf91	6.846122993114783e-05
43	0x3f2d90bcb0e927b8	0.0002255659423602821
44	0xbf066b9667d0a490	-4.276325942271467e-05
45	0x3f173dd64c345eaa	8.865948170854823e-05
46	0x3f0ac59a9ae96d82	5.106332843204509e-05
47	0x3f25580e8a623388	0.00016284158227044773
48	0xbf04c2fc5d9dc52b	-3.9599730100268266e-05
49	0x3f1a2038004dfd83	9.966222576273356e-05
50	0xbefa040684a1156a	-2.4810528238346763e-05
51	0x3ef47745e4809f8a	1.9517812944652313e-05
52	0xbf1ad2e0f937b4c1	-0.00010232446793852474
53	0xbece9e952bf9ca18	-3.6501245118056144e-06
54	0xbf1cf92b3eb21aef	-0.00011052442975954443
55	0x3ef9bf2064330568	2.4553859714120633e-05
56	0xbf12355e5d78640a	-6.94598050973301e-05
57	0xbef1cf058c310c67	-1.698367919923359e-05
58	0xbf1826ed2c738116	-9.21327838230328e-05
59	0x3f001c01bdb6c488	3.072624505352182e-05
60	0xbefdc9c59e4defe6	-2.8408214251637776e-05
61	0x3f0362ba5b58ce21	3.697520461934065e-05
62	0xbf1042130869601a	-6.201974074693286e-05
63	0x3ef58f6858d2b68a	2.0561395605403608e-05
64	0xbef099094436f843	-1.5828893322959952e-05
65	0xbf929612c10fee53	-0.018150609048446075
66	0xbfd173eb8c6f2f1c	-0.2727002021244844
67	0x3f9b94b01a299fe0	0.02693438682254612
68	0xbf8fde94f180c06f	-0.015561259861073233
69	0x3f870bb2ff6639e7	0.011252783221405728
70	0xbf8240862b304131	-0.008912132447250616
71	0x3f7e616796b420f0	0.007417111056618561
72	0xbf7a1752a72a2a63	-0.006369898665648496
73	0x3f76e6cf42267b89	0.005591210940479104
74	0xbf746dac8822f6ca	-0.004987405731467562
75	0x3f727337a039a0cf	0.004504411018935352
76	0xbf70d43a771a163e	-0.004108646755076216
77	0x3f6ef33184e58ec2	0.0037780730410064975
78	0xbf6ca6f64f59f918	-0.003497582506326268
79	0x3f6aad45a2e37f6c	0.0032564506610554458
80	0xbf68f5b0ffa9686e	-0.003046842289490085
81	0x3f6773eb1cb248c9	0.002862891391097387
82	0xbf661e8c8f891ad5	-0.002700113804425678
83	0x3f64ee44aea9ee23	0.0025550214243688237
84	0xbf63dd4bb18926ba	-0.0024248579395916544
85	0x3f62e6ffb6a9fbcd	0.002307414474955283
86	0xbf6207a024bce973	-0.0022009017756349724
87	0x3f613c196bad8418	0.002103852891580004
88	0xbf6081dee8f4b7b0	-0.0020150521956087894
89	0x3f5fad9fc7786e6c	0.001933485063893149
90	0xbf5e7244bf76e86d	-0.0018582984319963872
91	0x3f5d4ea4b15ed02c	0.0017887695625917839
92	0xbf5c4028bc30a2eb	-0.0017242811015966651
93	0x3f5b449592c1e332	0.0016643009830927366
94	0xbf5a5a01ac377f60	-0.0016083732924627378
95	0x3f597ec2d999c5b3	0.0015561011154229087
96	0xbf58b169d75b286c	-0.0015071424108321864
97	0x3f57f0ada3cc9a5b	0.0014611907674379118
98	0xbf573b91580b244c	-0.0014180106519907807
99	0x3f5690f64287562f	0.0013773350602738312
100	0xbf55f140b255e7f9	-0.0013392574122392793
101	0x3f5556789d42f889	0.0013023546098760738
102	0xbf54d4b59b9c0e49	-0.001271416999259938
103	0x3f53dd0196db573f	0.0012123599548678613
104	0xbf538587bf976b14	-0.0011915040653238161
105	0x3f53d431e1196c7c	0.0012102591612322125
106	0xbf53048774a2e8c0	-0.0011607477959345996
107	0x3f529022bb3c6f65	0.0011329974340190338
108	0xbf50c12767de2375	-0.0010226139852156067
109	0x3f529d521dd16832	0.0011361410063473018
110	0xbf5107f428c84942	-0.001039493977377307
111	0x3f4fea2e7eddc0b9	0.0009739615468174124
112	0xbf50ecc620036159	-0.0010330138030011009
113	0x3f4f91974d5e8eb7	0.0009634007244483021
114	0xbf4ffcd7ef72572f	-0.000976186215569474
115	0x3f4fe130ddd52161	0.0009728897672767572
116	0xbf4d9ad5e2921a75	-0.0009034675941997488
117	0x3f4cd1480f441c37	0.0008794404843975927
118	0xbf4e7e96f83bfff1	-0.0009306180149621907
119	0x3f4c42ff39e1c2fb	0.000862478849525144
120	0xbf4c9ac9d7515e69	-0.000872944407670451
121	0x3f4b0d3f9012af37	0.0008255539288674955
122	0xbf4a455876f1c9ab	-0.000801723666781042
123	0x3f4bf9877e81fb24	0.0008537208168631666
124	0xbf4a7ec5f2eeac99	-0.000808569578898316
125	0x3f494bf1930646cd	0.0007719926416475898
126	0xbf4915b7723cec2a	-0.0007655282720188162
127	0x3f49aa290b7957ea	0.0007832241453324927
128	0xbf488d10053ce481	-0.000749237844934872
