tdse-amp-squared/tdse-amp-squared-main/tdse-amp-squared-main-script/tdse-amp-squared-main-script-forward-inverse/07-08-2022/numts-110_dt-1e-2/v3/thetahat.npy (npy, 1160 bytes, 1 tensors)

array f8 [129]
00000000: 7e5d 2ba8 fa46 5abf 3196 acd5 46a4 abbf
00000010: 13c6 8bd2 c1f4 d9bf 8d40 5ae2 8158 9b3f
00000020: 702c 8471 c8b2 87bf ab7a 7762 4c6b 7b3f
00000030: ec4c 6d22 b318 72bf 04fc 183e 87d1 693f
00000040: 0913 06d2 cb66 63bf cb29 aaf2 7346 5e3f
00000050: ef0e 4896 1d4e 58bf a2e9 01ec adf4 533f
00000060: 93e0 8810 81af 50bf 4e2f 5269 5c53 4c3f
00000070: 6c74 3e56 8059 48bf 80ca db83 d528 453f
00000080: 1c8e a59c 648f 42bf 89b1 cf6c e869 403f
00000090: 7c22 9aab ab3d 3dbf c897 887d 9136 3a3f
000000a0: c575 eb43 3ba2 37bf 2b82 c36c 0b6b 353f
000000b0: 4a79 34f7 2d80 33bf a624 ff02 84d4 313f
000000c0: 8661 2484 a35d 30bf 5d13 cbed 5726 2e3f
000000d0: 6339 af29 abdc 2bbf 4605 2e5b 60d3 293f
000000e0: 6dd4 cf8e 7701 28bf 707d 0cb2 3b5f 263f
000000f0: 2414 d5ab 7ae6 24bf bb75 56d8 8a92 233f
00000100: 75e8 ad39 d95d 22bf f58e 377a fb44 213f
00000110: f4cf 92b2 6c45 20bf dc55 99ea d3bb 1e3f
00000120: f287 d3b7 35dd 1cbf 9679 97d5 8061 1b3f
00000130: f22d 470b 522d 19bf d2b5 429e 6b6e 193f
00000140: 893d 8adb 2d13 14bf 6c32 86c8 fe7f 223f
00000150: 3b3c 5697 5d61 de3e 0f71 d36b b380 1e3f
00000160: 663f ccb7 82b1 22bf 76a6 00d5 a4c8 12bf
00000170: 0c27 bcc7 f3f0 2cbf c187 fbf3 7335 0abf
00000180: baf0 1e97 1bcc 14bf 69db 88ac e3b4 2b3f
00000190: 33c6 5b52 74ab 323f 132a 4a60 f505 413f
000001a0: 294e b6ad 6a6d 3b3f 250b 23b1 2d55 3e3f
000001b0: 4637 1c58 5065 363f ec96 d428 61bd 3f3f
000001c0: 95ab 63a8 b0d4 3c3f 4194 84a8 819f 403f
000001d0: 529a 14c2 4a98 343f bd97 abe9 8741 303f
000001e0: 3ce6 1685 7064 023f 93a5 5690 d524 033f
000001f0: 1943 eef8 bf83 11bf 3527 2b33 fe39 e93e
00000200: c978 8401 aab4 0abf 985e f272 1296 92bf
00000210: e9e3 2282 eb73 d1bf f43c 691c af94 9b3f
00000220: 1a33 3306 93de 8fbf 9045 91dc b00b 873f
00000230: 4fa2 6ecd 8340 82bf 6490 993e 6361 7e3f
00000240: 34f8 7b25 4e17 7abf e53e 7007 cae6 763f
00000250: 2513 8295 a76d 74bf 8be2 7bd5 3273 723f
00000260: ab09 f888 34d4 70bf 4fe5 851f 25f3 6e3f
00000270: 5ef7 5278 eba6 6cbf b9a8 5e42 39ad 6a3f
00000280: a84b 3fd9 a2f5 68bf fb4d fb8d dd73 673f
00000290: 60bc 38de 7b1e 66bf e5bb f8a4 30ee 643f
000002a0: 65a0 998c 35dd 63bf c950 81be e7e6 623f
000002b0: d998 0364 8807 62bf c646 55cd fe3b 613f
000002c0: 99ef 5732 c081 60bf 2197 0c0e 5fad 5f3f
000002d0: 1fcd cd6b fe71 5ebf c2cb 99c7 4c4e 5d3f
000002e0: 0a97 1182 ba3f 5cbf 065e 28ab 1244 5b3f
000002f0: 6062 0f4e 5559 5abf 1499 8dc5 cd7d 593f
00000300: b52d 37cb 18b0 58bf fa5e 3903 ceee 573f
00000310: 700a 9ed1 da38 57bf 68c8 0f33 e28c 563f
00000320: e6c4 e7ab 68ed 55bf 4232 a010 0351 553f
00000330: b502 fec6 a6c4 54bf c43d 7fd4 a160 543f
00000340: 5735 d5b1 98f9 53bf e451 4fb9 e3e6 523f
00000350: ca0b fbef 44a1 50bf e8ba ae5c 85cb 593f
00000360: cf7a c417 c591 38bf 4373 19fa 3bba 5c3f
00000370: 442e abf7 2007 48bf 1f55 60e3 7da8 4b3f
00000380: 433e 0336 c4d3 58bf 992f 97ee 6b2e 3e3f
00000390: 020b 24c7 b402 54bf f028 3e88 1900 513f
000003a0: fd27 df72 d2b0 42bf 4649 a3a1 2122 553f
000003b0: 784d 8077 18f8 46bf b2e8 b5cb 6cbb 4a3f
000003c0: e874 b8be f75c 51bf b05d 9210 e1d6 443f
000003d0: 8475 b3ed 7692 50bf 7a08 2740 6278 453f
000003e0: 6827 96c5 b07c 4ebf 6d8d dabe 104e 473f
000003f0: f5d2 8a99 af4c 4abf 6f3a e09a 2ad5 483f
00000400: ee85 9f26 bb9e 48bf
-0.0016038368054774594 -0.053987706740639026 -0.40556378899700113 0.026704816284621336 -0.011571470226519248 0.006694124581797449 -0.004418086761535305 0.0031516686874790718
-0.002368352972725755 0.0018478519729422267 -0.0014834679542454173 0.0012180040794463683 -0.0010184059521077024 0.0008644295909489925 -0.0007430912632916515 0.0006457369379105488
-0.0005664101857231793 0.0005009064567480941 -0.0004461807362550541 0.0003999810410583141 -0.000360621899671756 0.0003268149273605604 -0.0002975570889293301 0.0002720663351252851
-0.00024972192854157864 0.00023002456045708832 -0.0002125700892449774 0.00019703437063970703 -0.0001831491894389888 0.00017068484978553398 -0.00015945670558373357 0.00014932579885577703
-0.00014012600589891384 0.00013175554077726024 -0.0001241393268053278 0.00011723977027008149 -0.00011010780686462865 0.0001044497379534048 -9.604275948687355e-05 9.70128235759573e-05
-7.657973663754125e-05 0.0001411436571853332 7.243236145439717e-06 0.00011635871028964718 -0.0001426193301985415 -7.165437750757974e-05 -0.00022080398400019967 -4.998931990286794e-05
-7.933538816379512e-05 0.00021138457511124122 0.0002848776806408687 0.0005195091367380965 0.0004185090490065069 0.0004628407051649345 0.0003417321350845836 0.0004843103605075411
0.0004399234097848756 0.000507295903876888 0.0003142530932386578 0.000248046571569179 3.508060820984731e-05 3.651406045019757e-05 -6.681307989554428e-05 1.2028949276116435e-05
-5.0937116784265076e-05 -0.01815060450152703 -0.27270019253370364 0.026934372052264302 -0.015561245562275828 0.01125276730650418 -0.008912114817421072 0.007417094873378802
-0.00636988187738834 0.005591191459657562 -0.004987387299597389 0.004504393167501629 -0.004108624663333431 0.0037780499516741127 -0.003497562315344745 0.003256427607046222
-0.0030468159329557105 0.0028628661383238697 -0.002700082711974569 0.002554984100946 -0.0024248166926561948 0.0023073698285235073 -0.0022008575325457133 0.0021038033106969027
-0.0020149949875740256 0.0019334247846897817 -0.001858232935060773 0.0017886876870789469 -0.0017241784446694907 0.0016641790686032789 -0.001608212762439852 0.0015558728684595445
-0.0015068285109574979 0.00146074407975577 -0.0014173638250844188 0.0013763627032372886 -0.0013383409674328438 0.001301053040609138 -0.0012675884899808036 0.0012437420245879774
-0.0012191764029297525 0.0011536811700710798 -0.0010150120942149393 0.0015744020808871554 -0.0003748995002456458 0.0017533860886011644 -0.0007332716916947442 0.0008440603912755229
-0.0015153328059119987 0.00046053061541039827 -0.0012213483246916183 0.0010376214349628286 -0.0005703952390316843 0.0012898758346194402 -0.000700962015800873 0.0008157998303624152
-0.001059762896040534 0.0006359671543973346 -0.0010114823733638765 0.0006552200068699187 -0.0009303916114486834 0.000711210419201453 -0.0008025987072729212 0.0007578332931659891
-0.0007513440916648276
