tdse-wave-function/tdse-wave-function-main/tdse-wave-function-main-script/dt/v6/trial_nts-66_dt-.0030/thetahat-fourier.npy (npy, 1160 bytes, 1 tensors)

array f8 [129]
00000000: 8c4b cd5b 6b78 d1bf d662 9101 90f3 c4bf
00000010: cfea 8c1a 1dc7 bcbf ed62 ba87 8fe2 b6bf
00000020: 2eb5 f206 903b b2bf d4bf 06a9 ae64 aebf
00000030: 927f 35af 8f39 a9bf bd1c 8ac2 4f78 a5bf
00000040: 2581 d998 f82b a2bf f72e 2bd1 8b4f 9fbf
00000050: 66e9 20bb 23cf 9abf 9ecd 4bb1 3f48 97bf
00000060: 3fdb 953d 5c16 94bf 6bb3 ba6c 968b 91bf
00000070: d5db 5a2f 2370 8ebf a85b 262f eab3 8abf
00000080: 9eaa 6ca8 f740 87bf 6546 5566 be78 84bf
00000090: 0817 32d2 67e1 81bf 3852 ba1d f392 7fbf
000000a0: 90b1 315e e9a3 7bbf 3e66 4351 0c77 78bf
000000b0: 1b71 f492 4a74 75bf ea76 47d1 1908 73bf
000000c0: a887 5cba 24b6 70bf e281 2720 6cb5 6dbf
000000d0: 3f04 8a75 ab1c 6abf e8b3 93c8 0c41 67bf
000000e0: e8ee a080 c173 64bf 3528 2868 3b3f 62bf
000000f0: f9b2 504e e70d 60bf 5b8d 5ddd ceb2 5cbf
00000100: bd71 f4e8 9740 59bf 1dba e12b a69c 56bf
00000110: aa0d f411 9ce4 53bf 22c5 0936 f4d8 51bf
00000120: 5a3f 7535 1063 4fbf 1f06 2cbe f837 4cbf
00000130: 4574 0d9d 19d1 48bf a0a3 986e d340 46bf
00000140: f087 994a f07b 43bf 8dd5 f8e9 e9d4 41bf
00000150: d7af eb8a 8868 3fbf e54b dcef 68fc 3bbf
00000160: b1dd ccce 1582 38bf b369 5b5d 8a9b 36bf
00000170: 7b48 a721 47b1 33bf 7d39 749f 07ab 31bf
00000180: f655 86c0 ad3b 2ebf e69e f4aa 93b3 2bbf
00000190: 8b87 0732 8c8a 28bf 5702 8226 a4b1 26bf
000001a0: ceb2 ab7d cdde 23bf 9fe9 ef08 d389 22bf
000001b0: a045 b7df b8bb 1ebf 9d21 2d95 c095 1bbf
000001c0: c7df 4ee2 3021 18bf 8a1a a3ca 2e74 17bf
000001d0: f75f 1875 22fc 13bf c393 f9f5 807f 12bf
000001e0: 3b98 5ff5 8319 0fbf bda2 c8de 653a 0ebf
000001f0: 5b5d 4067 6ffd 09bf ef9f 1886 6c6a 08bf
00000200: 8949 4323 9de5 02bf bc0e 941f 9b96 533d
00000210: 3e9e e53e 6071 a53d eeb5 26f8 c451 87bd
00000220: bec5 ae85 50fd 963d 1dcd f63d 5455 a2bd
00000230: 2888 1563 1b9d b73d 7ff2 3f96 3f5f d33d
00000240: fdb1 45b3 37dd d23d 1915 3183 5425 da3d
00000250: c35f 4a3a 2426 e6bd e0a3 424c b8c3 c9bd
00000260: 3466 e1fe 43cc e8bd 0d79 168f 07df ccbd
00000270: a118 168e 7ee4 c63d fb80 bba9 9495 f0bd
00000280: 96b1 2ae8 d217 babd 43f8 430f 3cb2 d8bd
00000290: 42d8 41dd 5433 cc3d 1247 7740 0f3c c4bd
000002a0: 9c27 a0bc 45b5 e33d 3288 70cc 8406 dcbd
000002b0: 0892 67c6 b1d6 f13d 895b 7089 12f7 cebd
000002c0: a1fc 2033 ffc3 f73d 3f47 b910 7784 f4bd
000002d0: b1ff 8f28 d33e fb3d 18e1 7817 b13e 03be
000002e0: 65d6 1b83 4aa1 043e dda8 0ba1 8e8e 0abe
000002f0: 06b2 03f9 02d1 0f3e 5c4c 6678 27fa 1bbe
00000300: b0cc fa85 bb37 1f3e 28ee 8278 1c77 2ebe
00000310: 372c 9788 9a48 323e 3b20 0324 54ac 43be
00000320: aa3e cf41 8758 493e 7f0b 8400 0d6d 65be
00000330: 51a5 fe04 5b73 86be 07f8 b88a 40db b9be
00000340: 8402 6c4b 3a8f b4be 164d 6cf7 d8d5 c93e
00000350: ef6c cacd 3d9d c73e e0f8 4f5c 0271 aa3e
00000360: 42fb 812c 2266 a8be 6d98 b75b 43fa d1be
00000370: b753 4ae7 a84b ae3e 6eb6 4e50 82b6 d03e
00000380: bc49 74f5 488b c4be d57a dadb cb0a c4be
00000390: eb71 0ec5 ba6f 783e b5c8 6b35 e6db a4be
000003a0: 3076 b451 2adc 9f3e fe29 23c5 7f00 993e
000003b0: ad94 5954 c68b b9be b2d0 95cc 7e68 9dbe
000003c0: 7abe e267 4991 bf3e f6bd be47 33c1 ba3e
000003d0: be22 7d4e 2ccb b33e 55ac c02b 887e 863e
000003e0: 807b ea2b c1a3 c0be 00be 7f8b e44a 863e
000003f0: 8c28 d2bd b73e c73e a2b4 a822 5260 90be
00000400: 8063 f91b cbf9 c5be
-0.2729748150351774 -0.16368293835218733 -0.11241323373989619 -0.08939454139398224 -0.07122135324126042 -0.05936189473447909 -0.04926728261739223 -0.041933529374597246
-0.0354917227348344 -0.030576882020610232 -0.026180799766942008 -0.022736544796271844 -0.019616547831414307 -0.01713404692297919 -0.014862322695405364 -0.013038472713373953
-0.011354384257704905 -0.009995925424536265 -0.008730708219683261 -0.0077085015033345125 -0.006748115151918546 -0.00597290812967227 -0.005237857155659743 -0.004646397447201281
-0.004079955547952631 -0.0036265479877643928 -0.003187498932959914 -0.0028386354139144816 -0.002496602949603733 -0.0022274170198715256 -0.0019597547239044136 -0.0017516155398532216
-0.0015412791725061125 -0.0013801214950280923 -0.001214172756420643 -0.00108932350863384 -0.000957854189360656 -0.0008611645283453407 -0.00075734854372523 -0.0006791145689862728
-0.0005946086213948192 -0.0005441801221823126 -0.0004792531353092744 -0.0004270321077097224 -0.00037396461884805625 -0.00034496429485178086 -0.0003004835758960778 -0.00026959358315616755
-0.00023066040035916974 -0.00021134545884503932 -0.00018723451013530028 -0.00017314080037424365 -0.00015159853395320947 -0.0001414365874266689 -0.00011723819618871542 -0.00010522830897941598
-9.204731811862577e-05 -8.946929543461095e-05 -7.623634635256492e-05 -7.056450476168514e-05 -5.931791262962822e-05 -5.7655557473450834e-05 -4.957195497484287e-05 -4.656928718943509e-05
-3.6043031657623124e-05 2.783665492887765e-13 9.751090530107883e-12 -2.6511101809343453e-12 5.2272093674298805e-12 -8.337027193932713e-12 2.1476534259980142e-11 7.047515831544491e-11
6.862730940650016e-11 9.511794199322178e-11 -1.6115511455276435e-10 -4.686540871745159e-11 -1.804285604952515e-10 -5.2516423402667005e-11 4.16413169230984e-11 -2.4133332288508033e-10
-2.373150158193413e-11 -8.98443574887601e-11 5.1296435551627697e-11 -3.6806537035417364e-11 1.4339526641857416e-10 -1.0195604352958866e-10 2.5958652450205553e-10 -5.6325237165219263e-11
3.458351826517634e-10 -2.985680736704849e-10 3.964728897292707e-10 -5.601000071245738e-10 6.004132800467926e-10 -7.729064628688328e-10 9.259806133921688e-10 -1.6284853202028308e-09
1.8171095946667638e-09 -3.546625163771178e-09 4.2569842177780706e-09 -9.161028491694605e-09 1.1802564309480732e-08 -3.9908997053284036e-08 -1.672700613551781e-07 -1.5411647308473228e-06
-1.225440696195482e-06 3.0798127527237628e-06 2.8150349023599453e-06 7.880163869209711e-07 -7.271456406025936e-07 -4.286191536339879e-06 9.028776291770056e-07 3.984672052687744e-06
-2.4490454212457997e-06 -2.3892132208902465e-06 9.103284638465897e-08 -6.216460900195232e-07 4.74751304673163e-07 3.725580813961211e-07 -1.5226599584747364e-06 -4.3821610214786205e-07
1.8815711935563646e-06 1.5947037175048922e-06 1.1797931680093092e-06 1.675953366098735e-07 -1.983602799640117e-06 1.6609243913512058e-07 2.771018883300735e-06 -2.440251899740231e-07
-2.619714194723418e-06
