tdse-amp-squared/tdse-amp-squared-main/tdse-amp-squared-main-script/tdse-amp-squared-main-script-forward-inverse/v3/thetabestv.npy (npy, 2184 bytes, 1 tensors)

array f8 [257]
0.002120480438037968 -0.055101305841738085 -0.4045478517902251 0.025785583608047155 -0.010750867662668277 0.005969402681781935 -0.003779513807732855 0.0025880666167198054
-0.0018710406518618128 0.0014081805663311326 -0.0010930232852529498 0.0008693653999550158 -0.0007053852266937484 0.0005816918108796925 -0.00048621688443607514 0.0004108730062226925
-0.00035017344431577835 0.00030046647251044705 -0.00025921549735476987 0.00022452304150707368 -0.00019505389947248019 0.00016982714145008393 -0.00014801270895491712 0.00012898679285644043
-0.00011228174909756445 9.750033510210683e-05 -8.42984043976764e-05 7.243235481947267e-05 -6.163753562628372e-05 5.170034499356174e-05 -4.2548420793400964e-05 3.412978158484529e-05
-2.6315171514280932e-05 1.9091436379549013e-05 -1.2453298420381106e-05 6.360645229625995e-06 -9.624693750781135e-07 -3.4935125527745e-06 6.9351346191717505e-06 -9.131040379641045e-06
1.0040607817134604e-05 -9.720806658905252e-06 8.147316998054327e-06 -4.800107167942612e-06 -3.735556665778493e-07 7.627322536065354e-06 -1.6768925378951776e-05 2.8316523694808166e-05
-4.1668951038694555e-05 5.7444462161954785e-05 -7.441514738089523e-05 9.284935593356107e-05 -0.00011210502357574637 0.0001348301476738849 -0.00015679152266984448 0.00018334987184690372
-0.00021415569973798218 0.00025050075353307564 -0.0002841476871508111 0.0003333635915949866 -0.00036950504053784343 0.0004008617417198753 -0.00041357289043564304 0.0003987913960186635
-0.0001865706343333055 -0.0001612623487895714 0.0010868842778607721 -0.003317360810498465 0.008796206920228592 -0.003969136773885439 -0.008921057986231114 -0.005777271778546746
0.005887347951007245 -0.003501481245033206 -0.0005901946416459822 0.003305753615825892 0.006775513224369446 -0.0014420163158320289 0.006963170088932954 0.004596741458902594
-0.002688571770899275 0.001022727361962078 0.00018005447633009483 0.0019953621774046605 0.008038927016874593 -0.0002873674597833224 -0.005500431035131509 -0.006347210029138036
-0.0006302345884495657 -0.0020953536694594665 -0.002471652961250601 -0.006783363814313774 -0.001505336423088425 -0.01027893631155861 -0.007077752047856859 -0.00024661228740933765
0.0039022993141810936 0.004737366863820648 0.008517331484551737 -0.0034661010457318047 -0.0018676445420169967 -0.00030961332706374873 -0.0018425248046729005 0.0052298200968591505
0.00894566897292389 -0.008747993589942282 0.004914069412188469 -0.007117955868773429 0.0017143334736089756 -0.005764303385145642 0.007119161967017717 0.0033632467413584593
-0.0012476591883952947 -0.006187694571580333 0.006464957318355886 -0.0050386669030361465 0.00866946372381605 -0.006564742886209197 0.00775464298283928 -0.002189047994400575
-0.006911375370694238 -0.010080344314732953 0.0012627575439605816 -0.007572267477558994 0.0074797322698895545 -0.0026173835696928368 0.011734825429822841 -0.004363266140837045
0.005658958987357421 -0.01830828920783496 -0.2725047139274545 0.026715182638773045 -0.015331194560562523 0.011020238641164387 -0.00868684120216205 0.0072017971282925895
-0.006166724760911863 0.005401594296277388 -0.004811689070623915 0.004341660870812324 -0.003957992677007204 0.003638428624574953 -0.0033677414046471843 0.003135265440121897
-0.002933345954503021 0.0027560371944365548 -0.0025989109138291554 0.002458583554002771 -0.0023324376294173083 0.002218375559017147 -0.0021147407033809155 0.002020144843148598
-0.001933420281374772 0.0018535620778159965 -0.001779775116648895 0.0017113955283979915 -0.0016477695529160934 0.0015883213248983005 -0.001532632184585271 0.0014802802641457398
-0.0014308606463771967 0.0013841535193818632 -0.0013399754507077291 0.0012981014086175878 -0.0012584542169437525 0.0012209403696015351 -0.0011853674847924793 0.0011516257018965993
-0.0011193854562716295 0.0010881293335509943 -0.001057675069408221 0.001028272151143255 -0.0009998620824386575 0.0009721548083523948 -0.0009448062571443222 0.0009180095428904572
-0.0008917303083428042 0.0008658011663647797 -0.0008395133388983772 0.0008128592325273344 -0.0007853462602553913 0.0007570821271585264 -0.0007260279884266429 0.0006919210079961112
-0.0006532634583899562 0.000609505546593915 -0.0005569422113113429 0.0004984382161756064 -0.0004252664142076989 0.00033716413576025437 -0.00022140017986954115 7.046563098197476e-05
0.00015316660612937213 -0.0004168799012259455 0.0008409647198312813 -0.0012471079689701297 0.0010848127689309598 0.005230644018014918 0.0008633027087237946 0.0035352593315392793
-0.0003983243676976182 -0.0059353499583322065 -0.002544109230965333 0.0034267720346853937 -0.00435495622045975 -0.0012149679739090092 -0.00824157257956083 -0.003367290301834899
-0.0028134531572275184 0.0073454954159968295 -0.008088393017326856 0.007791877858875427 -0.007246341196483075 0.0006856626071587677 0.0032386514137955403 -0.0039041714855036842
0.008433615022162274 -0.001144017348099075 -0.0011469744472055647 0.007483733232414963 0.0006445205554171778 -0.001232164751566023 -0.001806208350381324 -0.002927103531113326
0.00816275974433673 0.0029082949464809315 0.008899060553460039 -0.0003451259618590012 0.0007209889329061732 0.0004114477394287185 -0.005129945372475781 0.00503170266463125
0.0063668529437376775 -0.006156617535030643 0.0021245547599582433 0.009917975027982261 -0.0017923722490562964 -0.0029066262324367776 0.001893872379705851 -0.0005753003594306617
-0.009709326418279294 -0.005310021934742672 0.002953818501633169 0.006725744152639471 0.003165505838548721 0.008037915796546563 0.007417762749027063 -0.002764988317996514
4.295998235772361e-05 -0.0036782159479625378 0.002043233477820762 0.004647247577649724 -0.004895501502912749 -0.008049300964400156 -0.005766610516757068 0.0021815389566750753
00000000: 7004 4344 f85e 613f ec43 1d05 3d36 acbf
00000010: e2c9 46ac 1ce4 d9bf fc26 3839 8967 9a3f
00000020: 2f47 1e08 8d04 86bf 90f1 b754 5f73 783f
00000030: a926 5e06 37f6 6ebf ac5a 51af 9133 653f
00000040: a4df 309a b6a7 5ebf 0d1d ac5e 5612 573f
00000050: d731 e4d0 78e8 51bf b1b1 04fb c37c 4c3f
00000060: f2d4 673d 331d 47bf 0412 eca6 950f 433f
00000070: d3f8 0e9e 5ddd 3fbf d191 e11f 4eed 3a3f
00000080: 5279 c37d eff2 36bf 0736 48ac fdb0 333f
00000090: 97f9 7015 eafc 30bf 1e6b ae3d be6d 2d3f
000000a0: 91ad 063d ec90 29bf d3ff 7809 7442 263f
000000b0: ccee 1b7d 7b66 23bf 607f 261d 14e8 203f
000000c0: 1f13 e1c2 196f 1dbf 3296 a000 238f 193f
000000d0: 6153 5a8f 2b19 16bf dca2 6761 dafc 123f
000000e0: 4aa4 83cc 6c28 10bf 23f7 d753 1a1b 0b3f
000000f0: 8c2e 3f9b c04e 06bf 72df a55d d2e4 013f
00000100: 03e8 11d1 ec97 fbbe 8be7 a484 d104 f43e
00000110: b61f 5b4d d01d eabe 10eb f7d8 b0ad da3e
00000120: 2051 ef44 c625 b0be 781d 37d6 424e cdbe
00000130: 1caa da49 8b16 dd3e 4283 46a2 3026 e3be
00000140: 32a4 6fa1 820e e53e 9a92 7d7e d162 e4be
00000150: 7803 c9b8 0e16 e13e 088a 5369 1322 d4be
00000160: 4056 3332 a311 99be b808 4d74 c6fd df3e
00000170: 060d 08c7 5f95 f1be aa5d f8b0 28b1 fd3e
00000180: 6264 7941 b6d8 05bf 008a c9b0 101e 0e3f
00000190: 80d4 4f7f ea81 13bf 7afe ebc9 0357 183f
000001a0: e485 d0a3 3d63 1dbf 58cd 4826 26ac 213f
000001b0: 75d8 9fec 0c8d 24bf 9a04 1868 3308 283f
000001c0: d267 0874 df11 2cbf 68b9 468b b46a 303f
000001d0: 4c29 0706 359f 32bf 2661 3cb9 e9d8 353f
000001e0: 07dc 9710 4437 38bf 7fcb 2612 5845 3a3f
000001f0: 0488 f709 9a1a 3bbf 68c3 fa00 9c22 3a3f
00000200: 0eb8 b38b 4574 28bf 5ab3 3b07 1123 25bf
00000210: 7f82 631b b9ce 513f bf7c 1586 022d 6bbf
00000220: a2eb 68e8 be03 823f ffec 310a f141 70bf
00000230: 8466 5f22 3445 82bf 3559 9595 e8a9 77bf
00000240: af54 8eee 541d 783f a750 eb6d 23af 6cbf
00000250: 4507 9257 e956 43bf 5038 65f5 aa14 6b3f
00000260: 1b82 65fb a3c0 7b3f 34cd ac3a 41a0 57bf
00000270: d66b efbc 6985 7c3f 3c18 bf63 08d4 723f
00000280: 9ed9 86fa 5706 66bf 1968 a124 a1c1 503f
00000290: 5b53 b72c a099 273f 9fc9 75e9 9358 603f
000002a0: 842b 0f85 b676 803f 3ae9 79d7 39d5 32bf
000002b0: 6083 8eb6 9e87 76bf 5694 ef37 88ff 79bf
000002c0: b20b 1d79 caa6 44bf 1cf6 7b6f 462a 61bf
000002d0: c81a 5794 6e3f 64bf 055e d45b dfc8 7bbf
000002e0: 11a1 39ad d6a9 58bf 35d2 5d7a 1f0d 85bf
000002f0: ea24 3299 8ffd 7cbf dc1a 8fb5 7729 30bf
00000300: 3b24 e0fd b6f7 6f3f 01fc fc3b 7d67 733f
00000310: 1919 67e1 8871 813f 7c84 5ad4 f064 6cbf
00000320: 2601 a00e 7899 5ebf d093 381d 734a 34bf
00000330: 1507 cdf1 1b30 5ebf 9ac5 7a24 dd6b 753f
00000340: ebb7 6f5d 1b52 823f c6cf fed2 77ea 81bf
00000350: be64 a676 c620 743f a667 bbba b727 7dbf
00000360: 9a98 078d 6f16 5c3f 67f0 5f68 4f9c 77bf
00000370: 331b 2c7d fb28 7d3f fc81 6658 3d8d 6b3f
00000380: b319 49da 0f71 54bf a143 299d 4458 79bf
00000390: bbb9 09c4 ff7a 7a3f a40d 06d9 6ca3 74bf
000003a0: ff57 57b9 4bc1 813f dbf2 0bc0 a1e3 7abf
000003b0: 3722 0e20 55c3 7f3f 1f4d 7331 c4ee 61bf
000003c0: 320c 0033 1a4f 7cbf d046 50e9 00a5 84bf
000003d0: a260 a996 63b0 543f 694c c312 1904 7fbf
000003e0: ac51 b657 11a3 7e3f a344 a71a 0d71 65bf
000003f0: fc17 909b 6d08 883f 05e8 0e56 37df 71bf
00000400: cd4f 7b3c d92d 773f 33cd 927d 68bf 92bf
00000410: 8fc0 949c b770 d1bf 42f6 f58e 395b 9b3f
00000420: fa46 f819 f665 8fbf f09c 7664 c791 863f
00000430: d75d f316 68ca 81bf 6a10 37b2 a17f 7d3f
00000440: 14ab be92 4742 79bf 7191 946d fb1f 763f
00000450: 8d4c 26f3 6bb5 73bf 7217 35b7 8fc8 713f
00000460: cc58 b091 4136 70bf cfb3 717e 56ce 6d3f
00000470: 8012 3866 aa96 6bbf 2481 f2d0 20af 693f
00000480: 1d81 281e ac07 68bf 64b7 bb33 d493 663f
00000490: 33e4 29ac 4f4a 65bf 3884 affe 0524 643f
000004a0: 6d69 d3ea 791b 63bf e13a 3d4f 452c 623f
000004b0: 0627 23c5 ee52 61bf e9ac 1a01 8d8c 603f
000004c0: eef7 2f38 5aad 5fbf d140 5720 675e 5e3f
000004d0: fa3c e5fa ea28 5dbf e9a2 ccf4 1c0a 5c3f
000004e0: 78e5 d415 3fff 5abf 65b2 5709 e705 5a3f
000004f0: 0689 0347 531c 59bf 9dea b2d4 be40 583f
00000500: cdcd 9aeb 7671 57bf e1fe 4b86 8fad 563f
00000510: c433 3faf 43f4 55bf 23ad 33c6 a144 553f
00000520: da6a 23ed 569e 54bf 47ac 4cbd fe00 543f
00000530: 0ce2 2da5 ca6b 53bf 3e2f 85ae 44de 523f
00000540: 7493 48fb 0a57 52bf a8dc b0f9 f1d3 513f
00000550: b647 4ef5 3554 51bf e3d0 acd0 e2d8 503f
00000560: 8112 74bc b961 50bf 4012 e48d 06db 4f3f
00000570: dce3 dcfc 9bf5 4ebf 2ea0 687b d214 4e3f
00000580: 0b7d 6e41 6038 4dbf e74a e1d8 dd5e 4c3f
00000590: 575a e52a 5982 4bbf 2a56 f4e8 c1a2 4a3f
000005a0: f197 7d40 f6bb 49bf 0400 ff7c ddce 483f
000005b0: 3dd6 ae3b 5dca 47bf d6a8 e50c 41ac 463f
000005c0: 251e 4098 f867 45bf d944 d631 e7f8 433f
000005d0: 5005 ab4a f83f 42bf 68dd 34eb 3355 403f
000005e0: adef 5257 c9de 3bbf 3bc9 bcef ac18 363f
000005f0: 3e07 5110 f504 2dbf 4c36 7e52 de78 123f
00000600: 013b da20 6b13 243f adb6 c88a 1552 3bbf
00000610: 237f 00fc 858e 4b3f 9c62 3efc bf6e 54bf
00000620: e890 59d7 08c6 513f b307 e94f ba6c 753f
00000630: 5f23 4473 e849 4c3f bc64 c7e6 f9f5 6c3f
00000640: 4ff9 e821 c61a 3abf 6ab2 615f aa4f 78bf
00000650: a0ea 383e 62d7 64bf 8df9 3b3a 7612 6c3f
00000660: 5b9d ada8 80d6 71bf cd0e aced f1e7 53bf
00000670: 8718 9325 f5e0 80bf dfdf 1e37 b895 6bbf
00000680: 6564 9229 3d0c 67bf 029f 5a69 4f16 7e3f
00000690: ad95 e4bb a590 80bf cbb3 4049 60ea 7f3f
000006a0: a7d8 45e7 56ae 7dbf dfb0 a63c c177 463f
000006b0: 0d01 f9bc f187 6a3f d191 241b a4fb 6fbf
000006c0: 1e6e a8a5 a445 813f 8231 2746 5bbe 52bf
000006d0: d9b9 5d6f c2ca 52bf 3a6c c357 43a7 7e3f
000006e0: 6bcb 825a a11e 453f 34af ebd3 1230 54bf
000006f0: 3c8b db72 c997 5dbf ad39 05be 94fa 67bf
00000700: e41e 2d11 a3b7 803f 0a0e d5f5 22d3 673f
00000710: 0e7f 56b0 ab39 823f 4f81 1cb8 409e 36bf
00000720: f233 9df1 17a0 473f c159 b995 f2f6 3a3f
00000730: ed48 ae39 2303 75bf 6e60 3466 1f9c 743f
00000740: c0ab bf12 2114 7a3f aa92 786f ae37 79bf
00000750: 5178 cda6 8367 613f 6611 1a13 e04f 843f
00000760: 9efc 480c c15d 5dbf 2937 8513 a3cf 67bf
00000770: 2eaa c0fb 7907 5f3f 5330 541d f8d9 42bf
00000780: 922a 76bb 7be2 83bf 42ec cf28 f6bf 75bf
00000790: 6f56 9c3b 9b32 683f 6a60 d432 748c 7b3f
000007a0: 4cde a801 8cee 693f 4319 cbcb 2e76 803f
000007b0: 0739 aa86 1662 7e3f c0a9 c9cc 99a6 66bf
000007c0: 270b 0dc1 fd85 063f 9a30 8826 c721 6ebf
000007d0: 0301 e49e f8bc 603f bd79 cc05 fe08 733f
000007e0: 8ff5 a32d 4e0d 74bf c29c 2ee3 267c 80bf
000007f0: ea79 40b9 ba9e 77bf 2ef0 29cf 04df 613f
