tdse-amp-squared/tdse-amp-squared-main/tdse-amp-squared-main-script/tdse-amp-squared-main-script-forward-inverse/v3/thetabestprop.npy (npy, 1160 bytes, 1 tensors)

array f8 [129]
000000 f7 3d dd 5d 11 ab 49 3f 03 29 75 66 b0 a5 ab bf
       0.0007833323286181017 -0.0539984822340376
000010 b4 93 a4 5b 9e f4 d9 bf b8 c5 3e ee 51 56 9b 3f
       -0.40555533360957985 0.026696472326596526
000020 c2 24 f7 4d 79 ae 87 bf 2b 5b 26 9a a9 63 7b 3f
       -0.01156325120145352 0.006686842449559897
000030 96 a3 6f 1b 00 12 72 bf a2 53 29 2b f7 c4 69 3f
       -0.0044116977869429665 0.003145678282900425
000040 24 56 00 aa 1a 5b 63 bf 8b 62 33 a8 24 31 5e 3f
       -0.0023627777845927223 0.0018427713373993261
000050 be ac 82 b1 71 3a 58 bf 87 e0 e0 df 6d e2 53 3f
       -0.0014787779128180713 0.0012136528962525554
000060 48 05 b9 6b b8 9e 50 bf f0 49 8b 20 51 34 4c 3f
       -0.0010144043907448098 0.00086072884831828
000070 b4 4b 85 3a b7 3c 48 bf ba 38 12 d4 46 0e 45 3f
       -0.0007396597548371326 0.0006425710527240482
000080 f7 86 c6 f7 ec 76 42 bf 88 ed d1 bf 58 53 40 3f
       -0.0005634934491818001 0.0004982169481446011
000090 b6 96 3d 80 41 14 3d bf 99 64 1b ab e3 10 3a 3f
       -0.0004437122263339742 0.000397735198118429
0000a0 67 3a 9d 05 fd 7f 37 bf 0f d2 16 af ed 4b 35 3f
       -0.0003585808495828791 0.0003249602587758479
0000b0 4c 37 16 c0 3a 64 33 bf 8a e4 0c af e4 bb 31 3f
       -0.0002958911355442808 0.0002705987272296281
0000c0 38 e2 f6 89 64 48 30 bf 77 53 80 44 63 03 2e 3f
       -0.00024845556796607464 0.00022898279917229664
0000d0 bc dc 97 f1 df c2 2b bf ef c7 8e 48 e1 c3 29 3f
       -0.0002118013733676034 0.0001965725425897009
0000e0 78 31 fd 32 05 fd 27 bf fe 06 33 4f 2c 68 26 3f
       -0.00018301666704657513 0.00017095127950566413
0000f0 ef d8 65 d4 5e ff 24 bf db 6e aa 57 83 bc 23 3f
       -0.00016019852246146974 0.00015057662297556545
000100 4a e8 bd f4 64 97 22 bf 35 cf 5a dc 5b 83 21 3f
       -0.00014184100507092157 0.00013361450526405144
000110 b9 04 f7 76 9b 4b 20 bf 18 4e 3a 48 0d 53 1d 3f
       -0.00012432358515294064 0.00011186379020449615
000120 8e 2a ac 8f 0c cd 15 bf 98 97 37 86 64 88 08 3f
       -8.316411178214465e-05 4.679257179045145e-05
000130 6a 26 61 26 53 00 14 3f 6e b5 8c 05 ae 9a 42 3f
       7.629878527484207e-05 0.0005677556719995544
000140 aa 2c f9 82 19 a1 3b 3f 53 db aa 6b a4 f3 38 3f
       0.000421589592381986 0.0003807331483289173
000150 4e 4a ca 54 8d c6 2d 3f cb d5 dc b3 94 97 3d 3f
       0.00022716975435750842 0.00045153980669296036
000160 74 c0 80 a5 94 d8 41 3f 30 2f b9 2f 4f ed 4c 3f
       0.0005446172535865782 0.0008827816631735482
000170 15 56 12 ed 78 07 4f 3f 1b 1f ac 01 44 d2 51 3f
       0.000946935697487108 0.0010877288938803745
000180 ec 9e 46 ad a7 e1 4e 3f 1f e6 59 27 72 cf 4d 3f
       0.0009424275145208639 0.0009097392455281217
000190 65 25 95 df 32 60 45 3f d5 73 c3 fb 22 f3 41 3f
       0.000652336922180624 0.0005477829759247219
0001a0 cd 19 fe 71 b0 e8 29 3f cc f2 09 1d 3c e5 2c 3f
       0.00019766954300966117 0.00022045477682643697
0001b0 d1 a9 f4 27 13 d5 d1 3e 31 69 d7 60 87 15 c5 3e
       4.251557242521872e-06 2.5134202192692274e-06
0001c0 27 0d da 29 a2 09 24 bf 19 12 0f 48 06 24 2e bf
       -0.00015287498984060366 -0.0002299554508039682
0001d0 eb 2a 17 62 76 a9 df 3e e4 b7 b5 e9 8f 79 3a 3f
       7.548800142707515e-06 0.00040397418498272345
0001e0 65 fa dd 1c bd d6 2d 3f f7 66 73 f7 03 9d 2e 3f
       0.00022765215402028023 0.0002335612623259248
0001f0 9b 9e 74 d3 f1 4e 35 bf d2 05 88 f0 5a 56 42 bf
       -0.000325140037107799 -0.0005596107521911814
000200 17 ce e3 98 7a d9 4e bf 6c 8f 43 57 f9 96 92 bf
       -0.0009414528483646126 -0.018154045058408938
000210 4c 2a 4f 22 d7 73 d1 bf b8 d6 c6 3b e9 92 9b 3f
       -0.2726953349162258 0.026927608750802107
000220 86 f8 f9 8b 05 da 8f bf 59 6e 58 c2 89 06 87 3f
       -0.015552562078706932 0.011242939227535208
000230 a4 d4 de 44 3a 3b 82 bf e8 2b 6a bf f9 56 7e 3f
       -0.00890203020740394 0.007407165123946215
000240 de 4c 6e 90 4f 0d 7a bf a9 10 40 8f 70 dd 76 3f
       -0.006360350415792497 0.005582275091004765
000250 27 cc d4 80 20 65 74 bf 71 2c 97 b0 8e 6b 72 3f
       -0.004979254689987867 0.004497105962808155
000260 bd 26 02 9d 70 cd 70 bf 94 1a 85 b5 4a e7 6e 3f
       -0.004102172752149688 0.0037723979150173313
000270 e1 4b cd 05 a7 9c 6c bf 09 df 5a 67 6e a4 6a 3f
       -0.003492666450634272 0.003252235061918078
000280 91 9b 6d b6 36 ee 68 bf 01 c0 03 1a b7 6d 67 3f
       -0.0030432766538299257 0.0028599334910879297
000290 b2 c0 26 02 88 19 66 bf b4 d3 35 55 63 ea 64 3f
       -0.002697721139348707 0.0025531711668755567
0002a0 68 32 89 52 8c da 63 bf 6e e0 9b 32 66 e5 62 3f
       -0.0024235478088370684 0.0023066516922618996
0002b0 a8 c0 82 da 32 07 62 bf 0a 31 5b 71 ef 3c 61 3f
       -0.0022006982072398547 0.002104251538957884
0002c0 0e 77 0c f1 25 84 60 bf 0b 66 bf f3 71 b5 5f 3f
       -0.0020161381766133973 0.0019353497327671023
0002d0 3b fd c7 d5 dc 7d 5e bf f6 93 56 ff dc 5e 5d 3f
       -0.0018610626785856138 0.001792636697566905
0002e0 7f 05 4a d5 3d 56 5c bf 67 f0 8b 3c 25 62 5b 3f
       -0.0017295459594211802 0.0016713489187045961
0002f0 4b 57 c5 29 80 81 5a bf e5 1f 76 22 0f b4 59 3f
       -0.0016177894204551675 0.0015688083456968313
000300 6a a2 95 7f fc f9 58 bf e0 05 58 02 04 53 58 3f
       -0.0015244451336348338 0.001484636225882567
000310 73 fa 65 99 24 be 57 bf 33 40 f0 cc 96 2b 57 3f
       -0.0014491422094519396 0.001414201036599405
000320 6f 68 37 1c 01 4c 56 bf 45 37 d9 8c 9d f7 53 3f
       -0.0013608942834850942 0.0012187040878361571
000330 ba 92 4c 4e e1 fd 4d bf 23 25 e5 3e 2b f1 57 3f
       -0.0009152746320962503 0.0014613077469952183
000340 e8 01 5a 80 bb bb 48 bf 85 5d 3e f0 89 21 58 3f
       -0.0007548013242769077 0.001472840028304252
000350 1f 5e cd 9b f3 27 44 bf 5d b1 bc 6c 1c 49 59 3f
       -0.0006151141638878788 0.0015433099351397008
000360 4c be 7a 04 34 d3 43 bf 5a 26 c6 ac 00 7c 5b 3f
       -0.0006050113670052564 0.0016775137511068267
000370 81 92 18 c9 cb c9 37 bf b8 21 b6 50 d3 7b 5d 3f
       -0.0003629801295537486 0.001799541819169288
000380 86 f2 98 82 63 af 36 bf 60 3f 65 ee 51 68 58 3f
       -0.0003461473412221045 0.0014897155866328768
000390 04 99 ad 39 6b a6 4a bf c9 18 27 02 bc 7a 48 3f
       -0.0008132957039890536 0.0007470529565629876
0003a0 a8 fb b5 29 c9 1a 57 bf e9 a4 2d 0b 53 10 2e 3f
       -0.0014101948243874039 0.00022936834065071597
0003b0 8f 4b c4 50 fa cf 5a bf 13 74 5f ab fe 62 24 3f
       -0.0016364998328455037 0.0001555381656420945
0003c0 7c 11 4f 9b 36 3d 53 bf fd 49 3a 2b c6 55 4b 3f
       -0.0011742623585045677 0.0008341996785524161
0003d0 c6 68 5c 01 fa 28 47 bf 49 89 9e c7 10 1e 49 3f
       -0.000706789086254455 0.0007665235454974796
0003e0 92 c2 ef 40 2e e2 51 bf 45 08 3a 28 9b 48 36 3f
       -0.0010915233322032242 0.0003400210191345547
0003f0 8f a0 53 31 b1 33 54 bf c1 ae 49 0d 0b ff 32 3f
       -0.001233027496079262 0.0002898599607650092
000400 bc c8 aa 52 90 84 50 bf
       -0.0010081681636334014
