tdse-amp-squared/tdse-amp-squared-main/tdse-amp-squared-main-script/tdse-amp-squared-main-script-forward-inverse/07-08-2022/numts-80_dt-1e-2/v1/thetahat.npy (npy, 1160 bytes, 1 tensors)

array f8 [129]
00000000: 7db4 4631 8f86 833f 1a95 ec1c cf3e 2c40
00000010: bd2d 30c8 71b3 2ec0 64bd 1b31 fb2d 2d40
00000020: 0b27 53ac 9cf1 23c0 4c2a bc2f d8f4 1040
00000030: 023e c03c 58c7 f13f 9e34 275e 9d69 14c0
00000040: 4c21 f8c6 6799 1c40 0659 70b0 2234 1cc0
00000050: ec3e 1854 0de3 1340 67b0 2c34 6c58 f6bf
00000060: fa7a 4df4 e2c9 07c0 939a c4d7 bc60 1d40
00000070: 63d4 7dfc faec 25c0 42f8 1374 6679 2a40
00000080: 22e4 c07f e3a6 2bc0 dfbe e7ae e45c 2940
00000090: 65c6 5460 ff13 24c0 2ee0 695a d675 1940
000000a0: 0ffa c53f b21a 02c0 8af0 6aee da12 fabf
000000b0: b124 ca62 8f03 1340 6696 4286 8cd9 1ac0
000000c0: f5f6 02d8 c751 1d40 4b0c f4c3 3ea4 1ac0
000000d0: 15a7 8652 9bd9 1340 c7b2 e710 be21 05c0
000000e0: 2c9d adc6 9dfc c53f 29cb 5273 23da ff3f
000000f0: bd82 99f2 701c 0cc0 f1d1 eae5 4bd6 1040
00000100: ba39 34ef 7e1f 10c0 2655 669a 2980 0840
00000110: ee8b 379f 312d f9bf f378 03fc f474 c2bf
00000120: 5952 319c bb8c fd3f 25fa fc4a e68d 08c0
00000130: 8d92 e870 5604 0c40 f0bb 04cf 8b5c 10c0
00000140: 8b49 c7f2 6ea8 0b40 f46c 4566 e67c 0ac0
00000150: ead4 cf56 9a47 0440 869d f8e9 aad1 01c0
00000160: b5ae 603d c4dc 0040 ebe1 4be5 9089 02c0
00000170: 2c45 4fa2 78c8 0440 e28d f0da c75a 0ac0
00000180: 4f60 e52c 0c98 0c40 306c 8cbf bfc9 0dc0
00000190: 8f0d 03c0 68b9 0f40 5dcc ab6f 538b 07c0
000001a0: f500 d1d2 f78e 0940 05f5 4ac0 0b2e f4bf
000001b0: bf10 d389 5f97 fb3f 701c 56b3 7d68 88bf
000001c0: 9365 6ef9 f7b5 ed3f f039 106c 038a c2bf
000001d0: 14bb 7019 6b66 f23f 3825 dd23 7dac fcbf
000001e0: bc34 c74e 785d 0440 afb0 dcfb 52ce 09c0
000001f0: f7e8 0f03 bc99 fe3f c857 2d1a d77c d6bf
00000200: 40a3 0f4c 41ec 1bc0 9d4f f73f 61c9 913f
00000210: ec1c 5cbe 8ca7 9ebf 882f b0bf 9c0a a33f
00000220: a2d2 10ec 8caf 9fbf 6274 6af2 2e51 5ebf
00000230: 5974 c9cd b0f9 b23f 53a6 cad9 f8c0 c9bf
00000240: f240 9a81 c42b d93f 2663 e3b3 cff1 e4bf
00000250: 99bd 6c16 224d ef3f ab1c f116 3489 f5bf
00000260: 7822 90b7 eea9 fb3f 6e57 3083 52b6 00c0
00000270: 4b9a b25a 9414 0340 0aa6 a8e8 d6a0 04c0
00000280: 6241 3a5f bb1b 0540 1874 51e3 f668 04c0
00000290: a075 eae2 0e8b 0240 188d dd77 1269 ffbf
000002a0: 2f80 5a65 d666 f83f 3893 9d24 71f4 f0bf
000002b0: 3663 afcc 37f5 e33f ab8f d196 1aa2 d1bf
000002c0: 56b9 f7e5 608a ae3f 8c5f 92a7 536e 74bf
000002d0: 02b4 a3be b2df bd3f 2451 bf08 f631 d8bf
000002e0: f54d 1ace 9dfe e73f ff99 b2a4 a7d7 f2bf
000002f0: 830a 9a78 b69d f93f 72a6 663f 8f57 ffbf
00000300: 2745 1d3f c099 0140 7298 82a2 374d 02c0
00000310: 0488 9b94 a89f 0140 2142 f7be c613 ffbf
00000320: d9c5 ef21 7861 f83f f70c a82c e6b5 f0bf
00000330: 0149 a2ee 6e3e de3f 5d8a 106a 6d94 813f
00000340: fa2c a00b 7f35 e0bf 7878 634d 2b01 eb3f
00000350: f4ec c305 67fd eebf 8b73 0ff1 cfa8 f23f
00000360: 491f 8dd3 4a2b eabf 0974 e476 3d7d e83f
00000370: a684 5120 2380 d8bf d202 31ca 6caf d5bf
00000380: 827c 99a7 9ecb 8dbf 85c7 46af a723 fbbf
00000390: 3043 ec28 d398 c43f 0863 abd0 e9f9 04c0
000003a0: 48af 6f73 588d c13f 1b53 87c1 3914 05c0
000003b0: 37fa 8e1a 9f11 9bbf 3ecc 1f6f 3c17 fbbf
000003c0: 4d52 d8ba e5e9 d8bf 0e61 0ea8 4282 d4bf
000003d0: 0afd 5459 00a9 efbf 814b b516 3d11 ea3f
000003e0: 2f81 2134 71ae f7bf 4297 245c 9679 f63f
000003f0: 60de 766d 5548 f7bf 6357 1064 186d f03f
00000400: c3e5 136d 36ab dfbf
0.009533995333948159 14.122673896674815 -15.350477462655244 14.58980706657048 -9.971898446226552 4.239105935916609 1.1111681340297541 -5.103139372961918
7.1498099411913465 -7.050913578850901 4.971730531673284 -1.396587566191579 -2.973577412237657 7.344470378279442 -10.962852373466552 13.23710978263637
-13.825954429909022 12.681432214535958 -10.039057741497524 6.365075504982128 -2.263035295705101 -1.6296033204262437 4.7534766612890715 -6.71245012074869
7.329863906079244 -6.660395681162366 4.962506570309206 -2.6414758034428334 0.1717717380626963 1.990756464464264 -3.5138873055551287 4.209273903329163
-4.030757653772918 3.062579351661628 -1.5735336512959708 -0.14419424348211116 1.8468586064601793 -3.0692869051411145 3.5021179982161983 -4.090377077735852
3.457242867190137 -3.3109863271653186 2.534962347238083 -2.2273767737385155 2.1077961726312773 -2.317170897844553 2.5978863411370607 -3.2943265061055493
3.574241972684866 -3.723510261986597 3.96553182610814 -2.943030235700958 3.1948086233170394 -1.2612416755139872 1.7244563468712355 -0.011918050799762464
0.9284629699424606 -0.14483683373005318 1.1500044816745616 -1.7921115303928001 2.5456396250288815 -3.2257442166065498 1.9125328178038765 -0.35136964374885027
-6.98071783872075 0.017369765786341074 -0.029936026686326153 0.037190340423051416 -0.030943109424884548 -0.0018504103151493413 0.0741224768075467 -0.2012015403209256
0.3932963624620377 -0.6545179856721901 0.9781656682952643 -1.3459969421544808 1.7289874239378644 -2.0890245675208723 2.385048588347933 -2.5785349060504403
2.638540977444948 -2.551252151416076 2.317899487285743 -1.9631523782962343 1.5251068076249898 -1.0596782141012238 0.6236838338619239 -0.27551903465632205
0.059649494240022236 -0.004988028312389658 0.11669461397441697 -0.3780493817732966 0.7498311067051292 -1.1776501115324434 1.6010040961270142 -1.9588768459892916
2.2000737124259504 -2.2877037712196904 2.2029582605327978 -1.9423282107928872 1.5237962079667027 -1.0444089645760053 0.47256062797636395 0.008583884047827778
-0.50653030653612 0.843892718457723 -0.968432914028567 1.1662139336033046 -0.8177847034321327 0.7652880975834943 -0.3828208747491523 -0.3388320898557541
-0.014548530091984316 -1.6962048384416175 0.1609138440913056 -2.622027998190223 0.13712602268730678 -2.6348757857725906 -0.026434408184053928 -1.6931728688039267
-0.3892759632738361 -0.32045046245322417 -0.9893800492062905 0.814604324676438 -1.4800884281504059 1.4046844100316354 -1.4551595951033036 1.0266345890754216
-0.4948249879085688
