tdse-amp-squared/tdse-amp-squared-main/tdse-amp-squared-main-script/tdse-amp-squared-main-script-forward-inverse/07-08-2022/numts-80_dt-1e-5/v4/thetahat.npy (npy, 1160 bytes, 1 tensors)

array f8 [129]
0	0x3f83868f3146d816	0.009533995333963968
1	0xbf636ac9fc9894fb	-0.0023702569058224854
2	0x3f81681fc2dfadcf	0.008499382147383465
3	0xbf730ac46100901c	-0.004648940186630337
4	0xbf6d3578de7313da	-0.0035655365678359642
5	0xbf802cda209074bf	-0.007898048514159204
6	0xbf78d1bcc421e3c2	-0.006059396140806807
7	0xbf743e57cd34ee18	-0.004942267394024501
8	0x3f8191250f586280	0.00857762291984554
9	0xbf70d52032167d67	-0.004109502567558244
10	0x3f295eb10a938c28	0.00019355689190722722
11	0x3f768b50c2d5b4b9	0.005503955338423677
12	0x3f8db4b9083789f0	0.014504857600461357
13	0x3f81ed5ba01012d7	0.008753505537251112
14	0xbf90f38153aa5ec6	-0.016553898555314438
15	0xbf8bc1df400f5f04	-0.013553375379998574
16	0x3fa296ffd455c9ad	0.03630828349095636
17	0x3f960dbc221e5f1f	0.021536769468723734
18	0xbfae47169e0a032d	-0.05913611106098524
19	0xbf884bc5ef5ba020	-0.011863275878070623
20	0x3fb31de625fe841e	0.07467497279732568
21	0xbf7f37e21defe51b	-0.0076216538136517865
22	0xbfb6d87453e52dbc	-0.08924033210967414
23	0x3fad80123a84f3ef	0.05761773075435161
24	0x3fa51e9f76130123	0.04124925915084734
25	0xbfb21f30e4dca574	-0.07078843676995011
26	0x3f78fd8650b6f317	0.0061011549655034724
27	0x3faa82801a75c665	0.05177688906668435
28	0xbf9951cc2695f9e6	-0.024726095061390917
29	0x3f8105c4708def54	0.008311781582726198
30	0x3f85ab9f64a851f0	0.01058125043804467
31	0xbf96deef74177390	-0.02233480592791498
32	0x3f81fe45d6f98f7d	0.008785768149387025
33	0x3f7e23cbce29defa	0.0073583565850794345
34	0xbf8b221f96dde64c	-0.013248678962315762
35	0x3f848e13ae9ce861	0.01003661514879556
36	0xbf7703242916e76a	-0.005618230106330427
37	0x3f81d177b42ac570	0.008700308976900856
38	0xbf80eeed2bf29377	-0.008268216041253258
39	0xbf40a91a6372c7de	-0.0005084399080230691
40	0x3f7a7aeb08827140	0.006464880083651814
41	0xbf7259f61d900f35	-0.0044803251157679485
42	0x3f7f736f0a35b65d	0.007678445577182194
43	0x3f8381c8e7429bc5	0.00952488857030954
44	0x3f7ae8b9b8555668	0.006569600552514744
45	0xbf4e8b4a54c7be5b	-0.0009321320481471927
46	0xbf63b2ae58cee670	-0.0024045376980808483
47	0xbf4060152ab39de5	-0.0004997351983577174
48	0xbf80ea2ebc4c927f	-0.008259167787010966
49	0xbf760a2d983c3c4f	-0.005380800346542604
50	0x3f4b9d5f867732c8	0.0008427349502483023
51	0x3f72b0a5a0927992	0.004562994939219316
52	0xbf522d3ff7383c45	-0.00110942122126169
53	0xbf6ed17fcafc583e	-0.003762006373913911
54	0x3f82729e9901ca51	0.009007681888964532
55	0x3f73ec66554b83f2	0.004864120234487667
56	0xbf40fe0ccef03295	-0.0005185663738998698
57	0xbf4955ca665a5434	-0.0007731664924955973
58	0x3f74000e729ad341	0.004882866321783309
59	0x3f7d163993dc49d3	0.007101273453161433
60	0xbf70c9cc42c8b6e6	-0.004098699468654243
61	0x3f72f7ef2a54e0b9	0.004630979766538861
62	0x3f7963e834b24318	0.00619879441650608
63	0x3f7fa54d1aab7940	0.007726002872656956
64	0xbf8377e5b25e3736	-0.009506029611454286
65	0x3f30ff42d6f3eea3	0.0002593553717386931
66	0x3f62896aa676c9b0	0.002262790967244764
67	0xbf7217176a392bc5	-0.004416552986707016
68	0xbf4f388eec59697a	-0.0009527871959094513
69	0x3f442fede115eda8	0.0006160651702624047
70	0x3f83d90e627b121b	0.009691345577615576
71	0xbf842ae167c2010d	-0.009847413042962683
72	0xbf7824a65cda0193	-0.0058943270247485855
73	0xbf73798389b9d952	-0.004754556484490928
74	0xbf6874f4222525b1	-0.0029854553442063216
75	0xbf822407b832e57f	-0.008857784565736491
76	0xbf6a3605ab8c2c5c	-0.003199587892941431
77	0xbf779e53f18bd48a	-0.005766227631046958
78	0x3f773a1f8732c7fd	0.005670664936745948
79	0x3f60fa5f88fd23fa	0.0020725122375648804
80	0xbf7bfc44f1995e87	-0.006832379638204273
81	0xbf6f37710e309dd6	-0.003810616313348207
82	0x3f6d0faf48f4771a	0.0035475181135912305
83	0xbf81fedab37467b7	-0.008786877252123888
84	0x3f8368105ac56e85	0.00947582985889218
85	0xbf769681d59c4bd0	-0.00551462856835179
86	0x3f5424b9bd867ef8	0.0012294591780132574
87	0xbf7c36c35c96c14d	-0.006888163692039773
88	0x3f4c6273ebaf425d	0.0008662286776318185
89	0x3f2482e242121344	0.00015648853244356654
90	0xbf549c0b56ca8139	-0.0012579069836321079
91	0xbf6f41a14cc66925	-0.00381547454726418
92	0x3f92b2ec9d0310cd	0.018260666926622805
93	0x3f8d6cabac70f4b0	0.014367428970326251
94	0xbf7f775005fe557c	-0.007682144729093007
95	0xbf675b19f7b23a89	-0.002851057737252309
96	0xbf61da8d5a685ba3	-0.0021794091037565396
97	0x3f650848c76dcdb2	0.002567426821252738
98	0x3f70cbca4fa4ef2c	0.004100599553847489
99	0xbf82a0865993bb24	-0.00909523926608597
100	0xbf6f8cf0ead770fa	-0.003851385633181545
101	0x3f63917a7226ddb3	0.002388705398711466
102	0xbf6f67d77e598c41	-0.0038336953028177694
103	0xbf7ac6cbc2b0a0ce	-0.006537242831690727
104	0xbf2b55f1478bbc43	-0.00020855493837454623
105	0x3f7548dc4d267eb4	0.005196438362332568
106	0x3f6f9b892d1c9cea	0.0038583449576382505
107	0xbf73e46cfb5d5b78	-0.004856515608330329
108	0x3f6327eccce87e64	0.0023383736618283624
109	0xbf70097e697bd3f6	-0.003915303990415167
110	0xbf719844a66c3a68	-0.004295604862604031
111	0x3f81df5f08cb93f0	0.008726828056248664
112	0xbf72e8ff8fbfdc9c	-0.004616735732262314
113	0x3f82494206989606	0.008928790880484715
114	0xbf77a42570938cbc	-0.0057717764368334055
115	0x3f55d70379fa8c41	0.0013330015134804948
116	0xbf64af12ffd2de85	-0.0025248881416606883
117	0x3f793f9aad1ab534	0.0061641733206390555
118	0xbf7e108fe278c186	-0.007340013551172203
119	0x3f82693eb0a1bd32	0.008989801183104083
120	0x3f726bf7f72452e8	0.004497498144947022
121	0xbf7a8ec9f75c3f87	-0.00648383038584644
122	0x3f6fa57860562e6e	0.003863082036962776
123	0xbf80a93ce4a76390	-0.008135295608484389
124	0x3f52ceb96d194eb3	0.0011479197313705558
125	0xbf8048765f159855	-0.007950711037391903
126	0xbf82a735daf6ea18	-0.009107990975157285
127	0xbf6194affad7e316	-0.0021460949999404606
128	0x3f6f3b4c2ebcd4b0	0.0038124549809262706
