tdse-amp-squared/tdse-amp-squared-main/tdse-amp-squared-main-script/tdse-amp-squared-main-script-forward-inverse/07-08-2022/numts-80_dt-1e-2/v5/thetahat.npy (npy, 1160 bytes, 1 tensors)

array f8 [129]
000000 69 c1 46 31 8f 86 83 3f 5b e0 6f dd 40 3f d3 3f
       0.009533995333953897 0.3007356798621054
000010 b5 9b 97 70 eb 52 ce bf 5d 70 fb e9 bc 6a fa 3f
       -0.23690550801913238 1.6510590686730418
000020 51 ec d5 3e 35 00 e9 bf 63 dc 96 2e 05 31 f5 bf
       -0.7812753894098795 -1.3244678325552506
000030 9c f5 8e 60 6f ea f8 bf bd a5 7f 46 53 04 fe bf
       -1.557235123807323 -1.876055980096097
000040 fb c7 b7 42 39 57 f1 bf f9 1b 59 20 1b 3d d1 bf
       -1.083794842354563 -0.26935461195938576
000050 d4 fb 29 44 e4 a6 f0 bf d7 1a 48 b5 aa e4 fa 3f
       -1.0407450354248242 1.6808268624605966
000060 6f fd 65 3c 9c 4b e3 bf 9c 4b 00 f0 14 68 e3 3f
       -0.6029797725349634 0.6064552962801488
000070 f8 0c 62 db f4 12 e4 bf 61 f5 b6 cf ee 01 d3 bf
       -0.6273140225243017 -0.2969929722274483
000080 06 35 c8 73 3d 32 be 3f 99 80 4d 37 f5 65 e0 bf
       0.11795410229406764 -0.5124460296756467
000090 db 9f 20 4a 55 14 f9 3f 51 11 ec 7b f8 6f 03 c0
       1.5674641509631246 -2.4296731645028236
0000a0 1a c9 32 8f 90 e0 00 40 68 53 81 95 7a 25 fb bf
       2.1096507251142045 -1.6966501083417942
0000b0 4f d9 d3 c4 26 b5 fb 3f ff 04 d1 ab 0b 46 ee bf
       1.7317264259887286 -0.9460504871168779
0000c0 83 2a a8 28 6b c0 bb bf 10 5a c7 b6 7c 29 e0 3f
       -0.10840482466316285 0.5050643510720096
0000d0 d2 c5 52 b8 23 f7 dd bf e1 e4 37 d1 b1 67 d1 bf
       -0.46820919990849774 -0.27195401603201047
0000e0 b1 ad 74 b5 7f e4 e5 3f 6c 22 65 ce f8 fd c1 bf
       0.6841429275568115 -0.1405631072796213
0000f0 50 60 ba a7 b4 c9 d5 3f dd 53 74 19 e1 f5 b8 bf
       0.340436137959391 -0.09750182029195238
000100 d9 48 91 47 3a c0 ea bf 82 c1 71 bc b2 ba c9 3f
       -0.8359652898600657 0.2010100765360328
000110 4d 99 bd 68 6f 20 c1 bf 96 42 87 cf d4 0c f2 3f
       -0.13380234350479228 1.1281326395584634
000120 dc 2a 77 34 c6 d0 e6 bf b2 58 83 98 bb 48 ed bf
       -0.7129851364819291 -0.915128515126318
000130 0f 11 9e 0f 4b c9 fe 3f 37 3e 92 fb 29 58 e4 3f
       1.9241438493782572 0.6357622064114768
000140 92 76 ec be 6a 10 d5 3f b8 26 02 ab fc b3 10 c0
       0.3291270126809219 -4.175768539434721
000150 81 b3 98 3d e8 30 cd bf 3a 25 45 29 fb f4 eb bf
       -0.22805502898827615 -0.8736549192482592
000160 0a df 00 ab 53 e4 f2 3f d5 36 95 74 6f 02 bd bf
       1.180743854505581 -0.11331841083775925
000170 6a c9 3f 6a d5 51 fe 3f 3c 5c b6 cf ed 14 cb 3f
       1.894978919063386 0.21157620088772144
000180 c1 17 f8 95 10 df f5 3f fa 60 4b 05 1e 0a 00 40
       1.3669591768425422 2.0049400724056996
000190 63 4c 9f 30 09 a2 e4 3f 24 6e 0e 3e 7b 7b 00 c0
       0.6447797727254393 -2.060293659987808
0001a0 bb 66 e7 88 fc b1 c4 3f 1e e8 6a d5 cb 96 f7 bf
       0.16168171581994337 -1.4743154846787614
0001b0 c4 39 31 f4 18 b5 bd 3f 2e 16 25 8b 8d 0d fc 3f
       0.11604457818723463 1.7533088145586464
0001c0 14 98 91 b7 72 6d 17 c0 be 72 1f b6 9b 44 18 40
       -5.856882923375469 6.067000241918036
0001d0 da 53 48 7a fb 1a f9 bf cc bb ed f4 4a ce d6 3f
       -1.5690874840413387 0.35634111326993145
0001e0 21 50 bc 23 f2 a5 12 40 79 ed 73 6e ed ea 06 c0
       4.6620565017401825 -2.8647106770637802
0001f0 b5 cc 2a 4e c7 df 1a c0 73 58 c8 7d e0 da 08 c0
       -6.718533727037699 -3.106873495747146
000200 a5 a6 14 c4 42 9b 0b c0 37 6a 0e fc 8f 12 c8 3f
       -3.4508109396745845 0.18806648070752072
000210 11 95 19 86 9e 87 a3 bf a4 1d 4f 43 cc e6 d2 bf
       -0.03814406763994261 -0.29533678601407076
000220 0a 10 e7 41 8b 2d e7 bf e4 71 cd c3 3d 04 d6 3f
       -0.724309567180627 0.3440088665136314
000230 7e 69 00 0b 43 61 03 40 07 8a 62 92 29 73 e5 bf
       2.422491155576778 -0.6703079089241449
000240 ad 16 ec a9 c6 05 db bf 5c 34 cf 42 54 b2 e0 3f
       -0.42222754091231246 0.5217686943884803
000250 e2 4b e6 8a 93 37 ac bf 07 b2 95 23 ac 0c de bf
       -0.05511151381065084 -0.46952346301148434
000260 0e 83 3d dd 06 37 e3 3f 94 e6 a7 2e bb 7e c3 bf
       0.6004671403025854 -0.1523050287067248
000270 fe ce 9b b4 1b 97 f0 3f 82 cf 10 1d 79 0e d8 bf
       1.0368916564011097 -0.3758833679050825
000280 18 e3 4d 8a 2f 26 85 3f 00 a2 77 e0 d0 3e fa bf
       0.01032673970051827 -1.640335919213726
000290 93 70 86 5b c2 f3 f4 3f 63 15 81 ec 49 91 dd 3f
       1.3095115256501557 0.4619927224742552
0002a0 da d5 ca d6 cd ef ef bf ae 52 5c e3 31 3a dc bf
       -0.998022956386815 -0.4410519333189694
0002b0 69 0b fd d2 73 4d f7 3f ec cc 5f 01 dc bd e4 bf
       1.4564092866646325 -0.64817619579699
0002c0 cc d3 fa f2 75 c9 e2 bf 03 89 22 f7 85 f5 c3 3f
       -0.5870923753451449 0.15593027655729239
0002d0 05 db 8d 80 59 28 d2 3f f3 3c 17 06 e5 be c5 3f
       0.28371274522889706 0.16988814160729468
0002e0 08 a9 e3 f5 c2 1c df 3f bc 8c b4 0c c0 89 e4 bf
       0.48613046658159975 -0.6418152092122891
0002f0 f8 9d 86 e6 92 ea e3 bf 9b fd 68 50 ae eb d6 3f
       -0.62238450073795 0.3581348214392734
000300 e1 45 01 30 ba 2b a1 bf aa 26 5d ab 42 10 d1 bf
       -0.033536737785322186 -0.26661745772126244
000310 af 4d 26 f1 4a 18 ff 3f 19 9b 2f 46 3c 28 e6 3f
       1.9434308452517646 0.6924115534610308
000320 27 d5 8c b3 b2 92 f2 3f 59 ef 1c 49 a5 89 bc bf
       1.1608149541546682 -0.11147530589090361
000330 35 a7 3e 29 ff 22 fc 3f 01 95 ad 31 00 15 01 c0
       1.7585441218493092 -2.1352542763803517
000340 34 88 91 ff ef 55 f1 bf 42 63 35 cb 62 73 0b c0
       -1.0834808333534172 -3.431340777937664
000350 10 29 f7 3d a5 c3 ff bf a0 69 f4 1d fd 81 d9 3f
       -1.9852650089765724 0.3985588829542852
000360 8c a8 9f fa 0b 26 f8 bf 22 97 d9 63 70 c9 fb 3f
       -1.5092887678133904 1.7366794491185336
000370 b6 fd de 99 55 3a f6 bf 2c f4 f6 d2 3a eb 06 40
       -1.3892417917812572 2.86485829177993
000380 e1 a1 fc 3e 9a f1 ec 3f 03 64 b6 09 c0 57 05 40
       0.9044924955570047 2.6678467520509925
000390 11 4f f2 5a 5a 44 09 40 97 68 47 53 04 d6 f0 bf
       3.1583754639813226 -1.0522502186854916
0003a0 a6 78 0d f6 0b 00 06 40 d4 b9 2d eb 85 60 11 c0
       2.7500228140698537 -4.344260859170806
0003b0 79 95 1e 05 49 88 00 40 26 5f 4d c8 f6 37 ec bf
       2.0665455245932063 -0.8818315422204008
0003c0 b4 59 92 57 dc 0c f2 3f 2c 6c 92 c6 03 b2 0c c0
       1.128139822079544 -3.5869212640223136
0003d0 0c 78 85 51 1a 2c fb bf 00 cd e6 be 44 a2 e2 bf
       -1.6982672867229693 -0.5823081711336329
0003e0 ac b2 a4 30 13 38 ec 3f e4 17 7e e4 27 6c 04 40
       0.8818450880113082 2.5528104639988545
0003f0 37 f9 45 32 85 72 1a c0 4a 26 fe 4e 67 1a 16 40
       -6.611836228867381 5.525784715902384
000400 17 8f 5e 33 1b ab 0f 40
       3.958547974894724
