tdse-amp-squared/tdse-amp-squared-main/tdse-amp-squared-main-script/tdse-amp-squared-main-script-forward-inverse/07-08-2022/numts-80_dt-1e-4/v1/thetahat.npy (npy, 1160 bytes, 1 tensors)

array f8 [129]
000000 95 d5 46 31 8f 86 83 3f ee c9 f3 df df 1e d0 bf
       0.009533995333962856 -0.25188443060247223
000010 5d 14 75 a6 40 59 f0 3f 12 3d 48 97 fd 25 eb 3f
       1.0217901708831711 0.8483875231485476
000020 b5 f0 c7 f4 fa df eb bf cc c4 87 40 36 e5 d3 3f
       -0.8710913449172241 0.31086498548309005
000030 e4 0c 3a 08 0e 0f c4 3f 40 94 2e 61 69 d9 d1 bf
       0.156709436432812 -0.2788947533647992
000040 7e 50 08 1f d3 56 d4 3f 53 ba 70 57 0b 83 d0 bf
       0.31779935865893794 -0.25799830950828556
000050 f3 af ca c0 8d 20 c4 3f ea 3c 23 ae e1 90 af bf
       0.15724346078547988 -0.06165223360732759
000060 25 16 52 b7 d3 8b 4b bf 88 24 f7 b7 55 37 a7 3f
       -0.000840643288612501 0.04534404631301309
000070 07 fa d0 db 15 88 af bf 0f 14 a7 9e 4f 4f ae 3f
       -0.06158512409500721 0.059198845021036665
000080 1c 72 36 7b 16 b9 a6 bf ea 9a fd 4f 92 86 98 3f
       -0.04438085798321742 0.023950849659196395
000090 e6 4b f2 43 89 7f 4b 3f f0 d8 4e 42 9c 15 98 bf
       0.0008391781083382204 -0.02351993708335781
0000a0 b3 7f 18 56 1b 90 a6 3f d3 d7 6a 95 9b 4b ae bf
       0.04406819749806292 -0.059170591344283395
0000b0 7e 35 72 4b a8 6b b1 3f ef 07 e7 a5 ca 50 b1 bf
       0.06804897157618048 -0.0676390318904223
0000c0 30 4a 3a 3b 2a 44 ae 3f 48 71 9e 5a bc a8 a3 bf
       0.0591138074206764 -0.03839672666728916
0000d0 a8 16 34 95 36 91 7f 3f b7 1f e3 13 4a 10 a1 3f
       0.007706845487751281 0.03332740299953179
0000e0 0a df 13 22 65 58 b4 bf bd 65 45 12 4d d6 c0 3f
       -0.07947380144093699 0.13153994934218174
0000f0 f8 a8 21 55 00 c3 c6 bf 8a 86 d8 9c fa c0 cb 3f
       -0.17782596737681167 0.21682675035940618
000100 47 56 25 34 59 9d cf bf 6f c5 47 8d a7 96 d2 3f
       -0.2469893936746976 0.2904452209177952
000110 32 1b 56 2c 2f 80 d1 bf fe b0 63 72 48 1a aa 3f
       -0.2734487469646637 0.05098177334170549
000120 0d 4e 7c 6d ac 1f de 3f 41 7f c4 f1 8d 75 bb bf
       0.47068319980573464 -0.10726248886612401
000130 e5 e0 5a 08 da 89 79 bf 64 65 d5 ad af df a3 bf
       -0.006234981241213887 -0.038815965623778564
000140 3c 09 fe 99 65 46 98 bf 15 28 1c 6a fb 65 b1 3f
       -0.023706042789407564 0.0679623731668076
000150 ca 46 a3 75 e5 a2 98 bf 30 b8 07 7b a1 04 a1 3f
       -0.02405890017036575 0.03323845507462442
000160 d4 a5 32 ec ea e0 9e bf e2 22 a0 43 ef 4c 80 3f
       -0.030154867807743305 0.00795924115301844
000170 d2 0f 84 23 2c 8f 70 bf ef 0c f7 a7 71 f4 7a 3f
       -0.004042789856843103 0.006580776185219891
000180 ef 86 32 aa 46 3b 83 bf 8e c9 fb 1e 66 a1 7e bf
       -0.009390403813373164 -0.0074781407454217585
000190 35 23 7b d8 00 f3 4a bf f3 b6 8a 89 11 4b 84 3f
       -0.0008224252823874958 0.009908806810325887
0001a0 c2 08 9f 74 79 12 7a bf ca da f5 1f a9 3e 64 bf
       -0.006365274844883641 -0.002471285173381109
0001b0 09 b7 5e d0 f4 4e 5a 3f 59 0b 6c 05 e6 43 93 3f
       0.0016057387124237008 0.0188136997994762
0001c0 03 6f 6a 64 47 18 78 3f 83 19 68 e2 80 ad 74 3f
       0.005882529140446516 0.005048278288546706
0001d0 1d d8 3d 76 10 ac 89 bf e1 81 6e 76 ad cb 75 bf
       -0.012535217865416165 -0.005321195209859715
0001e0 de d9 eb cf f3 7e 4d bf 6c 45 ef 85 3a 52 9d 3f
       -0.0009001436700078432 0.028633989739153362
0001f0 f4 66 71 a5 1d cf 97 3f 63 eb 07 cf 56 12 8b 3f
       0.023251021597707713 0.013218572800715206
000200 02 53 8d 3d 2f 05 91 bf 38 41 d8 fe f2 00 40 3f
       -0.016621339923704966 0.0004883944035914195
000210 e6 f5 da 76 81 0d 4e 3f e3 5a 19 93 09 d1 6c bf
       0.0009171373510167807 -0.0035176455501571987
000220 f8 07 b0 e0 f4 7c 7a 3f b5 8c 52 18 95 30 0b bf
       0.006466824105702422 -5.1860380190471405e-05
000230 99 67 95 62 7e 49 54 bf e2 9b 04 50 6d a9 66 bf
       -0.0012382253865639069 -0.0027663359652651967
000240 5c ab 06 ed 23 e7 78 3f f7 da aa fb 8f 80 62 bf
       0.006079807601433309 -0.0022585689706277018
000250 bd bb 15 17 b7 14 77 3f 9d 25 7d cb 54 8a 6a bf
       0.005634989925382192 -0.003239789595600852
000260 32 f0 25 fe d4 60 63 3f 89 7a 78 d5 1d 45 55 bf
       0.0023655090346306413 -0.0012982169481642622
000270 df 02 1d 38 fc c1 56 3f 08 13 83 b2 de aa 42 bf
       0.001389023120694492 -0.0005696856869908682
000280 e7 4a d1 c8 19 30 4e 3f d3 7b 5c 48 2e b2 4e bf
       0.0009212613964656142 -0.0009367681493336284
000290 95 8a ff 75 4b 10 55 3f d6 e8 4e 6b 63 66 5c bf
       0.0012856232569837024 -0.0017333956613883503
0002a0 90 af 07 95 ce a9 63 3f 4e 90 e7 e6 b2 cf 68 bf
       0.0024003062064731975 -0.003028726022636297
0002b0 3f 73 33 1c b0 ad 6e 3f c4 25 59 54 99 56 71 bf
       0.0037449302341045205 -0.004232977813054931
0002c0 a8 ba 67 16 1c 13 72 3f 09 8b 5d db 2f 39 72 bf
       0.004412755696178529 -0.004449068966865929
0002d0 59 c0 f3 2c 53 30 70 3f ad 1a 72 ed bf cf 69 bf
       0.003952336220422203 -0.003150820597116541
0002e0 62 06 20 53 12 78 63 3f b2 60 2a 0b e0 2f 58 bf
       0.0023765905289117465 -0.0014762580800944777
0002f0 02 52 53 42 ea 07 2b 3f aa b1 1f 1e 9b 79 21 bf
       0.0002062295399471032 -0.0001333238461137647
000300 b1 7c a4 f2 74 ed 28 bf e9 af 73 ef 64 bc 44 3f
       -0.00019018223367426237 0.0006328099106247517
000310 fd 57 b2 3f 71 07 1c bf 1d 21 22 61 50 3c 77 bf
       -0.00010692242351448274 -0.005672754270684058
000320 f2 53 f6 cf 2a d0 64 bf 6a 93 7d 86 0c 3b 56 3f
       -0.002540668123126804 0.0013568517988115877
000330 92 9e 76 68 fb 93 6b bf 8a 75 a4 cd ba f0 7c bf
       -0.0033664617837592748 -0.007065515232424055
000340 2c 5f c5 68 7d fc 4c 3f f0 b3 1e 2d e5 b1 70 3f
       0.000884591326705019 0.004075904102063696
000350 5f 66 31 5a c9 3c 72 3f 3d 24 5a 5b 49 f5 72 bf
       0.004452501804814795 -0.004628454733059559
000360 a9 ca a0 c0 88 ac 61 3f c4 a5 fe b6 d9 36 6e bf
       0.002157466025005068 -0.0036882641070021555
000370 f7 8b df c6 02 92 72 bf 49 af df d4 c4 7d 81 3f
       -0.0045337780447622855 0.008540666338340623
000380 9b d6 bb 4a 42 63 72 bf 68 d5 fb 19 98 c2 82 3f
       -0.0044891919640030154 0.009160221379242287
000390 36 5a 1e f6 eb 26 7a bf f5 e3 f0 fd e7 ed 5c 3f
       -0.006384774898740056 0.001765705637593704
0003a0 48 e5 5a 08 04 bb 66 bf 73 76 ce d7 45 64 7a 3f
       -0.0027747229349556514 0.006443283867069038
0003b0 92 b1 f8 60 ee 7a 7f bf 95 90 04 17 40 7f 82 3f
       -0.007685595671813055 0.009031773283432446
0003c0 dd 0f fc a9 34 c0 72 3f 97 44 c0 55 e9 b0 7a bf
       0.0045778329074472575 -0.0065163721701690025
0003d0 1f 08 1b a0 5b 68 70 3f 2b da 86 79 bf 4d 81 bf
       0.004005773460166422 -0.008449073692514983
0003e0 b0 d8 f4 96 4f 1f 53 3f 04 29 50 bf 28 9e 80 bf
       0.0011671330683618412 -0.00811416467515303
0003f0 60 11 24 e0 7a 52 82 bf 73 26 42 2b f3 4a 62 bf
       -0.008946380582081914 -0.0022330045122245733
000400 ad 54 6f 25 11 96 6f 3f
       0.003855737198572648
