tdse-amp-squared/tdse-amp-squared-main/tdse-amp-squared-main-script/tdse-amp-squared-main-script-forward-inverse/07-08-2022/numts-140_dt-1e-2/v1/thetahat.npy (npy, 1160 bytes, 1 tensors)

array f8 [129]
000000 ff f4 b2 a5 fa 46 5a bf 8b a3 ee eb c4 25 50 40
       -0.0016038367964903986 64.59014414124083
000010 67 f8 bf f4 24 55 43 c0 f7 33 5a 4d 8e 4f 20 40
       -38.6651903092723 8.155382554303271
000020 49 2c a0 81 0a 61 2f 40 66 49 a5 05 66 e2 38 c0
       15.68953328209149 -24.88436923299141
000030 7e f8 93 b8 cf 4d 36 40 4a a8 38 76 81 41 30 c0
       22.303950821042683 -16.25588168032872
000040 9d 49 a0 a7 24 79 2a 40 36 77 b8 f7 2b 48 2b c0
       13.23660777885089 -13.640960446613104
000050 83 6e 54 37 1c 0a 2a 40 72 63 31 64 4a de 1c c0
       13.019746522003748 -7.217080655588562
000060 eb e9 9d c3 23 23 09 c0 50 72 fd a1 98 15 29 40
       -3.1421580584112596 12.542180120647714
000070 be aa 49 5b 67 cd 2d c0 ee ae 65 c5 05 90 21 40
       -14.901179173224019 8.781294029867663
000080 31 f0 bb 86 69 64 ec 3f 91 00 f0 82 5b b7 18 c0
       0.887257350113492 -6.1790600260720945
000090 ca 65 99 66 50 d2 01 40 2a 52 02 8d bd 5f 21 40
       2.227692414814304 8.686993032964057
0000a0 7f ed ff ae 4e 52 32 c0 b4 e1 6e 3e 20 56 32 40
       -18.32151311634288 18.336429502554623
0000b0 be 36 02 75 d4 64 1a c0 c1 3b c8 18 9f 99 25 c0
       -6.598466709385034 -10.800041937296443
0000c0 32 62 04 8f 52 68 37 40 f4 7b 3c 75 15 7d 37 c0
       23.40750974518796 -23.488608672396325
0000d0 0e de 51 62 6e a1 26 40 bb 82 c0 12 9b 62 14 40
       11.315295288556651 5.096294682502669
0000e0 8b 35 cb b7 07 22 2f c0 36 33 c1 0b 80 1a 2d 40
       -15.566465133243375 14.551758162816991
0000f0 d8 e0 d3 31 3f 80 11 c0 c4 7b 7d b8 7d 86 1c c0
       -4.375241068417573 -7.1313389612759615
000100 00 94 1d cc 13 fb 28 40 e4 19 66 7d 65 8e 23 c0
       12.490385416613208 -9.778118056024091
000110 8c 87 a5 04 a5 d5 09 40 9e c7 19 16 71 37 eb 3f
       3.2293186533942784 0.8505177909521426
000120 c5 06 9a e9 2a e1 d7 3f 84 be 71 20 54 d3 17 c0
       0.3731181412950771 -5.956375605528255
000130 8d 17 5a a7 6b 3a 22 40 7d 07 3c 1b 83 ab 1c c0
       9.114102582690771 -7.167492318667311
000140 28 f0 cb cc 38 4c df 3f 4e 31 5d 1b 7f 09 1b 40
       0.48902721404715743 6.75927393680861
000150 e9 fe 36 d6 2b df 1e c0 15 c7 59 f7 a0 aa 07 40
       -7.717940661532091 2.9583148311875314
000160 a0 33 d8 16 c4 33 11 40 53 6f 12 92 3d 36 20 c0
       4.300552708574202 -8.105938496351575
000170 a5 13 6f 77 51 7c 0d 40 76 b5 54 37 90 bc 16 40
       3.6857022600911074 5.684143890900819
000180 b4 d2 aa dd 15 f8 2b c0 ed 55 09 f4 f8 6a 2e 40
       -13.984541823484825 15.208930612697225
000190 f3 56 c7 d8 7f 87 1d c0 60 01 6f 4d 00 58 10 c0
       -7.382323634306647 -4.085938653850775
0001a0 9e 5c cc a8 cc 36 27 40 f2 72 2f ba f3 87 24 c0
       11.60703017706538 -10.265531366626849
0001b0 85 45 3b 84 98 eb e4 3f 96 18 d9 ef 85 28 25 40
       0.6537592489859639 10.579146857501012
0001c0 40 bd 46 43 44 0b 30 c0 76 80 63 e9 17 83 29 40
       -16.044010357637717 12.75604180659887
0001d0 b4 5d ca 8c c2 f9 08 c0 0c 34 f2 64 45 26 18 c0
       -3.1219531058556758 -6.0373740933255355
0001e0 64 30 48 fe a7 ae 23 40 cf 10 2e a3 ee c6 1c c0
       9.841125437080514 -7.194269704519868
0001f0 ae a9 22 d0 2c 82 06 40 30 36 22 75 2a 30 e0 bf
       2.8135620365694285 -0.5058796203390497
000200 50 1d 77 3c e6 b7 16 40 66 7e 8c 36 0c e7 e2 bf
       5.679589218874142 -0.590704065838463
000210 75 83 ea 03 c1 48 e6 3f 5c 3b 26 b5 ac 2e b2 bf
       0.696381099365779 -0.07102469847289455
000220 35 af 88 dc 07 4d f2 bf ca b7 bf 83 3d f6 04 40
       -1.1438063253981003 2.6202345173723858
000230 8f 2b 7b 1d 0a 41 10 c0 fd 64 db 91 f9 46 15 40
       -4.063515148775777 5.3193114080579535
000240 97 64 a8 43 3f 1e 19 c0 89 97 98 3c 4f dd 1a 40
       -6.279538209107293 6.716122576535676
000250 8c 96 ae c7 f7 00 19 c0 72 18 8f 30 c7 3f 12 40
       -6.25094520571805 4.56228328584085
000260 33 42 06 c7 71 1a fb bf ee df 7f 82 ee 9f fc bf
       -1.6939561628715978 -1.7890458200108657
000270 26 8c 95 da d1 ee 13 40 35 48 fd 70 7a 5b 1c c0
       4.983222403886463 -7.089334264239416
000280 79 2a f2 13 58 47 1f 40 5e e2 29 3a d9 e3 1d c0
       7.819671928077349 -7.472508343511974
000290 c9 0e 9f d1 89 75 1a 40 30 e5 bc d4 9e 78 16 c0
       6.61478354962646 -5.617793392209293
0002a0 0b 27 d3 f6 bd a5 11 40 eb 83 58 0a 9d 45 05 c0
       4.411857468259551 -2.658990937067292
0002b0 1c 30 2f b0 ab bf c9 3f df ff 0c 83 ea c0 04 40
       0.2011618242526091 2.5941972959844715
0002c0 92 5c e3 8c 9e 9c 13 c0 40 68 63 e6 4c ac 17 40
       -4.902948571564723 5.918262100045524
0002d0 24 bd b7 6b 56 8b 15 c0 31 da a5 a8 10 3c 0e 40
       -5.386071856584099 3.779328649102603
0002e0 8c 05 80 12 db 58 ff bf 17 90 22 33 c4 47 e2 3f
       -1.9591932985934788 0.5712605475168883
0002f0 03 6c 07 a1 83 d6 d6 3f 12 95 cd 24 55 b5 f4 bf
       0.3568429062412976 -1.2942706525439616
000300 d8 a0 1a f4 25 37 05 40 3b 90 c6 cd da 03 11 c0
       2.651927859366065 -4.253764357799862
000310 a2 e2 28 61 85 24 15 40 e3 5d 91 20 67 83 13 c0
       5.285665052528801 -4.878323086616976
000320 10 89 36 df a2 29 06 40 cb d6 47 d7 40 09 d3 3f
       2.770330184795178 0.29743977569101493
000330 c7 3d e6 8f fe 43 06 c0 7b f9 b9 90 87 55 0c 40
       -2.783200382436664 3.541762476611607
000340 2e d1 fc 42 da 9d 01 c0 20 a8 1d 34 55 b3 d5 bf
       -2.2020764573482188 -0.3390706070846381
000350 25 32 84 f2 b0 02 05 40 63 3a 03 45 cb ea 0d c0
       2.626314062747286 -3.7396455184564714
000360 9d 46 6a 96 2a 9c 0b 40 f0 9d 4b d7 5f cc 04 c0
       3.4512531043227015 -2.5997921771956882
000370 32 29 34 e1 f5 cd ff 3f 3e 69 0d 77 3e 14 fd bf
       1.987783317281878 -1.81744238381232
000380 59 26 40 20 97 bb fa 3f 05 e1 0f bf 26 53 eb bf
       1.6707984218395693 -0.85390031163027
000390 c1 44 a1 e1 4e ed e8 bf b4 9d 84 85 34 df 03 40
       -0.7789682776293817 2.48398689566576
0003a0 6c 1e 43 62 3f e0 09 c0 51 cc b0 f1 bd 2b 03 40
       -3.234495895074181 2.3963583833770277
0003b0 08 ef 4a f3 33 a8 dc bf 6a 76 ac 2a 23 8d f3 bf
       -0.4477662921815271 -1.2219573656979272
0003c0 1f c5 59 23 43 f4 f4 3f 54 ff 22 72 73 bf df 3f
       1.3096343403706852 0.4960602392784399
0003d0 c3 59 c1 d7 58 63 09 c0 bc d6 93 b0 7c 93 13 40
       -3.17350929793176 4.894030341170659
0003e0 0b 29 6a 5d 10 8b 11 c0 cf 95 ed d3 89 d9 f9 3f
       -4.385804614643585 1.6156099584999202
0003f0 5a 6c c5 05 f4 0d ff 3f 78 2e e7 97 39 06 12 c0
       1.940906546157541 -4.506079076276016
000400 5f 4a df 4c de c1 13 40
       4.939324570778438
