tdse-amp-squared/tdse-amp-squared-main/tdse-amp-squared-main-script/tdse-amp-squared-main-script-forward-inverse/07-11-2022/numts-25_dt-.008/v3/thetahat.npy (npy, 1160 bytes, 1 tensors)

array f8 [129]
000000 73 d5 46 31 8f 86 83 3f 44 44 ac d5 7e a4 ab bf
       0.009533995333962797 -0.05398937567054721
000010 8c 72 d4 3b bf f4 d9 bf 07 0b ae 7a 3c 58 9b 3f
       -0.4055631717945196 0.026703782069954076
000020 a3 a5 75 c3 05 b3 87 bf 5d a5 4d 90 b0 6d 7b 3f
       -0.011571927096798279 0.006696405126470265
000030 eb 73 9f 9a 1b 1c 72 bf b8 f0 a9 bd 8b d9 69 3f
       -0.004421336963756221 0.0031554917634918044
000040 8c dd 84 53 f2 6f 63 bf a1 5c 90 37 64 59 5e 3f
       -0.002372716229867405 0.00185236727543784
000050 c9 87 9b 81 64 60 58 bf bc 73 d2 35 4e 05 54 3f
       -0.0014878255373606977 0.0012219680568599086
000060 3c cf a1 32 b2 bd 50 bf 38 9b 7c 7a cb 6a 4c 3f
       -0.0010217895710668687 0.0008672231242357947
000070 1a f7 52 05 b2 6c 48 bf 6c b9 e3 04 52 38 45 3f
       -0.0007453793756650757 0.0006475830539594391
000080 19 a1 93 2e fc 9a 42 bf 8f 8e 5e c4 e4 71 40 3f
       -0.0005677920682077036 0.0005018584276865345
000090 82 62 52 67 f5 46 3d bf ee 63 a8 c3 25 39 3a 3f
       -0.0004467343454251164 0.000400134773060722
0000a0 93 8c c0 8c c9 9e 37 bf 1b 9b 0c 69 f7 61 35 3f
       -0.0003604166092847163 0.00032627382556642417
0000b0 a0 14 c8 48 f5 70 33 bf ed 88 86 03 59 bf 31 3f
       -0.00029664982210448644 0.00027080462634833277
0000c0 f0 60 15 f2 aa 41 30 bf ab d5 a1 3e 4c dd 2d 3f
       -0.00024805472829349164 0.00022784763070020134
0000d0 2f 14 7d 10 c4 7e 2b bf 08 83 95 ef 01 5d 29 3f
       -0.00020977156986581996 0.00019350670462883073
0000e0 ef de f0 28 03 69 27 bf 67 88 7b 04 71 9b 25 3f
       -0.00017860568593319008 0.000164849802096137
0000f0 f0 13 5a a6 95 e6 23 bf f0 5b 35 0d 59 3c 22 3f
       -0.00015183045177394284 0.00013912760787590473
000100 3c 81 a7 5b 89 81 20 bf b1 23 ed c1 03 5c 1d 3f
       -0.00012593080266666025 0.0001119973462496832
000110 1f 82 5a 15 40 bf 18 bf 45 b6 44 21 e5 78 13 3f
       -9.440258630855805e-05 7.42807245088457e-05
000120 81 58 8e b3 f1 ba 06 bf bc f0 c9 58 a8 b7 15 3f
       -4.3354512349201055e-05 8.28453541518751e-05
000130 3d df 71 6f 59 f5 18 3f 40 e3 cf 62 9c dc 58 3f
       9.520872468893062e-05 0.0015174414832001687
000140 9d d7 71 93 97 38 64 3f 0b fc 69 a3 37 5c 70 3f
       0.002468391463078269 0.003994195306062496
000150 6c 68 1b da f8 6d 70 3f 16 e2 c0 38 a0 b7 71 3f
       0.004011127546357778 0.004325509897221488
000160 db 87 38 4f fc d7 67 3f c9 47 90 a3 54 03 56 3f
       0.0029106071394986283 0.001343567519374466
000170 f5 17 37 59 35 16 34 bf 06 04 6d 5d d1 d7 5e bf
       -0.00030649950459993243 -0.0018825096683061661
000180 d6 ef 91 46 e4 15 68 bf d9 63 57 e7 7b 0d 67 bf
       -0.0029401262768810983 -0.002814046859139979
000190 05 09 48 89 9b 54 60 bf 19 ab 79 e9 0a a4 44 bf
       -0.001993469030140751 -0.0006299069672882379
0001a0 f6 1a f8 c7 51 e4 4c 3f d0 0a 90 db 45 3c 5f 3f
       0.0008817099878236357 0.0019064600185180643
0001b0 f2 19 0a 88 64 7e 64 3f 9a df e0 dc 7e 44 66 3f
       0.00250167498626585 0.0027182081021485784
0001c0 af e8 de ed ce f6 64 3f 1c 86 0f 24 15 72 69 3f
       0.0025590936265561175 0.003106156626458979
0001d0 ef da a3 07 12 03 69 3f d0 1b 9c 74 7b 7b 69 3f
       0.003053221907176044 0.0031106387367602975
0001e0 27 2b 52 8e 16 10 67 3f f1 c1 5d 24 19 21 62 3f
       0.0028152885957458853 0.002213048081948659
0001f0 eb 2e 38 95 7d b9 5b 3f a0 df 08 ff c8 d3 54 3f
       0.0016921736140628706 0.0012711966375160491
000200 d0 ba c7 17 64 ea 36 3f 9e 06 e5 ca fa 95 92 bf
       0.0003496641509447675 -0.01815025199289854
000210 7e 81 88 33 f6 73 d1 bf 10 3f d4 0b 73 95 9b 3f
       -0.2727027419332656 0.026937291714658917
000220 46 2a f1 1d 38 e0 8f bf ac af ea b0 cd 0d 87 3f
       -0.015564382947691812 0.011256796800203826
000230 e5 05 f9 80 2d 43 82 bf 2f f0 69 94 73 67 7e 3f
       -0.008917193888126238 0.007422877772679511
000240 6c 97 73 31 10 1e 7a bf d2 21 83 17 0a ee 76 3f
       -0.006376326803751425 0.00559810583235572
000250 1f 53 39 6d e8 74 74 bf 88 db 04 cd 34 7a 72 3f
       -0.0049943045774696595 0.004511076215115824
000260 7c 9c de 77 04 db 70 bf b0 64 11 7a 57 00 6f 3f
       -0.00411512132078606 0.0037843426257891596
000270 e4 64 3a 5e 81 b3 6c bf 1a 78 77 b7 1c b9 6a 3f
       -0.003503563568142286 0.0032620964882275174
000280 1c 90 bb af c5 00 69 bf 7f 70 e5 49 29 7e 67 3f
       -0.00305212603221784 0.002867775575550679
000290 a8 4b 86 a5 e8 27 66 bf cc 7b 4b 7d a6 f6 64 3f
       -0.0027045768621944584 0.0025590183016528153
0002a0 ce 96 d7 74 90 e4 63 bf 63 21 ec 86 1e ed 62 3f
       -0.002428323880610295 0.002310332892538168
0002b0 06 de 7d 06 9a 0c 62 bf 21 df a1 ce d1 3f 61 3f
       -0.002203274565484528 0.002105626849750922
0002c0 04 5e 5f bb 45 84 60 bf 68 aa a8 cb bf af 5f 3f
       -0.0020161973907126835 0.0019339917186111059
0002d0 92 e2 13 ae 59 71 5e bf a1 e3 d8 fe 38 4a 5d 3f
       -0.0018580795079385132 0.0017877155872964917
0002e0 12 54 30 2b f0 37 5c bf e0 2e b9 64 c6 37 5b 3f
       -0.0017223210713883702 0.0016612470088998507
0002f0 e4 82 d7 5d 7e 47 5a bf 5b 90 47 c5 42 65 59 3f
       -0.0016039594696552412 0.0015500213677279915
000300 b3 63 27 0a f2 8e 58 bf 06 57 a1 34 c7 bf 57 3f
       -0.0014989246052350246 0.0014495320670184233
000310 81 95 81 2c 86 f4 56 bf 70 4a f4 0c 4e 19 56 3f
       -0.0014010725299383466 0.0013488065922656854
000320 ef 82 7c 0d a9 28 55 bf 3d 55 88 fe c7 18 53 3f
       -0.0012914324669923113 0.001165576273824811
000330 80 ff 3d fb a8 ca 51 bf 92 dc 0a 73 18 a7 58 3f
       -0.0010859155854347768 0.0015046824229736672
000340 a9 cc 65 ff ba ff 50 bf 1f 4e 30 5b 57 8a 57 3f
       -0.00103753339280103 0.0014367917144725362
000350 80 a0 c7 95 44 94 58 bf 00 61 e1 88 59 29 51 3f
       -0.001500193574537817 0.0010474562036702495
000360 7b bc db 75 4e 17 50 bf 64 5e d1 7b 66 17 54 3f
       -0.0009821191992463163 0.0012262821976686484
000370 b6 af 7e e0 d8 b2 4f bf 79 5e 30 c4 f0 0d 57 3f
       -0.0009673651666068847 0.0014071322664274395
000380 92 a2 8b b1 8a 94 47 bf 70 d9 43 ed 11 45 57 3f
       -0.0007196118559394552 0.001420276171356951
000390 32 04 47 07 b5 f5 44 bf d2 6c bd 10 a6 81 5b 3f
       -0.0006396421363704717 0.001678859875901041
0003a0 f6 bb 98 a6 5b 8f 2c bf d6 eb 6b 9e 55 bd 5f 3f
       -0.0002178954485300974 0.0019372306939533421
0003b0 02 47 91 8d 3a d7 3d 3f a2 64 a3 e7 6b 80 62 3f
       0.0004553335143714228 0.0022585017696710877
0003c0 08 23 41 0d cb a3 1e 3f 3e 5b 6d 49 ec 97 48 3f
       0.00011688162641222352 0.0007505325073492231
0003d0 5c a1 63 c8 c4 6b 64 bf 75 ee 5c 80 4b 55 61 bf
       -0.00249279436240017 -0.002115867103297304
0003e0 45 24 59 c9 17 86 73 bf 6c 15 de 6a 87 2a 6a bf
       -0.004766552845077381 -0.0031941075203031823
0003f0 f3 03 cf ab 1d ad 72 bf dd 36 ee b4 c8 2e 63 bf
       -0.004559627440301905 -0.0023416442922500184
000400 db 1e 54 13 40 cb 68 bf
       -0.003026604793038829
