tdse-amp-squared/tdse-amp-squared-main/tdse-amp-squared-main-script/tdse-amp-squared-main-script-forward-inverse/07-11-2022/numts-200_dt-.001/v6/thetahat.npy (npy, 1160 bytes, 1 tensors)

array f8 [129]
00000000: 4eda 4631 8f86 833f 8fb6 df99 77f3 c4bf
00000010: 6f09 70a9 03c7 bcbf 0a60 cb8b 81e2 b6bf
00000020: 8a49 1796 b53b b2bf 6b0d 98dd 5664 aebf
00000030: 10ec 66e3 f439 a9bf 820e 8606 bc77 a5bf
00000040: 3d91 c89d cb2c a2bf 8a20 3293 394e 9fbf
00000050: f69d b878 add0 9abf a49e f40f f446 97bf
00000060: 2111 4c4f 9417 94bf 105b 31ef 7b8a 91bf
00000070: ff4c c8dc 0872 8ebf bb60 d567 4eb2 8abf
00000080: dfb5 8894 5d42 87bf bd8d c2ce ab77 84bf
00000090: c998 916a 5be2 81bf e730 6330 c891 7fbf
000000a0: 76ba c596 d2a4 7bbf fd0c 1070 f376 78bf
000000b0: db66 ce38 1674 75bf c5b5 cb79 2c09 73bf
000000c0: 6bc0 c693 d0b4 70bf 4393 22a5 30ba 6dbf
000000d0: 5c95 fd28 0b17 6abf dc2a 3c28 7c49 67bf
000000e0: 8c95 9f10 d169 64bf 2a7a 171c 4c4d 62bf
000000f0: 83bc b951 f2f9 5fbf 768c ca63 6de2 5cbf
00000100: 8bbd 5c7f de04 59bf 977e d16e 45f2 56bf
00000110: 064c ac56 d377 53bf 109a e613 ac70 52bf
00000120: 5911 5f74 6757 4ebf d0e3 7146 d7cf 4bbf
00000130: b98c 2d87 c7b1 4fbf 11d3 f3f5 ab89 5cbf
00000140: 441e b469 50c6 5cbf 160f 0830 3aec 333f
00000150: 2228 809b 8f27 503f 9222 2921 c106 583f
00000160: a2c3 92e1 b318 513f a9a2 f1f9 d422 d13e
00000170: c394 8496 7a72 55bf 6619 28b1 d1da 60bf
00000180: 213c 1c82 cb17 60bf 5ede 88e4 c7b6 59bf
00000190: 4a91 81e8 1d39 45bf 5521 f91c ac89 393f
000001a0: c899 e505 cb76 4a3f e302 25d2 d883 513f
000001b0: 89ab 47b2 c3cf 4f3f 7b93 a431 0d7a d3be
000001c0: 1c75 3bdc 8c26 26bf 7d4b ab8d 8e78 24bf
000001d0: c694 6aae 6ca5 43bf 74b2 3376 5c2e 37bf
000001e0: 7f6c 787d 7043 32bf f9af 4600 e0bf 40bf
000001f0: 0cd0 2b4e c650 1bbf 8fc9 9db4 6abc 1c3f
00000200: 120e ce6d bc37 223f 17c8 1eda 0f3c df3e
00000210: 2364 ceb9 6138 cebe 03f7 7674 ee5a d13e
00000220: f7d9 24ea bec3 d7be 0e27 3ac1 5011 de3e
00000230: 0b7f cf00 1100 dcbe b6c7 e384 edba d63e
00000240: 6901 9c26 72ce d6be 71ec 9d3f 9f51 d13e
00000250: 201f 3b42 7495 cebe 5fd0 c96a d861 c83e
00000260: 6fe5 2ea8 8b90 c1be 5832 3a0d 525c ab3e
00000270: 0ea5 01d2 3984 85be 91db ba12 7451 b0be
00000280: 9865 9e5f 5a67 b73e 888c 628e 2b16 c2be
00000290: b90e 774c 5d7e c23e 32bb b4db 231c c6be
000002a0: 9ccb 1d77 eb9c c33e 5a51 c019 cda8 c5be
000002b0: 2321 4841 93fb c13e 5dff ceaa a10f c5be
000002c0: a085 d6cc 471b c23e 5ed7 b4c3 229b c6be
000002d0: 9c33 94f9 4cb3 c33e 3a94 35d2 29c4 cabe
000002e0: bf78 d149 6579 c93e 4fb3 7397 3ebc d2be
000002f0: cb74 d137 3e97 d43e 3281 dc37 8651 e0be
00000300: b4d6 e4b6 39e0 e43e fdc0 271e 47c6 f1be
00000310: 69c1 e0c0 8bc2 f83e 17e2 6fb5 9d3b 04bf
00000320: b551 472f 4936 043f fdf8 039b f192 013f
00000330: d44f 6476 1883 49bf 64dd 9e6d b4bc 2abf
00000340: 9375 a3db 5001 353f 686d 1f1f 1f79 453f
00000350: 46c1 8618 6347 443f 54c7 00c6 0570 333f
00000360: 63b6 8324 46cf 48bf 7482 c55b 0187 41bf
00000370: 5728 058a 3222 11bf f18f f671 7331 16bf
00000380: 1fb5 9218 9737 453f d31f ddf7 31cd 01bf
00000390: 076e dbd3 0eff 373f 9775 743a e10e 44bf
000003a0: bd8c 61d6 7af6 26bf d33f 70d3 7869 35bf
000003b0: 0e0a 8ea3 860a 38bf 4675 8e7d 4d07 493f
000003c0: 41ab e859 604b 3f3f 4dd9 2819 3963 1e3f
000003d0: a6e0 642c 61f6 d6be dbb6 cfd1 9b73 22bf
000003e0: e05d 2fb0 8185 2bbf 8fa8 f99c 5bb0 06bf
000003f0: 3bbf ce96 5a1a e73e 9c47 f645 38f1 1d3f
00000400: 1709 ab4b 6ba5 2c3f
0.009533995333964953 -0.1636800290429403 -0.11241171728764753 -0.08939370787572912 -0.07122359194116804 -0.0593592782497819 -0.04927029872802546 -0.041929126545281484
-0.035498011599232694 -0.030571841820830538 -0.0261866669590329 -0.02273160312066004 -0.01962119802466689 -0.01712983748833624 -0.014865941274399662 -0.013035404723879975
-0.011357050986670223 -0.009993879554094027 -0.008732523145408415 -0.0077073879130688866 -0.006748983967880142 -0.005972815445605348 -0.005237662128729527 -0.004647420628982106
-0.004078688387764466 -0.003628821382408638 -0.0031848161669808927 -0.0028426575607956982 -0.002491863565398494 -0.0022341238516070576 -0.001951681747325102 -0.001762968851075878
-0.0015270397975191998 -0.0014005353980549912 -0.0011882366040409944 -0.001125495953240855 -0.0009259467267317786 -0.0008487511776272775 -0.0009672378786088821 -0.0017418078712669353
-0.0017562661440154873 0.00030399723621620087 0.0009859945694210633 0.0014664541273693749 0.0010434872295201699 4.085555615686875e-06 -0.001309032168202593 -0.0020574660823086564
-0.001964471318280939 -0.001569457252243021 -0.0006476779972329008 0.0003896756361183769 0.0008076182673846738 0.001069032420289933 0.000970812373052397 -4.643622356224958e-06
-0.00016899556623332305 -0.00015618076471088016 -0.000599554125831369 -0.00035371549002042387 -0.00027867790547170945 -0.0005111545329348203 -0.00010420046195830384 0.00010961915282140508
0.0001389901653078151 7.446912975982523e-06 -3.6025334808173814e-06 4.137802370461068e-06 -5.665929764744972e-06 7.168683641042981e-06 -6.675782072001827e-06 5.419298828567294e-06
-5.437476468861697e-06 4.129132315951112e-06 -3.645873691702261e-06 2.906585754575529e-06 -2.0938671822761164e-06 8.154102268550835e-07 -1.6031047156702662e-07 -9.726391664696366e-07
1.3949705803594899e-06 -2.156090988485153e-06 2.2046102434463563e-06 -2.635708111895819e-06 2.338047971167527e-06 -2.581999252635408e-06 2.1437067607746174e-06 -2.510674070837979e-06
2.158470670380385e-06 -2.694845105867296e-06 2.3484698884524313e-06 -3.190787212825036e-06 3.0367614969737296e-06 -4.4668507748036e-06 4.909227638708392e-06 -7.781245354332963e-06
9.954395605231557e-06 -1.695110575811262e-05 2.3612923591710524e-05 -3.8591146839853946e-05 3.8551433963060674e-05 3.351974317132749e-05 -0.0007785672612805558 -0.0002039880990289774
0.0003205130011688314 0.0006553079567725275 0.0006188615671387863 0.0002965940566382792 -0.000757130860646615 -0.0005348927148070685 -6.535943476140955e-05 -8.46602165354702e-05
0.0006474960111028416 -3.3953750046722104e-05 0.00036615478516718907 -0.0006121253726722339 -0.0001751923511533522 -0.0003267211899933262 -0.0003668383320062648 0.0007638100024568793
0.0004775152428090797 0.00011591945648423592 -5.474667608411506e-06 -0.00014077450842313915 -0.00020997245891750307 -4.327563840152246e-05 1.1016342534947098e-05 0.00011422067608737738
0.00021855292091827662
